model/save/v8_2022-08-30_13-25/model.pt (torch, 594147 bytes, 6 tensors)

lstm.weight_ih_l0 f4 [256, 512]
00000000: e1a5 90bd 8a58 49bc d802 4dbc 9b69 bb3d
00000010: 3239 793d d2b6 0a3d db8b 31bc ebe2 ab3d
00000020: d1f0 47bd 4c8f a6bd caf5 9dbd 0454 423d
00000030: fb50 9abc fef9 dbbd 132c e6bd 2c38 313e
00000040: b36c 083d 3218 83bd be5d 3bbd dd55 16be
00000050: 420a 1c3e b7f0 043d a105 483e 1ce1 363d
00000060: 62f8 d5bd 8b39 0dbd 580e 283e 2fc9 ec3c
00000070: 9766 adbd a50f 803d 781a a8bc 52e4 543d
00000080: f0bb bd3c 1d04 46bd f248 e4bd a3c7 bcbc
00000090: c937 ef3b dd07 19bd c7dc 9bbc 7d3b bebc
000000a0: ec4f c6b8 6134 79bd 93f1 f83d 84bd 25bc
000000b0: d8d7 db3d eb5d 533d 1007 033d 64a7 8f3c
000000c0: 2d11 a53d 0023 033e f066 b0bc db91 0c3e
000000d0: 2bf8 53bc 9aa4 07bd 4a14 82bd feea 073e
000000e0: a39c 883b 47c7 dfbc 237d e23d 1c33 a33d
000000f0: 223b abbc 9654 3dbd 4b53 a83d 9087 0ebe
00000100: 01fe 0c3e 1426 cebd 6983 b43d 1c94 8cbd
00000110: 5eb6 9fbd 880a 1a3e 2bcf 063e 457f c53d
00000120: b5b7 3e3e 42bf 1f3d 3f17 8c3d 82cf 29ba
00000130: 6ce8 d83c 492e fd3b 89e5 5d3d 8c1d 1c3e
00000140: 58d5 533d 80a3 0e3e a71f 0dbd 837c 003e
00000150: 4341 46bc ca1b 893d f19e 793c 189c 2b3d
00000160: 8ad4 d33d bc0e 0f3e 3c10 b3bd a019 193e
00000170: 00b6 77bd e981 bebd 622e 9a3d a88b 06bd
00000180: 9c9f 4d3d 0ff9 c83d eb71 c33d 5818 52bd
00000190: c74e 343d d4b1 683d 4cf4 fd3d 5814 ce3d
000001a0: da38 2cbc 82b7 d9ba 6d33 84bd f168 9abd
000001b0: 700b 183d cb5e 183e 7d2f c83d d8e8 efbc
000001c0: 68a5 c5bc 2529 25bc 73ab 763c 962b 4d3d
000001d0: e1ba 9f3d e252 37bc 3b62 eabc 3ce6 78bb
000001e0: 4c73 813d 0618 503d 4afa 87bd bbaf 2bbd
000001f0: b907 ed3c 6dd7 33bd 327b 903d 406f 063e
00000200: 99c6 13bd deba 5dbd caf3 bf3c 2a39 1dbd
00000210: 80c8 53bb ef90 8c3d 757b 103e e8fa 113d
00000220: 04f4 933d 69f3 0cbe 9a03 7ebc 2a8a af3d
00000230: 8c2b a13d 844a cbbd a7e3 963d 9555 c7bd
00000240: 3d36 ddbd 70a3 79bd 0f5d d33d ea9b ea3b
00000250: 8d01 e3bc 6bfe 50bc ed02 253e e91e 64bd
00000260: 7c67 8e3d 85a7 433d 4418 51bd 6b53 263e
00000270: dd5b e03c ef29 ee3c c800 1dbc 8274 1d3e
00000280: 63eb 52ba bb33 9ebd b4e9 1e3e 5fe2 173e
00000290: 221d d2bd 0d6d 17bd a70c b1bd 1f54 15bc
000002a0: 90a4 883d 6e40 083e 3574 98bd 37dd 8a3c
000002b0: d24c 883c 2080 30bd 0eac f2bd 52e6 9ebd
000002c0: a19a ae3c 521e ddbd 9e82 e03d 87a2 b3bd
000002d0: a596 fc3d 2d57 7e3c cff9 9b3d 5abb 80bd
000002e0: ce21 4ebd cb04 c23d 7074 3abb 6b09 2abd
000002f0: ecb8 bcbd dd64 4b3d f1a9 43bd 6773 963c
00000300: 34f6 843d 0dde 053e 7090 4dbd cc04 e63d
00000310: 6f4e f9bc 52b9 e93d b79a 53bc 9d0f d03d
00000320: 3a0f fabd 9b9a c3bd 892f 0e3e 2889 b0bd
00000330: f029 033e ae9c 96bc 9037 fc3d 4b4e a73d
00000340: 205c 09be 6d2d b7bd d2fe 61bd b49c 263c
00000350: 252f a93d d766 bcbd 8c3c 87bd 79cb ddba
00000360: 610f 0f3e b454 0a3d 1bff 3b3d aa2f a7bd
00000370: 8a2a 103e dac4 52bd a4d4 c5bc 2f3f 9bbc
00000380: 01eb 0a3e b6c4 86bc 9f33 40bd 1bff bdbd
00000390: df6c 45bd 86e8 bb3d 7d02 e6bd b429 163d
000003a0: 2aab ef3d f239 15bc 3da6 fa3c 2946 efbd
000003b0: c017 7dbd 683b 053e 6e6d babd 83af cb3c
000003c0: d9b3 023d 354b 5abd 893d 50bd 94d7 933c
000003d0: 5e6e a2bd 1dc8 0a3e fb1b 973c a236 083e
000003e0: ba6b 0abc 5470 29be ef9b c13d 9ea5 6cbb
000003f0: f04f b1bc 5df8 063e cf77 9abc cd03 babd
-0.07062889 -0.012289176 -0.012512885 0.09151002 0.06084556 0.033865757 -0.010836567 0.083928905
-0.048813645 -0.081328005 -0.07712896 0.047443405 -0.018837443 -0.107410416 -0.11238875 0.17306584
0.03330679 -0.06401099 -0.045743696 -0.14681192 0.15238288 0.032456126 0.19533397 0.044648275
-0.10447766 -0.034478705 0.16411722 0.028904526 -0.08466833 0.06252984 -0.020520434 0.051975556
0.023160905 -0.048343766 -0.11146726 -0.023044413 0.0073003513 -0.037361015 -0.019026173 -0.023221726
-9.456262e-05 -0.060840968 0.121554516 -0.010115985 0.10734528 0.05160324 0.031989157 0.017535873
0.08059917 0.1280632 -0.02153346 0.13727514 -0.012937586 -0.03311596 -0.06351526 0.13273236
0.004169063 -0.027316703 0.11059024 0.07968733 -0.02090222 -0.046223246 0.08219012 -0.139189
0.1376877 -0.100658566 0.08814127 -0.06864187 -0.07798456 0.1504308 0.13164966 0.09643415
0.18624766 0.039000757 0.06840371 -0.00064777595 0.026478015 0.007726465 0.05417398 0.15245646
0.051717132 0.13929558 -0.034454014 0.12547497 -0.012100521 0.066947535 0.0152356485 0.04189691
0.10343273 0.13970464 -0.08743331 0.14951181 -0.060476303 -0.09302122 0.07528378 -0.03284803
0.050201043 0.09813129 0.095432125 -0.051292747 0.04402044 0.056810215 0.124001116 0.10062474
-0.010511601 -0.0016610476 -0.06455121 -0.07539547 0.037120283 0.1487991 0.09774683 -0.029285833
-0.024126723 -0.01008061 0.015055525 0.050090395 0.07799316 -0.011189194 -0.028611293 -0.0037979027
0.06320819 0.05080416 -0.06639536 -0.041915637 0.028934347 -0.043906618 0.07054748 0.13128376
-0.03607807 -0.05413329 0.023431677 -0.038384594 -0.0032315552 0.068635814 0.14109595 0.035639673
0.07224277 -0.13764729 -0.015503788 0.085712746 0.07869634 -0.09926322 0.0736764 -0.0973312
-0.10801361 -0.06094688 0.10320484 0.0071596997 -0.0277107 -0.0127559705 0.16114397 -0.05569354
0.06953332 0.04776718 -0.051048532 0.16242759 0.027387554 0.02907273 -0.009582706 0.15376475
-0.00080459396 -0.077247106 0.15518838 0.14832447 -0.10259463 -0.036969233 -0.08644991 -0.009114294
0.06672013 0.13305828 -0.0744404 0.016951187 0.016638193 -0.04309094 -0.11849223 -0.07758774
0.021313967 -0.10796799 0.10962413 -0.08771234 0.12333421 0.015523714 0.076160066 -0.062857345
-0.050325207 0.094735704 -0.002845075 -0.041512888 -0.092149585 0.049656738 -0.04776949 0.018365575
0.06492272 0.13072987 -0.050186574 0.11231384 -0.030432908 0.114123 -0.012915305 0.10159228
-0.122099355 -0.09550973 0.1388532 -0.086199105 0.12808967 -0.018385258 0.12315285 0.0816923
-0.13414049 -0.08944211 -0.055174656 0.010169197 0.08260945 -0.09199303 -0.06603345 -0.0016921601
0.1397071 0.033772185 0.045897584 -0.08163388 0.14078727 -0.051457264 -0.024149247 -0.018951027
0.1356621 -0.016451221 -0.04692423 -0.09277173 -0.04819953 0.0917521 -0.11230943 0.036660865
0.11702569 -0.0091080535 0.030596847 -0.11683304 -0.061790228 0.13010943 -0.09102903 0.024863964
0.031909797 -0.05329438 -0.050839934 0.018047132 -0.07931207 0.135529 0.01844596 0.13302091
-0.008448536 -0.16546756 0.0945357 -0.0036109458 -0.021644562 0.1318068 -0.018855957 -0.09082756

lstm.weight_hh_l0 f4 [256, 64]
00000000: 0f9a 1cbe 9584 5cbd 8490 86bd 25fe 8b3d
00000010: cd09 b5bc fd9c 76bd d68a 8c3d 636d 983d
00000020: f26b 3e3e c121 09bd 3182 cd3c 7a54 c6bd
00000030: a148 3d3d c26d 0d3d ade4 7bbc 1763 80bd
00000040: 47db f3bb bb6d ed3d 9c0e 323c 5ea7 023e
00000050: c7c9 edbc 5eb0 00be 8ca6 913d 037b 29bd
00000060: 4500 b33c eac1 01be 1940 103e 8cfe ad3d
00000070: e94f 21be d7b5 eb3d dba9 5f3d 7b76 1fbd
00000080: e2b7 61bc 6a23 d53d 4f62 15be 2d68 513d
00000090: 5eb1 3e3d 2288 0f3e 7609 03bd f9cc 78bd
000000a0: 609f d8bd 2a63 3dbd 7c73 503d 5d7e 98bc
000000b0: 3ddd 51bd 54c0 1abd b2a3 9ebb e8be 4fbd
000000c0: dce1 5c3d ea49 8a3d 3177 f23d 5862 1dbd
000000d0: a61e 333d aeb5 e83d 8880 9b3d bc25 043e
000000e0: 7106 93bd 3336 483d f9cb 87bd cc69 f9bc
000000f0: 5c95 0bbd 2ef9 c1bd 3845 193e a9c8 25bd
00000100: b8eb 32be 8025 76bd 6aba 1ebe 629c ddbd
00000110: e16f 253e b701 0c3e 3b75 d4bd ec93 213e
00000120: a5d8 0a3e 1573 10be 56a9 543d 6032 0e3c
00000130: 3aac 353e 12c9 373d d0f3 df3d 2335 96bc
00000140: d557 733c a133 c33d a0c2 e63d 3564 1f3e
00000150: 7b3c 093e aae2 aebd 886c e0bd 3eb4 57bd
00000160: 54d3 273e 1541 5cbe 3f45 043e da48 dabd
00000170: 4a96 be3b 02d8 613e 80ed 57be e219 44be
00000180: 2de1 45be d984 443e 2cbc 50be 12a3 c6bd
00000190: 7bf6 1e3e 51d9 423e 1ee3 763e f4b1 61bd
000001a0: 4146 11bd 9029 303d 6a45 40bd 158b 723d
000001b0: a196 8f3d c61d 8fbd 1226 57be c028 2cbe
000001c0: 5786 4bbd dc5e 0c3d 3f93 313e 9328 363e
000001d0: b81f 4abe 5ec6 863c e20e 4c3d 499e 0b3e
000001e0: 05fc 393e c1c0 113c 9bb0 4bbb 010f b7bd
000001f0: 186f 80bd 548e 51bd 96b7 18bc b678 6c3d
00000200: b939 643d 3c52 bdbd 85b6 0e3d daa0 7c3d
00000210: 24c9 afbd e6c6 283d 50fd f1bc 2bd2 193e
00000220: be0e af3d e5f0 d9bc 5e4b 67bd 0bd0 0fbe
00000230: 35a7 d1bd 2e4b bbbd e733 17bd 3925 553d
00000240: c4cc c9bd f0e1 0a3e a254 87bd cb02 4d3d
00000250: f274 b4bd 093a 11be 2feb fdbc 101d 98bd
00000260: cecc 74bd 577b f3bd ce49 25ba 02e9 51bd
00000270: f4ff 7bbd 9843 af3d 91d7 6f3d 5d16 0bbe
00000280: 17b8 c4bd d124 813d 6c75 013d b5cb 273c
00000290: c680 343d 0542 023d 35b7 dbbd 2b1c 9a3d
000002a0: b85e e43c 9910 f5bb 75f0 033d 89d2 c63d
000002b0: d103 de3c 8bb3 51bd 96ab 0cbe 99f8 763c
000002c0: fde2 953d 5d1a 38bd 195c d23c 53ff 603c
000002d0: ff35 7f3d 4ced b1bc 4ed4 763d e253 d63d
000002e0: fbd6 29bb ee38 cb3d 0431 5abd 635d 8e3d
000002f0: 4c6a efbd 9d29 d43d aac2 003c 911e 133d
00000300: acf2 18be d236 2b3c 0b81 ccbd 1d78 5ebe
00000310: a8a0 243e c396 c63d 45d5 06bd c5a6 473c
00000320: ff58 af3b ff3c ce3c 1c19 053d 3268 e2bd
00000330: 180e de3c 38de c03d 158a a13c 9100 143e
00000340: 4e66 463e 5901 7838 b99f c83d 0962 553e
00000350: dce4 0e3d 5066 e43d 0ae3 15be 0c03 97bb
00000360: 4160 ba3d 52f5 1fbe d35f 353e 3e9b 6dbd
00000370: 8917 53bd 5c90 423e 827c f5bd 1bb9 55be
00000380: 4f00 41be 2483 bdbd bd03 29be 133a 73bb
00000390: 036b 333e 87ec 943d 7586 05bd c82d 74be
000003a0: 288b 38bd 7469 e83d 80f8 413e efdf 323e
000003b0: 4363 513e 626f fcbc b2ef 37be 2fc0 21be
000003c0: 969e 93bd 6575 013e e4b4 ff3c 92ae ba3c
000003d0: 8ead 2bbe 2526 9dbc eaaa 273e b475 303d
000003e0: 50b4 373c 788b e73c 05a7 eebc a509 d9bd
000003f0: d48f 97bd be1c a63b 0e57 e63d fcf6 54be
-0.15293144 -0.053837378 -0.06570533 0.068355836 -0.0220994 -0.06020831 0.06862418 0.07442739
0.18595865 -0.033479456 0.025086494 -0.096840814 0.046211842 0.0345285 -0.015374345 -0.062689
-0.0074419114 0.11593195 0.010867741 0.12759158 -0.029026879 -0.12567279 0.071118444 -0.04137708
0.021850714 -0.12671629 0.14086951 0.084958166 -0.1575314 0.115092926 0.054605346 -0.03893135
-0.013776751 0.10407145 -0.14588283 0.05112474 0.04655587 0.14016774 -0.031991445 -0.060742352
-0.10577273 -0.04623715 0.050891384 -0.018614942 -0.05123638 -0.037781075 -0.0048412913 -0.05071917
0.053926334 0.06752379 0.1183914 -0.038423866 0.0437304 0.11362778 0.07592875 0.1290502
-0.07178963 0.048879813 -0.066307016 -0.030445956 -0.034077987 -0.094713554 0.14967811 -0.040474568
-0.17472732 -0.060094357 -0.15500799 -0.10820843 0.1615596 0.13672529 -0.103739224 0.15779084
0.13559206 -0.141064 0.051919304 0.0086790025 0.1774148 0.04486949 0.109351754 -0.018335884
0.014852484 0.09531332 0.112675905 0.1556557 0.13401978 -0.085393265 -0.10958201 -0.052662127
0.16389209 -0.21509202 0.1291704 -0.106584266 0.0058162557 0.22055057 -0.21086693 -0.19150499
-0.19324179 0.19191302 -0.20384282 -0.09699072 0.15523712 0.19028212 0.24110076 -0.05510135
-0.03546739 0.043008387 -0.0469412 0.05921467 0.07011152 -0.06988101 -0.21010616 -0.1681242
-0.049688663 0.034270152 0.17341326 0.17788915 -0.19738662 0.01645201 0.04981888 0.136346
0.18162544 0.008896054 -0.0031080607 -0.08938409 -0.062711895 -0.051161125 -0.009321114 0.057732306
0.05571911 -0.092442006 0.034842033 0.061676838 -0.085832864 0.04120531 -0.029539734 0.15021579
0.08547734 -0.026604125 -0.05646836 -0.14044206 -0.1023697 -0.09145199 -0.036914732 0.05203745
-0.09853509 0.13562751 -0.06607939 0.05005149 -0.08811368 -0.14182295 -0.030995933 -0.07427418
-0.05976563 -0.118887596 -0.0006305248 -0.051247604 -0.061523393 0.08557814 0.05855519 -0.1358275
-0.09605425 0.0630585 0.031606123 0.010241439 0.04406812 0.031801242 -0.10728303 0.07524904
0.027877197 -0.0074787852 0.03221174 0.09708125 0.02710143 -0.051196616 -0.1373733 0.015073919
0.07318685 -0.044947017 0.025678681 0.013732749 0.062307354 -0.021719597 0.060261063 0.10465218
-0.0025915492 0.09922968 -0.0532694 0.06951406 -0.116901964 0.103594996 0.0078589115 0.035917822
-0.14936322 0.010450082 -0.099855505 -0.21725507 0.1607691 0.09696724 -0.032918233 0.012185757
0.0053511853 0.02517557 0.03249465 -0.1105503 0.02710633 0.09417385 0.019719163 0.14453341
0.19374964 5.9129063e-05 0.0979609 0.20838179 0.034886226 0.11152327 -0.1463739 -0.0046085175
0.0910039 -0.15620926 0.17712335 -0.05800938 -0.051536117 0.19000381 -0.119866386 -0.20871393
-0.18847774 -0.09253529 -0.16505332 -0.0037113472 0.1752129 0.072716765 -0.03259893 -0.23845589
-0.045054585 0.113482386 0.18942451 0.17468236 0.20448022 -0.03081483 -0.1796253 -0.15795968
-0.07207982 0.12642439 0.031214185 0.02278832 -0.16765425 -0.019183228 0.16373792 0.043081
0.011212423 0.028264746 -0.029132375 -0.10597543 -0.0740048 0.0050693443 0.11247073 -0.20797342

lstm.bias_ih_l0 f4 [256]
00000000: 5fb3 db3d caeb fdba e74a 913d 216a 3cbd
00000010: f30d 3cbd 50c4 f4bd 48b0 043e 772a d53d
00000020: 9c33 013e af0a 813c 9aff 0d3d 7c4d 633c
00000030: f881 953d bcc4 87bd 9924 bdbd bae3 7fbd
00000040: 16c4 62bc b6d1 403d dbce fcbc f0f0 843d
00000050: 6853 593d 3e77 a83d 3d3c da3d 2d46 8638
00000060: 5e6c 8fbd 896e 23bd f093 f23d 0850 bfbd
00000070: 112c 8dbb da7e 89bd 4c3a eb3d 64c0 113c
00000080: df57 8c3d 315b 663d 0015 1c3e 6a7f b0bc
00000090: b9d6 023e 4ec4 dbbb fb81 1d3e 73fd 9239
000000a0: af4f dd3d 6a2f 5e3c 0442 3bbd f759 a03d
000000b0: 948f 263e 8616 8fbd 7340 5ebc 4733 bc3b
000000c0: 71c7 503d 8564 a43d d6ee 803b f0f6 2a3e
000000d0: cdaa 22bd 1bae e03c 50f8 083d 53d8 673d
000000e0: 9d65 093e ed0e 6abd bda2 f83d f887 7a3d
000000f0: 7e65 5f3d a00b b0bd 4c9a e63c 50c7 453e
00000100: 4b74 68bd ea39 a4bd 8f4c 173e 4e22 c33d
00000110: f37e dc3d 44f7 84bd 9a9a 843b 6fdb a7bd
00000120: c3f8 f13d 3be2 a33d 79ce a63d 2577 c8bd
00000130: e3c4 e73d dbf8 933d b4f5 043e cb3a be3c
00000140: af34 1ebd 7026 b13d d49a b9bd 6464 333d
00000150: 7c50 ae3c 9ff6 a3bd 99af 4cbb 9a95 87bd
00000160: ac02 2e3d 8558 30bd 621b cabd 296b 9a3a
00000170: 4b14 013e c7bf d2bd d0ef 34bd 36db e83d
00000180: 7f80 ea3d d284 cd3d 617e 753d 4a59 1a3d
00000190: e8c4 ae3c 4b71 733d 43ca 3cbd 446f 74bc
000001a0: 87e6 f6bb f00d f03d a6ba 243e eb41 b23d
000001b0: f82b 743d 4153 953c 0e12 103e 1508 d73d
000001c0: d748 3c3c 60c5 df3d c1f6 af3d 3f4b 21bd
000001d0: c9ad 813c 4e25 a53d 9740 0a3e b390 ffbc
000001e0: 88c6 073d 07d8 0cbb a072 3a3d b57c 133e
000001f0: 11a5 5cbd 1b19 ff3c f3ca 753d ef51 1bbd
00000200: d86d 7bbd 3a58 ab3d f846 383d a3a8 243d
00000210: 91da 5bba a8bf d5bd e426 1dbd bd68 86ba
00000220: 69fd 643d fb86 7e3d 6ede 6fbd 238c ae3d
00000230: 820b ae3d 047f 873c dcff 5b3d b016 d2bd
00000240: 8d4b de3c 27fc 873c 27e3 9c3d d106 9cbc
00000250: 8c32 39bb 0490 f83d c2d7 07be 0bdb ddbd
00000260: b06f 323d 3042 e6bd 57f5 7e3b 23df 263d
00000270: db60 b23d f196 4e3c 7c62 6cbd e5c7 883c
00000280: 1236 c3bd ed9f 2fbd 516e 55bd 77e1 8abd
00000290: 8a42 723b 30a1 b9bd f424 babc 480c 0bbe
000002a0: 6eab 993d 6a46 b4bd 3c89 b63d 9abf f43b
000002b0: 40ef 083c 41c7 023d 53db 9d3d f8e0 963d
000002c0: d4e3 b3bd e672 543c 0220 cfbc cbed fc3d
000002d0: 41a9 64bd d690 e63d 0248 f43d b3f1 aebd
000002e0: bf38 8dbd 1e01 c53c 6cbc b0bd a1ac d03c
000002f0: 8c59 a53c 7bbd 9bbd b1ae 0abe ef08 d93d
00000300: 6850 a9bd 56fb 303d 343a 0e3d c00c 4c3d
00000310: d7b5 253e a475 babd 0170 bcbc 9f80 d03c
00000320: 9c42 0c3e 91bf e13c 0299 76bc e900 c2bc
00000330: 54c1 013d c0b2 3dbd 25b5 8d3d 3fc0 cb3b
00000340: 7500 b43d 95c1 7e3c 257f db3d a70b 8b3d
00000350: 03d5 fd3d 9818 9c3b 1349 33bd b19a cb3d
00000360: 0f86 0f3e 338c 183e 4b45 103d 8d2a 443e
00000370: 04ae 1f3e 3197 b13d 0c50 a83d 4a09 0c3c
00000380: 2517 933d cd11 9d3c ce80 1a3e 47cf 61bd
00000390: 6023 153d ac38 a4bd c088 293e 20da c73c
000003a0: 150e f43d b3c2 c93d 3632 02bd e3b9 1dbd
000003b0: 5ff6 133e bcc3 b5bc 3a00 303e 63e9 a03d
000003c0: 28f1 4a3d 4614 ef3d bf24 0c3e 91ca ae3d
000003d0: 448e 5b3d 803d 203d 349a 87bd 498c 1fbd
000003e0: 92fb b03d a7e1 2a3d d584 44bd f6af bbbd
000003f0: 60eb 283d 815e 4e3d 6f6d 523d 5ebc 243e
0.10727572 -0.0019372639 0.070943646 -0.04599965 -0.04591174 -0.11951506 0.12957871 0.1040849
0.12617344 0.015752165 0.03466759 0.013873454 0.0730018 -0.06629321 -0.09235496 -0.062473036
-0.013840696 0.047074996 -0.030860355 0.06491268 0.053058058 0.08225869 0.10656021 6.402689e-05
-0.07003091 -0.039900336 0.11844623 -0.093414366 -0.0043082316 -0.06713648 0.114857286 0.008895967
0.068526976 0.05623931 0.15242386 -0.02154513 0.12777223 -0.006706751 0.15381615 0.00028036124
0.10806214 0.013561109 -0.045717254 0.078296594 0.16265708 -0.06986718 -0.013565171 0.0057434174
0.050971452 0.08026985 0.0039347215 0.16695762 -0.03971367 0.02742677 0.033439934 0.056602787
0.13417669 -0.05714314 0.12140415 0.061164826 0.05454015 -0.08595967 0.028149746 0.19314313
-0.05675153 -0.08018859 0.14775299 0.095280275 0.10766401 -0.06492475 0.0040467503 -0.081961505
0.11815026 0.080021344 0.0814485 -0.0978835 0.1131685 0.072252 0.12984353 0.023221394
-0.03862446 0.086499095 -0.09062734 0.04379691 0.021278612 -0.080060236 -0.0031232594 -0.06620331
0.042483017 -0.04305317 -0.09868504 0.0011781204 0.12605397 -0.10290485 -0.044174016 0.11369936
0.1145029 0.10035099 0.059934977 0.03768281 0.021334127 0.059434216 -0.04609133 -0.014919106
-0.007534805 0.11721408 0.16086826 0.08703979 0.059612244 0.018228175 0.14069387 0.104995884
0.011491976 0.10926318 0.085919864 -0.0393784 0.015829938 0.08063756 0.13501202 -0.031196928
0.03314832 -0.0021491067 0.04551947 0.1440304 -0.053868357 0.0311399 0.060008 -0.037919935
-0.061384052 0.08366437 0.044989556 0.040199887 -0.0008386756 -0.10436946 -0.038367167 -0.0010254603
0.055905733 0.062140446 -0.058561735 0.08522823 0.08498289 0.016540058 0.053710803 -0.102582335
0.027135635 0.016599728 0.07660513 -0.019046219 -0.0028258888 0.12136844 -0.13265899 -0.10832795
0.043563545 -0.11243093 0.0038903558 0.040740144 0.0870988 0.012609229 -0.05771111 0.01669688
-0.095317975 -0.042877126 -0.05210716 -0.06781285 0.003696593 -0.09063947 -0.022722699 -0.13578904
0.07503401 -0.08802493 0.08912894 0.0074691297 0.008357823 0.031928305 0.077078484 0.07367128
-0.08783689 0.012966847 -0.025283817 0.12350043 -0.055825476 0.11258094 0.11927797 -0.08542194
-0.06895589 0.024048384 -0.086296886 0.02547294 0.0201843 -0.076045 -0.13543202 0.10597407
-0.082672894 0.043208443 0.034723476 0.049816847 0.16182648 -0.091044694 -0.023002626 0.025451956
0.13697284 0.027557166 -0.015051128 -0.023682075 0.031678513 -0.046313047 0.06919316 0.006217986
0.0878915 0.015549083 0.1071761 0.06789332 0.123941444 0.004763674 -0.04377086 0.099416144
0.14015983 0.14897232 0.035222333 0.19156857 0.15593725 0.086714156 0.08218393 0.008547137
0.07182149 0.019173527 0.15088198 -0.055129316 0.03641069 -0.08018622 0.16556072 0.024396002
0.119167484 0.09851589 -0.031786166 -0.038507354 0.14449452 -0.02218806 0.17187586 0.07857015
0.04954639 0.11673789 0.13685893 0.0853473 0.053602472 0.03912115 -0.06621209 -0.038952146
0.08641733 0.041719105 -0.04797824 -0.09164421 0.041240096 0.050383095 0.051373895 0.16087481

lstm.bias_hh_l0 f4 [256]
00000000: 5b80 bd3d fa5a e33d 9e6b b4bd cdbf 4a3e
00000010: c7e1 c63d 16cb de3d 960e 953d 4c65 013e
00000020: a843 d4bc 7c75 193e e21f 9c3d 7af0 503d
00000030: 82ec 84bd e31b ac3b ceb8 a53d c859 063e
00000040: 8181 ae3d e685 b33c 75ec 293c 6176 083e
00000050: 71d7 163d 4bae ad3d f942 c63d 6106 843d
00000060: 3a6d 1f3d 529a 6abd 907e 013e 3568 0b3e
00000070: 9d4e d93d 9c19 ccbd 6964 ef3c 4a52 ab3d
00000080: 4dbd b6bd 1f88 97bd 4b96 a73c 5fd8 b8bd
00000090: 6dfc b93d 25e9 573c 61ea b83d 3f75 aa38
000000a0: 760b 7c3d fc98 a23d 7930 0f3e 4746 ac3d
000000b0: 2639 d33d ac2d 9dbc 418e 24bd a0e8 b63d
000000c0: f890 9ebd dece ffbc 687a dc3d 9044 b13d
000000d0: d175 923c f6fa f2bc 5950 203e 2460 733d
000000e0: dd5a 7abd bd66 d6bc c99b d63d 8ba9 9cbc
000000f0: a550 1e3d d6c2 81bd 365e 563d d817 b63d
00000100: afab 26bd cef7 98bd aa43 b5bd 597a 84bb
00000110: e2c1 29bc fec4 e13d 91f6 233c e2d7 f93d
00000120: bc65 8b3d 4b76 923d 88e4 79bd edb8 ab3d
00000130: 0272 4fbc d940 113c 4553 a33c a612 233d
00000140: 3ebb 9f3d 52f2 ec3d 78a6 e83d c069 363d
00000150: 30d7 14bc 33f2 ba3d e513 a1bd a1af 0f3c
00000160: 83d1 983c 5464 2fbd 4c5b b6bc e123 fa3d
00000170: a293 103e 9922 003e 0ee0 83bd 582f edbc
00000180: 2151 f53d f22d 15bd 39fa bd3c d706 a5bc
00000190: 1bcd bf3d c9bd b13d 57d6 e73d 9903 56bb
000001a0: 62a4 eabc 7e71 873d 17a3 d93d a7e4 d83d
000001b0: 0572 823d 9982 273d a2da 0dbc 935c 173e
000001c0: 52fb 963d d057 41bd 3196 8fbc e1fc 76bd
000001d0: 14f8 84bd 77f7 583d 2c51 85bd 1be1 123e
000001e0: 9902 083e 0669 23bd 44fb 773d c0c2 7b3d
000001f0: 8efe 5f3d 4236 e43d e58f f63d d13d 0d3e
00000200: 65eb c53c de02 e13a b8cd 4dbd 9b07 abbc
00000210: fd26 08bd 7bc6 30bc 8fce a639 a795 ad3d
00000220: 26be dabc 235b 3dbd 9c28 893c 8d10 a93d
00000230: 0ef1 c5bd e76a 9a3d 1001 333d 490c 5bbd
00000240: b9c2 51bd 1232 ca3d b09b 57bd 313e ae3d
00000250: b0a8 383c 9825 2b3c c712 8ebd 567f 803d
00000260: a84e c53d 58e0 913d 0647 afbc ef6d 833d
00000270: 60ac 04be e430 db3b d769 19be 8440 3b3d
00000280: 8cb1 d9bd 4c7c 5ebb df6f 8c3d 10ee d9bd
00000290: de11 803d 2e8e e53d 65ca 2e3d 4c8a a8bd
000002a0: 2a2c c03d 83bd 77bd 3574 043e 67b8 8b3c
000002b0: 97f8 70bc f864 503c e955 d0bd 1fd5 25bd
000002c0: 00dc 17bc 8c04 543d 2027 353b dabc b83d
000002d0: 8f1b d1bd 10a3 a3bd 7cf5 313c 6686 fc3d
000002e0: 4a6d 9b3b bc1a 173d 2262 f2bd badf 103d
000002f0: c785 c43c 4912 17bd 8a75 753d 18fe 6fbd
00000300: d88d c63d 332d dc3d 63b7 9bbd 15d5 8fbc
00000310: cfda d7bc 7164 053e 0dca 493d a9f7 1c3e
00000320: 4f3c ebbc 9aec bd3d cb17 283e ac6d 283e
00000330: 6c74 e0bc 821b 003d 48f3 583d 4657 c7bc
00000340: 4765 d53c 9b2f bcbc 4cd2 5fbb 7272 783d
00000350: 6566 adbd 51c9 123e bd33 473d 8a4d 253e
00000360: bee0 a03c 8112 c43d 0b49 083d 2c22 40bc
00000370: bb5c 25bc 678b 003e 59bf a7bd efdb 89bd
00000380: 3fcc ea3c b945 a63d d1eb a63d 78b5 ca3d
00000390: 34fc 27bb 4554 58bd a87b 023e 366a 383d
000003a0: c15e 083e 61ce 7f3d b93e 233d f798 253e
000003b0: 07e6 133e a69a ab3d cd06 b23d 73c3 e13d
000003c0: a4da cdbc b878 8a3d 59ef b5bd 06cd 0e3d
000003d0: 143c b43d 65af c63d 1f46 063d 1e41 3c3d
000003e0: 59f2 283e fffb d7bc dba0 093e 1690 0dbd
000003f0: 5a3d 8a3d 9130 0d3e 7403 393e a9d4 7dbd
0.092529975 0.11101337 -0.08809589 0.19799729 0.09711032 0.10878579 0.07278173 0.12636298
-0.025911167 0.14986223 0.07623269 0.051010586 -0.06490423 0.005252348 0.08091889 0.13120186
0.08520795 0.021914434 0.010371317 0.13326408 0.036826555 0.08480509 0.09680743 0.06446529
0.038922526 -0.057276078 0.12645936 0.1361397 0.106106974 -0.09965822 0.029222684 0.08365305
-0.08922825 -0.0739901 0.020457407 -0.090256445 0.090813495 0.013178145 0.09029079 8.1280705e-05
0.061534368 0.07939336 0.13983335 0.08411842 0.103136346 -0.019186817 -0.040174726 0.089310884
-0.07742494 -0.031226572 0.10765535 0.086556554 0.017878445 -0.029660683 0.1565565 0.05941786
-0.06112181 -0.026172036 0.104789324 -0.019123813 0.038651127 -0.0633599 0.05233594 0.088912666
-0.040691074 -0.0746914 -0.088507965 -0.0040429053 -0.010361167 0.110239014 0.0100075165 0.121993795
0.06806514 0.07151469 -0.06100896 0.08384881 -0.012661459 0.008865559 0.019937167 0.039812706
0.077993855 0.115696564 0.113598764 0.044534445 -0.009084508 0.09128227 -0.07865123 0.008769901
0.01865459 -0.04282029 -0.02226033 0.122138746 0.14118817 0.12513198 -0.064392194 -0.02895324
0.11978365 -0.03642077 0.023190605 -0.020144863 0.09365293 0.08678777 0.11320179 -0.0032655953
-0.028642837 0.06613444 0.1062681 0.10590487 0.06369404 0.040896032 -0.008658083 0.14781408
0.07372154 -0.047202885 -0.017527672 -0.060299758 -0.0649263 0.052970376 -0.06509623 0.14343683
0.13282241 -0.03989508 0.06054236 0.061465025 0.05468612 0.11143161 0.120391645 0.13793112
0.024160096 0.0017166992 -0.050245017 -0.02087765 -0.033240307 -0.010789509 0.00031815885 0.084758095
-0.026701998 -0.046229493 0.016742997 0.0825511 -0.09665118 0.07539921 0.043702185 -0.053478513
-0.051211093 0.098728314 -0.05263871 0.08507956 0.011270687 0.010445975 -0.06937175 0.062742874
0.09634143 0.07122868 -0.021396171 0.064174525 -0.12956381 0.006689178 -0.14981781 0.045715824
-0.106295675 -0.0033948598 0.06857275 -0.1064111 0.06253408 0.11208759 0.042673487 -0.08229503
0.093834236 -0.060483467 0.12934954 0.017055703 -0.014707706 0.012719385 -0.10172636 -0.04048645
-0.009268761 0.05176215 0.0027641729 0.090203956 -0.102103345 -0.07990086 0.010861751 0.12330322
0.004743253 0.03689073 -0.118351236 0.035369612 0.023989571 -0.036882672 0.059926547 -0.058591932
0.09695023 0.107508086 -0.076033376 -0.01755766 -0.026349453 0.13026597 0.049264956 0.1532885
-0.02871528 0.09273644 0.16415326 0.16448087 -0.027399264 0.031276233 0.052966386 -0.024333607
0.02604927 -0.022971919 -0.0034152446 0.06065602 -0.08466796 0.14334609 0.048633326 0.1614286
0.019638415 0.09573842 0.033272784 -0.011726897 -0.010092909 0.12553178 -0.081907935 -0.06731402
0.028661845 0.08118767 0.08150447 0.09897894 -0.0025632503 -0.05281474 0.12742484 0.045023166
0.13317396 0.062452678 0.03985474 0.16171633 0.14443217 0.08379106 0.086927034 0.11023607
-0.02512867 0.067613065 -0.088835426 0.034863494 0.088005215 0.097014226 0.032781716 0.045960538
0.16498698 -0.026365278 0.13440268 -0.03456124 0.06749983 0.13788058 0.18067724 -0.061970387

fc1.weight f4 [3, 64]
00000000: 73ce c1b9 1b30 89be 0825 31be 0a87 77be
00000010: abf0 a0bc bff4 abbb 10ad 46be 727d 753e
00000020: c06e a0bd b743 66be 6823 6d3e aedc 5cbe
00000030: 779e d53d 2f88 39be 3760 5d3e 9895 11be
00000040: af07 ee3d fe26 e13d e1a4 933e e2ec 813e
00000050: 8015 f03d e3f4 4ebe 3579 00be ce18 023e
00000060: fb86 3d3c 5e59 e3bc f1bb 4e3e 5db7 72be
00000070: 619d 27be 0635 5f3e 92d0 eb3c b6cf e5bc
00000080: 2bc9 b73c dfc6 4c3e 86a2 75be 4b19 b9bd
00000090: bb0c 643e 63cc 26bd 6b24 763e 113c 983d
000000a0: 2cdd 92bd 0fad 573e 73b7 82be be30 8a3e
000000b0: a244 0f3e 78a1 123d 5ec0 28be b258 99bd
000000c0: 565b 4dbe 2336 17bd 5251 1b3e ac4c 29bd
000000d0: bcdc 05be d130 a43e d90f 963e 70c2 b83d
000000e0: a576 983e b40a 2f3e e12b 6ebe 5ff2 51be
000000f0: 0723 7cbe b748 3cbd cf0c 813e bce7 3ebe
00000100: 3cfb d73d ad69 b83d a668 113e ecad c0ba
00000110: 0e22 39be af7e 4bbe fea1 07bc cde6 ebbd
00000120: 82ca 1bbe 62c7 5f3e 9131 4b3c 54e1 0b3e
00000130: 5485 13bd cddc 0c3e e0ba 28be da70 f73d
00000140: 1d35 18be 8c61 07be e04b 1c3c b5ad 6bbe
00000150: 4971 fcbd 13de 633e fc17 d73c 12b1 e03c
00000160: 233b 92bd 20cd 483e a78f 7bbe a728 c13d
00000170: c340 433e ffd1 d03c bd3a 5b3d ed60 dd3d
00000180: f9c5 5c3e 3d81 9f3c cbee 4c3e bbaf 2b3e
00000190: ab07 38be c466 1ebe bca8 8bba 3513 013e
000001a0: 84bb 633e 5e93 bdbd e382 de3d ddae 43be
000001b0: b0a9 ecbd 78cd 293e bd3b 5e3e b0c6 413e
000001c0: 18b6 e63d 0060 08be a0d6 c0bd 397b 383d
000001d0: f27a 4bbc 8e6f 51be eca8 ad3c c318 07be
000001e0: b846 23bb ba13 25bc 11cd 593e 6388 183e
000001f0: b8d7 e8bd 567a be3d eb10 8a3d 9250 99bd
00000200: fbb0 343e 2c6c b13d fd89 fcbc 5286 6d3e
00000210: f569 dabd 75a8 7bbe 991a 3e3e e18d 09be
00000220: 50e0 1abe 788a 0d3d 2651 acbe 7b9a 4d3e
00000230: fe1e 33be 4523 703d 7ebf 6ebe 4bb1 3d3d
00000240: 4495 4bbe 4788 52be 0f0d 9abe 7250 75be
00000250: b657 f3bd 5ff7 113d 392b b63d f7c5 70be
00000260: 77b9 22be 547b bf3d 6d51 20be b9ca 5d3e
00000270: 8edc 083b 8127 51be 5366 9fbd 699b 0d3e
00000280: 01bb 103d 9908 c4bd 7043 eb3d ba91 413e
00000290: c3e5 44be 0b19 11be 5ba6 8dbe 2b11 373d
000002a0: 1bd0 e93d 04be 77be 1bd1 873d 6419 b5bd
000002b0: 7f26 d13a d19c 003d 4fe1 783e 0391 33bd
000002c0: 941f 233e 272d a4bd 8a53 1ebe 5912 20be
000002d0: a705 7d3e 4e3a 1bbe 528c 8abe 9ecc 03be
000002e0: 21ba a0be 37fe f2bd ac60 763d 4367 113e
000002f0: 9df3 8a3e 3f6c 183e cf97 2bbe b325 413e
-0.00036965645 -0.26794514 -0.17299283 -0.24172607 -0.01964601 -0.005247682 -0.19401956 0.23973635
-0.07833624 -0.22486769 0.23158038 -0.21568558 0.104306154 -0.18118356 0.21618734 -0.14217222
0.11622559 0.10993765 0.2883673 0.2537604 0.11722851 -0.20210604 -0.12546237 0.12704775
0.011567826 -0.027752575 0.20188881 -0.2370276 -0.16368629 0.2179757 0.028785978 -0.028053146
0.022434792 0.19997738 -0.23987779 -0.090380274 0.22270481 -0.040722262 0.2403733 0.07433332
-0.071710914 0.2106211 -0.25530586 0.26990312 0.13991025 0.03579852 -0.16479632 -0.074876204
-0.20054373 -0.036916863 0.1516774 -0.041332886 -0.13072485 0.32068494 0.29308966 0.09021461
0.2977802 0.17093927 -0.23258926 -0.20502613 -0.24622737 -0.045967784 0.25205085 -0.18643087
0.10545966 0.09004531 0.14200076 -0.001470027 -0.18079397 -0.19872545 -0.008278368 -0.11518631
-0.1521397 0.21853402 0.012401954 0.13660175 -0.036015823 0.13756104 -0.16477537 0.120820716
-0.14864011 -0.13220805 0.009539574 -0.23015483 -0.12326295 0.22252683 0.026256554 0.027428184
-0.07140186 0.19609499 -0.24566518 0.09431582 0.19067673 0.025490759 0.053522814 0.10809503
0.21559896 0.019470805 0.20012967 0.16766255 -0.17971675 -0.1546889 -0.0010655145 0.12604983
0.222395 -0.09256624 0.108648084 -0.19109674 -0.11555803 0.16582286 0.21702476 0.1892345
0.112652004 -0.13317871 -0.094159365 0.04503939 -0.012419449 -0.20452711 0.021198712 -0.1319304
-0.0024913978 -0.010075504 0.21269633 0.14895777 -0.1136927 0.093006775 0.06741508 -0.07486071
0.17645638 0.0866321 -0.030827517 0.2319577 -0.10664741 -0.2457598 0.18564834 -0.13433029
-0.15124631 0.034555882 -0.3365566 0.20078461 -0.17492291 0.058627386 -0.23315236 0.046311658
-0.19881159 -0.20559798 -0.30088088 -0.23956469 -0.11881964 0.035636302 0.08894963 -0.23513018
-0.15891062 0.09349695 -0.15656061 0.21659364 0.0020883414 -0.20425226 -0.07783189 0.13828816
0.03533459 -0.095719524 0.11487472 0.18903247 -0.19228272 -0.1416971 -0.27665982 0.044694107
0.11416646 -0.24193579 0.066316806 -0.088427335 0.0015956907 0.03139955 0.24304698 -0.043839466
0.15930015 -0.080164246 -0.15461555 -0.15631999 0.24709187 -0.1515896 -0.2706018 -0.12871024
-0.31392005 -0.11864894 0.060150787 0.14199547 0.27138987 0.14885043 -0.16757129 0.18862037

fc1.bias f4 [3]
00000000: f098 eebd a16f 00be e267 073d
-0.11650264 -0.12542583 0.033058055
