model/save/v8.2_2022-09-02_09-42/model.pt (torch, 286107 bytes, 8 tensors)

lstm.weight_ih_l0 f4 [128, 512]
000000 8b 67 5f bc ec 37 50 bd ab b4 99 bd 02 c8 f8 3d
       -0.013635526 -0.05083458 -0.07505163 0.121475235
000010 dc 97 07 3d 03 35 00 3d 07 5c 50 bd 7b 53 02 3e
       0.03310381 0.031300556 -0.050869014 0.12727158
000020 ba d4 63 bc 52 24 b0 bd db c8 04 be df 78 9d 3d
       -0.013905698 -0.086006775 -0.12967245 0.0768907
000030 11 c8 1f 3d c3 05 c4 bd 5a a4 00 be 8a fe 3f 3e
       0.039009158 -0.095714115 -0.12562695 0.18749443
000040 60 33 03 3e 27 b1 09 be 4e 7e f6 bd b2 f4 19 be
       0.12812567 -0.13446485 -0.120358095 -0.1503475
000050 94 b4 b6 3d 8e 44 c7 3d d4 9d 3a 3e cc e3 6e 3d
       0.08921161 0.09729873 0.18224269 0.058322713
000060 51 a0 f0 bd a5 db 87 bd 99 d3 2d 3e 6a d5 1e 3d
       -0.11749328 -0.06633691 0.1697525 0.038777746
000070 8d 45 01 be ce e5 a4 3d a9 98 d4 bc d5 20 0e 3e
       -0.12624188 0.08051644 -0.0259517 0.13879712
000080 70 a1 f0 bc d3 f3 cd bd 97 b9 01 be 8b cf 1f 3d
       -0.029373854 -0.100562714 -0.12668453 0.039016288
000090 e5 e3 45 3c 75 28 f4 bd cf 71 16 be fc 45 d7 bd
       0.01207826 -0.11921779 -0.14691852 -0.10511395
0000a0 fa 24 5a bd 11 d5 09 bd af b4 5a 3e 41 8a 2a bd
       -0.05325792 -0.03365046 0.21357988 -0.041635755
0000b0 55 3f 8f 3d f0 5c 22 3e bf f0 31 3d b8 96 a7 3c
       0.069945015 0.15855765 0.043442484 0.02045761
0000c0 2b b9 d5 3d 8c 41 05 3e c6 e1 55 3c 90 82 07 3e
       0.104357086 0.13013285 0.013054317 0.132334
0000d0 8a 4a 57 bd 0c 8c 6f bd 8a 0e 85 bd f1 98 4a 3e
       -0.05256132 -0.05848317 -0.06496914 0.19784905
0000e0 01 46 8b 3b 79 b7 48 bd ea bb 20 3e 1e b1 bd 3d
       0.0042502885 -0.0490031 0.15696684 0.09262298
0000f0 0c a5 e6 bd 7d 1f 18 be 2c df 6a 3d 67 e9 26 be
       -0.11261949 -0.14855762 0.05734174 -0.16299973
000100 42 bf 22 3e 81 39 ce bd 59 0c 7b 3e 8d f3 92 bd
       0.15893272 -0.10069562 0.24516429 -0.0717536
000110 bd e4 e9 bd f8 e0 fe 3d 0e 9c 80 3e 4a 46 3a 3e
       -0.114205815 0.12445253 0.2511906 0.18190876
000120 bd 6c 64 3e 89 55 fa 3c 2c 0e 17 3e 31 15 93 3c
       0.22307105 0.030558364 0.147515 0.01795444
000130 d1 35 94 bd cb e3 8a 3d d3 aa b9 3b 25 1f ff 3d
       -0.07236827 0.06781729 0.005666116 0.12457112
000140 80 b1 79 3d 9a 1a 11 3e 30 24 fc bd 4b 67 20 3e
       0.060960293 0.14170304 -0.1231159 0.15664403
000150 29 48 e5 3d 00 4c a8 3d ae 9c b9 3c c3 f3 9c 3c
       0.11195404 0.08217621 0.022657719 0.019159203
000160 f3 0b 1c 3e 2b ad f5 3d fc 10 8f bd 56 7c 29 3e
       0.15238933 0.1199592 -0.069856614 0.16551337
000170 17 4e a8 bb 5e 66 6c bd 89 df ae 3d da 4b 90 bd
       -0.005136262 -0.057714812 0.0853873 -0.070457175
000180 1e 0f e0 3c 28 73 10 3e 7d f6 4a 3e 03 8b c9 bc
       0.027350958 0.14106429 0.1982059 -0.024602419
000190 b1 79 a4 3d 3e a8 dd 3d 44 cb 08 3e c3 ee dd 3d
       0.08031023 0.10823105 0.1335879 0.10836556
0001a0 57 24 d2 bd a3 4f 5c 3d 73 df 37 be f8 80 b3 bd
       -0.102608375 0.053786885 -0.17956333 -0.08764833
0001b0 bc 7f e9 bb 1b 0d e9 3d ac d4 7a 3c e1 2c b4 bc
       -0.007125823 0.11379453 0.015309494 -0.021994056
0001c0 2d ff 0e bd ef 18 5a bc 3b 8e b7 bd f3 02 59 3d
       -0.034911323 -0.013311609 -0.08962675 0.05298133
0001d0 a8 06 0f 3e 18 03 02 3d 95 70 47 bd 73 cb b0 bd
       0.13967383 0.03174123 -0.04869135 -0.08632555
0001e0 ed 03 9b 3d 48 1b 0a 3d c1 72 a8 bd fb c5 1c be
       0.07569108 0.033717424 -0.082250126 -0.15309899
0001f0 6f 1c d3 3d 3a a9 08 be ac cf 72 3d b5 56 f1 3d
       0.10308158 -0.13345805 0.059280083 0.11784116
000200 b2 03 9c 3c cf ba 50 bd 4e 8f ba bd b2 a5 cf bc
       0.01904473 -0.050959405 -0.091093644 -0.025347564
000210 d6 fb 1f 3d ba 2f 83 3d ba 3b 75 3e 7b 37 56 3d
       0.03905853 0.064055875 0.23948565 0.052299004
000220 da 76 f9 3d 16 a8 ac bd aa 34 09 bd 7a 1c 3a 3e
       0.12180872 -0.08430497 -0.03349749 0.18174925
000230 87 3d 4b 3e b0 44 2a bd 0e d9 b1 3d fb b3 d6 bd
       0.1984769 -0.04156941 0.08683978 -0.10483547
000240 91 8d d0 bd f0 8f 70 bc 95 bf 05 3e 05 1a 99 bd
       -0.10183252 -0.014682755 0.13061364 -0.07475666
000250 f9 35 18 bd f7 3e 22 bd 29 b5 4b 3e e8 d9 84 bd
       -0.037160847 -0.03961083 0.19893326 -0.06486875
000260 dd b4 96 3d ce f1 6a 3d 46 67 2c be 5b d5 63 3e
       0.07358716 0.05735951 -0.1683627 0.22249357
000270 7f 77 0f 3d 6e 21 8e 3c 19 59 3f 3d e4 6d 00 3e
       0.03502607 0.017349925 0.04671583 0.1254192
000280 8c b9 42 3b 25 ec 39 be 7f fc 39 3e 1b c8 11 3e
       0.0029712645 -0.18156488 0.18162726 0.1423649
000290 eb 4b f5 bd c7 d7 ce bc ae 8b cc bd aa fc 23 bc
       -0.11977371 -0.025249375 -0.09987579 -0.01000897
0002a0 eb 68 4a 3c bd b1 63 3e 14 52 a4 bd c9 19 1b 3d
       0.012354116 0.2223577 -0.08023468 0.037866388
0002b0 67 6d ad 3c 94 0d 11 bd ae 66 17 be 7f 4a 83 bd
       0.021170331 -0.03541334 -0.14785263 -0.064106934
0002c0 a4 bf c2 3b 64 b6 e7 bd da a0 0c 3e 89 08 3e be
       0.0059432555 -0.11314085 0.13733235 -0.18557943
0002d0 67 b1 64 3e ca 90 d3 3d 1f e9 2a 3d 75 c7 0e bc
       0.22333299 0.10330351 0.041726228 -0.008714546
0002e0 7b 39 40 bd 18 ec c0 3d de 3e a4 3d 54 1e 9b bd
       -0.046929818 0.09420031 0.080198035 -0.07574144
0002f0 84 bb e7 bd 61 0f 96 3d 58 72 8b bd 27 2a 99 3d
       -0.11315063 0.07327152 -0.06808919 0.07478743
000300 57 0b 17 3e 56 23 49 3e b8 df 70 bd 23 3f b8 3d
       0.1475042 0.19642386 -0.058807105 0.089964174
000310 d4 4e 26 bd 49 0c cb 3d 02 d5 a5 bc 8f 4b 05 3e
       -0.04060252 0.099144526 -0.020243172 0.13017105
000320 e3 a9 cf bd aa df f6 bd 0b 92 36 3e 1e 43 b4 bd
       -0.10139825 -0.12054379 0.17829148 -0.08801864
000330 5a 21 36 3e 2b 43 7d 3c 23 40 2c 3e f2 e8 43 3e
       0.1778616 0.015457909 0.16821341 0.1913183
000340 bd c3 0f be fe 26 ac bd 62 17 7f bd 43 d8 8b 3d
       -0.14039512 -0.08405875 -0.06227816 0.06828358
000350 9e 0a 59 3e b3 dd 1b be ec 6d 63 bd e4 5d 7a 3d
       0.21195456 -0.1522129 -0.05552475 0.061124697
000360 c9 66 46 3e 47 15 55 3c 01 31 8d 3d c8 52 d0 bd
       0.19375147 0.013005561 0.068941124 -0.10172039
000370 5a c8 56 3e 13 c0 fe bc e0 f1 f7 3b 12 aa 5a bd
       0.20974866 -0.031097447 0.0075666755 -0.053384848
000380 97 34 f7 3d d8 df 0a bd 23 c7 39 bd 52 ae fa bd
       0.120705776 -0.03390488 -0.045355927 -0.1224028
000390 f8 e3 26 bd 62 2f f6 3d f0 cf d2 bd 5e 93 25 3e
       -0.04074475 0.12020756 -0.10293567 0.16169497
0003a0 e0 92 01 3e b0 a5 01 bd 17 d3 98 3d a1 01 07 be
       0.12653685 -0.031652153 0.07462137 -0.13184215
0003b0 57 da bf bd 4c 1a 0e 3e 68 47 b0 bd fd 2d 11 3d
       -0.09367817 0.13877219 -0.0860737 0.03544425
0003c0 6c 6b 03 3d 8a 34 97 bc 0e 24 08 bd dc 66 7c 3c
       0.032084867 -0.01845767 -0.03323751 0.015405383
0003d0 2b f1 8e bd 68 c4 2d 3e 47 70 e2 3d 13 0a 36 3e
       -0.06979593 0.16969454 0.110565715 0.1777728
0003e0 66 b1 10 bd 62 09 18 be 75 70 1c 3e db 9a cc 3c
       -0.03532543 -0.1484733 0.15277274 0.024976185
0003f0 04 19 a9 bd 59 19 13 3e 54 c5 86 bb 42 a6 2b bd
       -0.082567245 0.14365138 -0.004112879 -0.041906603

lstm.weight_hh_l0 f4 [128, 32]
000000 ee 7c b4 3d 10 3b 87 3d 85 de b8 3d 92 4e 40 3e
       0.08812891 0.06603062 0.09026817 0.18779972
000010 f5 86 9a bb 57 4e 1d bd 93 22 2f 3e 32 4c d9 3d
       -0.004715795 -0.03840479 0.17103033 0.10610236
000020 5b a2 a5 3d d0 1d 63 be 94 17 eb 3d 34 7a d8 bd
       0.080876075 -0.22179341 0.114791065 -0.105701834
000030 79 8d 71 3c e4 6f 45 be 34 c8 4c be 3e 02 45 3d
       0.014743202 -0.19280964 -0.19998246 0.04809784
000040 58 05 11 bd 13 a2 3a 3e b1 bb 6f bd 13 5d 9e 3d
       -0.035405487 0.18225889 -0.058528606 0.07732596
000050 19 ac a2 3c 5d f5 03 be 58 9b d0 bd 22 45 ca 3d
       0.019857453 -0.12886567 -0.101858795 0.09876467
000060 f3 71 fe bd 3d 8d 12 3e bb 28 00 be 8c f8 f5 3c
       -0.12424078 0.1431169 -0.12515537 0.030025743
000070 f3 98 d5 bc 40 d9 30 be 77 40 5b bd 40 fb bd 3d
       -0.026073908 -0.17270374 -0.053528275 0.09276438
000080 74 64 0c be a2 04 0e bd ba df 88 3d ce b1 ae 3d
       -0.13710195 -0.034672387 0.066832975 0.08530007
000090 b2 ed eb bd fc 55 13 3d 73 43 de 3b 06 7c 21 3e
       -0.11519946 0.035970673 0.006782943 0.15769967
0000a0 df 04 17 bb 3d 39 41 3d 76 ce 1e 3e 53 84 7e 3d
       -0.0023043675 0.047173727 0.15508446 0.062137913
0000b0 18 60 6d 3c 0e dc 13 be 02 c7 9a bd 88 9f 4d bd
       0.014488243 -0.14439413 -0.07557489 -0.05020097
0000c0 52 03 2b be b2 df e0 bd 6a 8a 01 3e c7 a2 a3 3c
       -0.16700485 -0.109801665 0.12650457 0.01997508
0000d0 72 d8 2c bc 1a 06 4d 3e c6 e7 e4 bc 16 a0 4e bd
       -0.010549651 0.20021859 -0.02794255 -0.05044564
0000e0 cb 0f 78 bd e6 e0 11 bd 1d f9 03 be db e4 2e 3d
       -0.060561936 -0.03561487 -0.12887998 0.042698722
0000f0 6e 0d 2e 3d 09 b5 ca 3d f5 57 07 be 87 e9 8b bd
       0.042493276 0.09897811 -0.13217147 -0.06831651
000100 97 40 3f 3b 12 3f 08 3e 66 5e 24 be 7e 36 04 3e
       0.0029182786 0.1330531 -0.16051635 0.12911412
000110 f4 49 42 bd 6c c9 51 3e 7e 73 04 3e 4c f7 1a 3e
       -0.04743381 0.20486993 0.12934682 0.15133399
000120 c7 20 42 bd 3b 99 39 bc 2b a5 45 be b7 4e 59 bd
       -0.04739454 -0.011328037 -0.19301288 -0.053053584
000130 87 4a 94 3d 26 aa de 3d be 90 c9 3b c6 97 20 3d
       0.072407775 0.10872297 0.006151288 0.039207242
000140 dc 78 13 be 59 87 35 3e 89 c0 29 3d 6b c6 cf 3d
       -0.14401573 0.17727412 0.04144338 0.10145267
000150 31 ab 33 bd a0 b1 35 3b 37 d4 45 be b0 18 56 3e
       -0.043864433 0.002772428 -0.19319235 0.20907855
000160 24 46 20 3e 0f 0d 90 3c 6a 4c bd bd 9e 43 aa bc
       0.15651757 0.017584352 -0.092430905 -0.020784196
000170 c6 c5 77 be 6f ee 96 bd ec b4 c8 bb 8d 6e aa 3d
       -0.24196538 -0.07369696 -0.006125083 0.08321867
000180 e5 d8 1e 3e 8e 2b 16 3e eb 6a 6b bd 72 cf 31 bd
       0.15512426 0.14665052 -0.05747501 -0.043410726
000190 49 2c 2a 3b d2 d3 19 bc 89 d2 fd 3d 30 8c d0 3c
       0.0025966337 -0.009388881 0.12393672 0.025457472
0001a0 ff 4d 04 be 45 db ef bd f3 e9 d9 bd ed 4d 1a bd
       -0.12920378 -0.11711744 -0.106403254 -0.037671972
0001b0 a1 f9 b2 3d bd 58 0a bc 2e 1b 24 be 3c b6 c4 3c
       0.08739019 -0.008444008 -0.16025993 0.024012677
0001c0 70 ed 07 be 3d 7f db bd 87 25 75 3d 74 16 2e 3e
       -0.13274169 -0.10717628 0.059850242 0.17000753
0001d0 4b 2d 4e 3d 50 5b bd 3d 41 a6 99 bd 61 83 21 3e
       0.050336163 0.09245932 -0.075024135 0.15772773
0001e0 9c f8 1b 3e d7 30 d7 bd 2b 3a 1c be 40 d4 6a 3d
       0.15231556 -0.10507362 -0.15256564 0.057331324
0001f0 fc 9c 56 be 79 dd 44 3b fd e1 c1 3d 60 6e 95 bd
       -0.20958322 0.0030039235 0.09466932 -0.07296443
000200 56 3a 0d be 46 18 8c 3d c7 a3 16 be 9d f4 20 3e
       -0.13791785 0.06840567 -0.14710914 0.15718313
000210 07 5b fb bd d3 cb 53 3e 82 46 e5 bd 9c 0b 12 3e
       -0.122732215 0.20683222 -0.11195089 0.14262241
000220 7b aa a5 bd 1c ce d5 bd a5 3b 82 3d 61 9c 0f 3e
       -0.08089157 -0.10439703 0.063590325 0.14024498
000230 50 50 3e be 7b 64 f3 bc f9 06 0b be 48 6d 1a 3d
       -0.18585324 -0.029710999 -0.13576879 0.037701875
000240 14 16 a4 bd 21 f2 73 bd 03 2d 83 bc 47 52 65 3c
       -0.080120236 -0.059557084 -0.016012674 0.013996667
000250 62 3e 1f be 36 a2 58 bd 3b b0 bc bd 99 3f 01 bd
       -0.15551141 -0.05288907 -0.09213301 -0.031554792
000260 65 de ea bc f6 94 bc bd b6 33 ed bd 84 26 df 3d
       -0.0286705 -0.092080995 -0.11582129 0.10896018
000270 27 05 dd 3d df fc ea bd 21 c0 5c 3d 8e f8 c0 3d
       0.10791998 -0.114740126 0.053894166 0.09422408
000280 35 d5 d0 bd cd 18 22 3d 8e 4e f0 bd dd 61 70 3d
       -0.10196916 0.039574433 -0.11733733 0.05868708
000290 26 80 01 3a 1f dd c1 bd 17 26 69 bc 58 fd e0 3d
       0.0004940055 -0.094660036 -0.014230273 0.109858215
0002a0 43 a2 ed bd a5 16 08 be f9 f6 ae bd 49 4d 0a 3e
       -0.116032146 -0.13289888 -0.085432 0.13506044
0002b0 bd 84 5a 3c 35 6e 3a be 3d c6 fc bc 6f 9c b4 bc
       0.013337311 -0.18206103 -0.030856246 -0.02204725
0002c0 b3 c9 d0 bd 6a a9 74 3d bd d5 80 3d 71 cb 1a 3e
       -0.10194721 0.05973188 0.06290767 0.15116669
0002d0 bd f5 ed bd a0 e9 5a bd 4c a4 79 3d 24 48 3a bd
       -0.116191365 -0.05344546 0.0609477 -0.045478955
0002e0 f2 25 38 3c 8a c6 1e 3e c7 d7 29 bd 84 e1 86 3c
       0.011239516 0.15505424 -0.041465547 0.016464956
0002f0 7f 6b 92 3d 5d 47 bd bd d5 38 4a 3e ea 44 32 be
       0.071494095 -0.09242127 0.19748242 -0.17409101
000300 b8 f0 88 bc c9 d0 55 3d 78 97 d7 bd 30 3b 33 3e
       -0.016716346 0.052201066 -0.10526937 0.17503047
000310 59 13 ee 3d de 41 d5 3d b5 16 21 3d 3f bb 0b 3e
       0.11624784 0.10412954 0.039328296 0.13645647
000320 dd e2 f7 3d 0b ab 2e 3d cf 11 37 3e ec 57 ca bd
       0.121038176 0.042643588 0.17877887 -0.09880051
000330 ca 6e b7 bd aa b3 9d bd d7 f2 0e 3d c5 91 11 3d
       -0.08956678 -0.07700284 0.03489956 0.035539407
000340 db f8 c9 3d 8c 1e 11 be 2c bc 42 be 7d 50 06 bd
       0.098619185 -0.14171809 -0.19017094 -0.032791603
000350 bd 4e cf bd 7d ac 1f 3e 44 bd a2 bc ab 8f a2 bd
       -0.1012244 0.15593143 -0.01986564 -0.07937559
000360 22 71 b5 3d d8 9d 85 bd 04 f6 34 be bf fc e9 bd
       0.08859469 -0.06524247 -0.17671973 -0.114251606
000370 8e a1 06 3e 2a 76 01 be 50 2d 08 bc 92 1e 5c be
       0.13147566 -0.12642732 -0.008311585 -0.21496037
000380 d9 b1 a3 3c 68 6b 40 3e 55 65 76 bc 8c 2e 4d 3e
       0.019982265 0.18790972 -0.015038808 0.20037287
000390 c8 f1 11 bd e2 fe 9f 3b 57 49 b8 3b 4b 9c ea bd
       -0.03563097 0.0048826793 0.005623977 -0.11455592
0003a0 01 b4 e2 3d 50 72 80 bb fa 56 9c bd 0d b9 72 3d
       0.11069489 -0.003919877 -0.07633777 0.05925851
0003b0 66 f7 9b bd 11 9b a8 3d 0d 50 90 bd c2 a6 53 3d
       -0.07615547 0.082327016 -0.070465185 0.051672705
0003c0 3d 9c 69 3e 35 27 86 3d ad e8 3f bd ef 1c d2 3d
       0.22813506 0.06550447 -0.046852756 0.10259425
0003d0 8d e1 be bd d1 ca 2c bd 8e 80 30 be 2c 0b 0d be
       -0.09320364 -0.04218561 -0.1723654 -0.13773793
0003e0 4c 68 42 3e 9d fe c4 3d 17 07 e8 bd 3b ac 1e 3e
       0.18985099 0.09618876 -0.11329477 0.15495388
0003f0 58 44 13 be a7 47 6c bd df 10 61 3d 8b d6 50 be
       -0.1438154 -0.05768552 0.05494773 -0.20394342

lstm.bias_ih_l0 f4 [128]
000000 3e c5 31 bd 0d fd 1c 3e 1d c7 46 3e e1 d2 c8 3c
       -0.043400995 0.15330906 0.19411893 0.024514617
000010 5d d5 e2 3d 33 46 3d 3c ba b8 f1 3c ac de 01 be
       0.11075852 0.011552381 0.02950703 -0.12682599
000020 3a 61 c8 bd 45 7f 10 3e 46 1b f1 bc 01 5b 9a bd
       -0.097841695 0.1411105 -0.02943195 -0.07536889
000030 ad 65 a0 3d d8 5f 2e 3e d5 92 e3 3c 1d cb 5a 3e
       0.07831893 0.17028749 0.027779976 0.21366544
000040 f3 b3 be 3d 46 9b ff bc f8 68 07 3c 67 bb 16 bd
       0.09311666 -0.03120197 0.008264773 -0.036799815
000050 a2 e2 19 3e 2e ae 73 3e e4 1c af 3d 57 da 0e 3e
       0.1502786 0.23796913 0.08550432 0.13950478
000060 2e c1 46 3e ee 7f 89 3c 78 8c d8 bc 36 b4 e1 3d
       0.1940963 0.016784634 -0.026434168 0.11020701
000070 a5 32 81 3e 52 e3 95 3d 98 47 64 3c 9c f9 ba 3c
       0.2523395 0.073187485 0.013933085 0.022824101
000080 d1 55 9f 3d 37 01 a6 3d 6b 56 84 bd 76 9c 71 3d
       0.0778004 0.081057005 -0.064617954 0.058987103
000090 50 37 1b 3e cb 58 2f 3e 41 36 3d 3e 34 6a ef 3d
       0.15157819 0.17123716 0.18477727 0.116901785
0000a0 43 fa 15 be b9 55 05 3e 06 f7 6b bd 69 9a 56 3d
       -0.14646249 0.13020982 -0.057608627 0.05239335
0000b0 aa 6d 0b 3e c2 f6 34 3e 33 97 bf 3d e9 fb 33 3e
       0.13616052 0.17672256 0.09355011 0.17576565
0000c0 9b fc 0d 3e 4a 2f 64 3e c8 dc d2 bc 7c 49 73 3e
       0.13865893 0.22283664 -0.025740042 0.23758501
0000d0 99 78 87 bd 43 5f c1 3c 9a c7 5a 3d 03 d9 31 3e
       -0.06614799 0.023604995 0.05341301 0.1736794
0000e0 1e 09 a2 bb 2c 71 60 3e 6c 47 d8 3b 9d 59 4b 3e
       -0.0049449345 0.21918172 0.006600311 0.19858404
0000f0 4d 7f 6d 3d 51 7f dc bb 95 47 86 3d 1e 9e 83 bb
       0.05798273 -0.0067290445 0.06556622 -0.004016652
000100 11 a7 e9 3d 17 31 04 3e 1d 19 2f be 16 89 19 be
       0.114088185 0.12909351 -0.17099424 -0.149937
000110 c5 d5 ba 3d f8 13 0a 3e da 32 5d bd 86 8e f0 3d
       0.091228046 0.1348418 -0.054003574 0.11745934
000120 43 7f 03 be 95 e7 5c bd 8d 72 23 3e 7e 2a 10 3e
       -0.12841515 -0.05393179 0.15961666 0.1407871
000130 0a d1 2b bd 3c a5 83 bd 82 4d 65 bc 71 c8 18 be
       -0.041947402 -0.06428 -0.01399553 -0.14920212
000140 0c 8e 01 be 63 c6 c6 bc ab 34 0a 3e 6c be 6f 3c
       -0.12651843 -0.02426452 0.13496654 0.014632802
000150 36 34 8b bd 40 93 37 3e da 6c 90 bd 7f b1 13 3e
       -0.06797068 0.17927265 -0.07052012 0.14423178
000160 10 9d 44 3e c8 ee 0d 3e a3 05 62 bd 45 50 17 3e
       0.1920054 0.13860619 -0.055181157 0.14776714
000170 f5 8d 23 be 62 af 77 bd 5f ca e1 3b d7 ac c5 bd
       -0.15972121 -0.060469992 0.0068905796 -0.09652107
000180 d7 27 18 3d 13 bc 28 3e 3b 32 96 3d 29 c3 05 bd
       0.03714737 0.16477995 0.073337995 -0.032656822
000190 f1 da 53 3d 4b 6b 4a 3e 08 5c 65 3e 9c 04 4d 3e
       0.05172247 0.19767492 0.22398388 0.2002129
0001a0 31 fb 5b 3e ee 5a 9d bd dd 23 7c bd e8 ac 95 bd
       0.2148254 -0.07683359 -0.06155764 -0.0730837
0001b0 f5 0c 77 3d 08 ba 9f bd fe b0 83 bd cf ff 3d 3e
       0.06031509 -0.077991545 -0.06430243 0.18554614
0001c0 c6 5c 9a bc e8 93 2e 3e d9 60 05 bc 8b 03 78 3d
       -0.018843066 0.1704861 -0.008140766 0.060550254
0001d0 90 69 1d 3e dd 2f 1c 3e 7f ea 27 3e 94 98 6e 3d
       0.153723 0.15252633 0.16398047 0.05825098
0001e0 f8 da 86 bd 1c df be bd d9 e6 72 bd 0f 57 61 3e
       -0.06584734 -0.093198985 -0.059302185 0.22005866
0001f0 b4 22 c3 3a 55 b3 cd 3d d9 80 8f bb 41 5f 26 3d
       0.0014887662 0.100439705 -0.0043793735 0.040618185

lstm.bias_hh_l0 f4 [128]
000000 2a 6f ee 3d 1e b5 9d 3d d6 a7 5b 3c ef 3c c0 3b
       0.116422966 0.07700561 0.013406714 0.005866639
000010 77 ca f7 bd bc a8 a0 3c ba 30 ce bc 81 5a 43 3e
       -0.12099164 0.019611709 -0.025169719 0.19077493
000020 d5 22 08 3d a3 24 7e bc c3 d5 74 3d 85 cd 65 bd
       0.033236343 -0.015511665 0.05977417 -0.0561042
000030 0b de 9e 3d 53 e4 a5 bc ac ea ef 3d bc 63 48 bd
       0.07757195 -0.020250475 0.11714682 -0.04892324
000040 7b d3 cd bd 41 1c 37 3e 26 f8 92 3b 2f fb c4 bb
       -0.10050102 0.17881872 0.004485148 -0.0060113887
000050 2f 58 76 bd d7 4f f0 3d b4 8b 8c 3d 03 04 2b 3e
       -0.060142692 0.11733978 0.06862584 0.16700749
000060 1e c6 1c 3d 0a d5 85 bd e7 46 01 3e 05 9c ef 3d
       0.038274877 -0.065347746 0.12624703 0.1169968
000070 36 21 be 3d 91 95 09 3e 1b 81 0a 3e 8c 7c dd bc
       0.09283678 0.13435961 0.13525812 -0.027036928
000080 df 0e dd 3d 44 31 0e 3e 68 96 cb bd 41 a6 09 3d
       0.10793852 0.13885981 -0.09940797 0.033605818
000090 11 9b a9 bd 0c b9 35 3e 5e cd 36 3e f4 97 30 3d
       -0.0828153 0.17746371 0.17851779 0.043113664
0000a0 1e e1 b8 bd 78 d6 8f 3d 1f 20 23 3d d9 4e dd bc
       -0.09027313 0.070233285 0.039825555 -0.027015137
0000b0 16 ec 13 be 23 a7 25 3e 64 54 b8 3c d9 e5 7c bd
       -0.14445528 0.16177039 0.022501178 -0.061742637
0000c0 95 a7 0d 3c a9 f3 4a bd a1 7d 5a 3e f9 7a 51 3e
       0.008645912 -0.04954878 0.21336986 0.20457067
0000d0 84 bd 11 3d d2 bc 11 3e e2 e9 54 bd 7c e4 1c 3e
       0.035581127 0.14232185 -0.05198086 0.15321535
0000e0 4a 31 60 3e 2b 09 01 bd ae 89 8c bd 9f 27 40 3e
       0.21893802 -0.031502884 -0.06862198 0.18765114
0000f0 49 f0 c8 bd 15 c4 27 3e 49 67 17 bd 4e a4 b5 3d
       -0.09811456 0.16383393 -0.036963735 0.08869229
000100 a2 1b d3 bd 89 0d 10 be de 2f 81 bd f9 0c 23 3e
       -0.10308005 -0.14067663 -0.06307958 0.15922917
000110 99 77 75 3d b5 be 9f bc 32 c8 42 3e b2 d4 75 bd
       0.05992851 -0.019500116 0.19021681 -0.060017295
000120 22 bc 57 bc 4d 80 97 bd b4 de b3 3d 13 23 a2 bd
       -0.013167413 -0.07397518 0.087827116 -0.07916846
000130 dc 45 90 38 bd d7 e1 bd e7 c7 b5 bd b0 84 3b 3d
       6.8794674e-05 -0.11027477 -0.08876019 0.045780838
000140 95 62 26 3e 05 95 07 3e f9 42 2a be 19 48 97 3c
       0.16248544 0.1324044 -0.1662711 0.018466996
000150 90 b5 35 3e 51 97 4e 3c 0d 11 9a bb ac 62 e9 bb
       0.17745042 0.012609319 -0.0047017396 -0.0071223583
000160 e6 34 11 be 66 03 d1 bd 22 17 84 bd 02 48 62 3c
       -0.14180335 -0.10205726 -0.06449725 0.013811113
000170 2d 80 25 3e d1 1f 74 bd 00 dd 7e bd c0 8d 0b bd
       0.16162176 -0.059600655 -0.06222248 -0.03407073
000180 83 a9 af bd 40 8b fb bd 8e 66 b1 3d 4a d7 d9 bd
       -0.08577254 -0.12282419 0.08662139 -0.10636766
000190 22 d8 e0 bd 2c 8c 6c 3e 02 42 1b 3e ab 2c f1 bd
       -0.10978724 0.23100346 0.15161899 -0.11776098
0001a0 f4 5a 68 bd ee b8 e1 3c eb 4e 8a bd 15 a5 7d bd
       -0.056727365 0.027554002 -0.06753334 -0.061925013
0001b0 af 45 ec bd b2 7d 8f bc 79 58 e4 3d 72 d0 dc 3d
       -0.115367286 -0.01751599 0.11149687 0.10781945
0001c0 23 bd ce 3d 64 77 2c 3c b2 28 da 3d 6d e8 6f 3b
       0.10094669 0.010526512 0.10652293 0.0036607042
0001d0 b8 26 21 bc 82 e4 8c bd d6 16 fe 3d 7f 94 11 3e
       -0.009835891 -0.06879522 0.12406699 0.14216803
0001e0 8e 8b 98 3c d8 bd f9 3b b8 dd 6d bd e0 79 9d bd
       0.018621232 0.007621508 -0.058072776 -0.076892614
0001f0 ee 6c 48 bd 8b df 8c 3c 9a 11 bd bc 8d cc 1b 3e
       -0.04893201 0.017196437 -0.023079682 0.15214749

fc1.weight f4 [32, 32]
000000 aa df 1f be 00 05 e0 3c d7 2a 9a bd 28 c0 88 bd
       -0.15612665 0.027346134 -0.07527702 -0.06677276
000010 73 41 25 3e 8b ac 01 be 54 3d 41 3e 28 6a f9 bd
       0.16138248 -0.12663476 0.18871051 -0.12178451
000020 ee b7 0b be d9 9a bf 3c fc 2c 7c 3d 46 92 29 be
       -0.13644382 0.023389267 0.061566338 -0.16559705
000030 8c 44 d0 bd 9d 05 0b 3e 32 a0 09 3d a7 ad 8a 3d
       -0.10169324 0.1357636 0.03360004 0.06771403
000040 6e 34 16 be af 9c c4 bd 21 38 d0 bd 1c 95 58 3c
       -0.14668438 -0.096001975 -0.10166956 0.013219144
000050 d0 b4 0f 3e 1b ef 0d bd 31 32 0e be 14 70 d5 bd
       0.14033818 -0.034651857 -0.13886334 -0.10421768
000060 ea 9d 03 3e b5 3d 07 3c 53 ff f7 3d 6a 5c 11 bd
       0.12853208 0.008254458 0.12109246 -0.035488524
000070 ef 4c 1c 3e ee 3e 8a 3d ea bd 11 be 6b f0 8d 3d
       0.15263723 0.06750284 -0.14232603 0.06930622
000080 f7 48 07 be 62 3c 33 3d 33 3f 49 3d 67 b2 3a bb
       -0.13211428 0.043758757 0.049132537 -0.0028487684
000090 f8 86 fd 3d 42 64 2b 3e e5 0a 5a bd 93 dd dc bd
       0.12379259 0.16737464 -0.053233046 -0.107844494
0000a0 e8 87 3e bd 5e 38 42 3e 1b 2e 68 be 71 1b 51 3e
       -0.04651633 0.18966815 -0.22673838 0.20420624
0000b0 10 e5 dc bd 79 9e 29 bc 0d 5e 6d bc 00 30 d3 bd
       -0.10785878 -0.010352724 -0.0144877555 -0.1031189
0000c0 99 90 63 3e ca ff d5 bc fd f7 8b 3c c9 48 32 3e
       0.22223128 -0.026122946 0.017086023 0.17410578
0000d0 34 21 80 be bf 32 e9 bc b2 b5 af 3d 0d 99 58 3e
       -0.25025332 -0.02846658 0.085795775 0.21152134
0000e0 09 99 d3 3b fe 9b 8a bd 79 fa dd bd ef 78 03 bd
       0.006457452 -0.067680344 -0.108387895 -0.032097753
0000f0 dd 6d 8e bd 44 ef 62 be 37 d8 e6 3d 60 4f fb bd
       -0.069545485 -0.22161585 0.112717085 -0.12270999
000100 e8 bb 27 be e2 cf 9a bb 30 0b e1 3b c3 4b 1b 3e
       -0.16380274 -0.0047244886 0.0068677887 0.1516562
000110 fb a7 82 3e 1c 16 07 3e 93 fe a8 bd 6b fd 35 3d
       0.25518784 0.13192028 -0.08251681 0.04443113
000120 83 35 96 bd 23 05 96 3d d9 1c 3c be f6 29 24 3e
       -0.07334425 0.073251985 -0.1837038 0.16031632
000130 87 fb 1f be e7 9e 43 3d 36 5f 56 bd 9a 50 7f bd
       -0.15623294 0.047758963 -0.052336894 -0.062332727
000140 21 ae cf bd 97 86 6f bd e8 ed 2c be 79 f6 8c 3d
       -0.10140634 -0.058477964 -0.16887629 0.068829484
000150 54 15 71 3d 65 32 5b bd 59 78 19 be e8 52 97 bd
       0.05885823 -0.053514857 -0.14987315 -0.0738886
000160 06 28 53 3e 8a 6b 8e 3d 89 77 ed bd f0 9d a1 3d
       0.20620736 0.06954105 -0.11595065 0.07891452
000170 4c 27 4a 3d a8 72 18 3d a3 93 67 3e b3 95 dc bd
       0.049353883 0.03721872 0.22614913 -0.1077074
000180 46 40 09 3e 1a 48 7c 3d 76 53 13 be 92 f0 fa 3d
       0.13403425 0.0615922 -0.14387307 0.122529164
000190 d7 e6 ea bd b4 af 88 3c e5 96 fc bd 99 6e e5 bd
       -0.114698105 0.016685344 -0.12333468 -0.112027355
0001a0 8f b2 34 be ac 78 31 be 25 5c 9e 3d ed 60 0b 3e
       -0.1764624 -0.17331189 0.07732419 0.13611193
0001b0 7b e1 f5 3c 55 0b d0 3c 65 df 11 be f2 b8 a8 bd
       0.030014744 0.025396029 -0.14245375 -0.082384005
0001c0 1e 2c 0d 3e e7 99 87 bc 3d d4 06 be e5 0e 9d bd
       0.1378636 -0.016552879 -0.131669 -0.076688565
0001d0 01 09 e9 bd 91 9b 3f be c0 fa b8 3d 54 3c 0a bd
       -0.113786705 -0.18711688 0.09032202 -0.03374894
0001e0 2c fb 77 3d b0 d7 c2 3b 27 cb e6 3d 40 74 b6 3d
       0.06054227 0.005946122 0.11269217 0.08908892
0001f0 57 1e 09 bd 20 4b 01 be 26 7f 9b 3d cb 04 15 3e
       -0.0334762 -0.12626314 0.07592611 0.1455261
000200 d7 d2 91 bd a7 50 d2 bc d5 1e 35 bc 21 c2 2b 3e
       -0.07120293 -0.025673224 -0.011054714 0.16773273
000210 1a 37 33 3e ab f1 94 bc 83 22 67 bd fc 3e 2f 3e
       0.17501488 -0.018181643 -0.056429397 0.1711387
000220 55 9e 32 bd 92 05 ec 3d c4 cd b2 3d 3e 20 20 3e
       -0.04360803 0.115245 0.08730653 0.156373
000230 d3 11 4b be 12 08 2a be 7a 9b 00 be 2f 58 f2 bd
       -0.19831018 -0.16604641 -0.1255931 -0.11833226
000240 50 cc 34 3e a0 49 60 3d f1 2b 09 be 3e 20 eb 3d
       0.17656064 0.054757714 -0.13395669 0.11480759
000250 f0 7e 3b be ba ea e7 3d 8c a0 c6 3c 40 5c 8d bd
       -0.18310142 0.113240674 0.024246477 -0.06902361
000260 7b 69 13 3e fc d2 81 3e 63 79 8b 3d e1 74 09 3e
       0.14395706 0.2535628 0.06810262 0.13423492
000270 6a 41 8c bd 88 0a b9 bd 37 df 29 3d ba 41 80 be
       -0.06848414 -0.09035212 0.04147264 -0.25050145
000280 e4 ae 83 bd ed f0 21 3e 85 c0 c3 3c 27 99 8c bd
       -0.06429842 0.15814562 0.023895511 -0.06865149
000290 c8 c7 25 bc 9d 7e 3b be f0 25 8f 3d f4 2e 26 be
       -0.010118432 -0.18310018 0.06989658 -0.16228849
0002a0 de f5 86 bd e0 78 be bd 8b 16 85 bc d7 55 64 3d
       -0.06589864 -0.09300399 -0.0162461 0.055745926
0002b0 3a e4 b5 bd cf 9e 94 3d 5c 61 b0 bd ac dd 0f bd
       -0.088814214 0.07256853 -0.0861232 -0.035123512
0002c0 96 13 f3 3d 17 b4 08 be 20 9d a5 3d 7c 10 7f 3d
       0.1186897 -0.13349949 0.0808661 0.06227158
0002d0 f1 b1 1e bb 09 4d d4 bd 1a 44 1f be 1a 6d 01 be
       -0.0024214948 -0.10366256 -0.15553322 -0.12639275
0002e0 39 d8 8c bd 38 5f e3 3d 91 f6 71 3d 37 d4 a5 bd
       -0.06877179 0.11102146 0.059073035 -0.080971174
0002f0 77 e4 ab 3c 7a 2d 76 3d d3 1c 0a be 3b cc 13 be
       0.020982964 0.060101964 -0.13487558 -0.14433376
000300 c6 38 32 be df eb 8c 3d c2 93 a3 bd 14 09 28 3e
       -0.1740447 0.06880926 -0.07987167 0.16409713
000310 98 67 3d 3d ce 9d 1b 3e 71 d9 67 3e 39 e7 52 3e
       0.046241373 0.15196916 0.22641541 0.20596017
000320 18 da 2a 3e 67 67 c8 3d 7a 79 82 be 00 8e 33 3e
       0.16684759 0.097853474 -0.25483304 0.17534637
000330 76 bd 2f be 33 63 9e bc c4 c4 1d be 6f a0 5e be
       -0.17162117 -0.019334411 -0.15407091 -0.21740888
000340 a6 04 31 3e 55 62 c2 3d 86 e2 0f be 21 1e 5f bd
       0.1728693 0.094914116 -0.14051256 -0.054472093
000350 3c 03 60 be 98 42 08 3e a9 5d 01 3d 4d 43 26 bd
       -0.21876234 0.13306653 0.031583462 -0.040591527
000360 e9 9a 54 3e 06 a9 70 3c b6 c1 78 be d5 2d b1 3d
       0.20762219 0.014688736 -0.24292645 0.0865132
000370 27 f5 09 bd 99 c6 b7 bd e9 2d 15 3e b9 56 7d bd
       -0.03368106 -0.08973426 0.14568295 -0.061850283
000380 7e cf 37 3e 4d df 4b 3d f2 68 28 3d 49 64 49 be
       0.17950246 0.049773503 0.04111571 -0.19667162
000390 71 81 0f be c4 7c 83 bd d5 57 26 be 79 4b ee 3d
       -0.14014222 -0.064202815 -0.16244443 0.11635489
0003a0 d8 07 98 3d 02 73 0a be e0 2f 84 bd 5f 89 7f bb
       0.07423371 -0.13520434 -0.06454444 -0.0038991792
0003b0 bd 37 99 bd 2e 46 13 3e 88 1f 12 be f5 ae 1b 3d
       -0.07481334 0.1438224 -0.1426984 0.03800865
0003c0 5e bf 15 3e e3 0c 6d 3c 52 9c 6c bd 10 a9 80 3d
       0.14623782 0.014468404 -0.057766266 0.06282246
0003d0 36 f9 12 be dd 0a 28 bc 1d a8 3a 3e 22 c5 cb bd
       -0.14352879 -0.010256496 0.18228193 -0.099497095
0003e0 97 a1 96 bd db 28 a0 3d 7e 7d d6 bc 2b 21 f8 3d
       -0.073550396 0.078202926 -0.026182886 0.12115701
0003f0 d4 58 d5 3d f4 eb 0a 3a af b8 dd 3d 8e 30 a5 3d
       0.10417333 0.0005299442 0.10826241 0.08065902

fc1.bias f4 [32]
000000 cc 25 f5 bd bf 00 19 3e 3d 5e 3d 3e 40 17 0f be
       -0.119701 0.14941691 0.1849298 -0.13973713
000010 fc 89 44 3e ba e8 13 be f7 39 36 3e 0d b3 d7 bb
       0.19193262 -0.14444247 0.1779555 -0.006582624
000020 c2 b8 d2 3d 82 b1 8e 3c 5d 65 ed 3d 44 79 6e 3d
       0.10289146 0.017418627 0.11591599 0.058221117
000030 6d cb e6 3d d6 4b c0 bd 49 3b 97 bd 8c 7f 37 bd
       0.11269269 -0.093894646 -0.073843546 -0.044799373
000040 ad bb 3b bd 46 08 49 3d 5a 49 f1 bd c9 e8 c9 3d
       -0.04583328 0.049080156 -0.11781569 0.09858853
000050 6f ee 26 be 6e fb 07 3e af 04 04 3e 9e 30 32 3d
       -0.16301893 0.13279507 0.12892412 0.043503396
000060 2d 03 f1 bc b5 30 37 3d 78 99 4f 3e f1 22 52 bc
       -0.02942046 0.044724185 0.20273387 -0.0128257135
000070 d3 9b a0 bd 6f ec 24 3e 17 6c 29 be 6b bc 2f 3e
       -0.07842221 0.16105817 -0.16545139 0.1716172

fc3.weight f4 [3, 32]
000000 37 5a 63 bd b4 50 8d 3e b2 e5 ca bd 18 13 e8 3d
       -0.055505957 0.27600634 -0.09907092 0.11331767
000010 a2 60 c7 3c 70 0a ae 3d 7c b3 20 3e 0a bd 11 3e
       0.02433807 0.084980845 0.15693468 0.14232269
000020 08 9a 08 be b3 09 27 be 57 da 67 3e ee c2 8b bd
       -0.13340008 -0.16312294 0.22641884 -0.06824289
000030 cd b0 3a 3b 53 56 85 3e 21 34 51 3e 00 7f 9e 3d
       0.002848673 0.26042423 0.20430042 0.07739067
000040 47 24 56 be 80 d2 91 bd 49 a8 f3 3d 25 d3 65 be
       -0.20912276 -0.07120228 0.11897332 -0.22443826
000050 1a 76 53 bc 5a cb 7e bd 47 3c d0 3a c2 8d b9 bd
       -0.012906576 -0.06220565 0.0015887105 -0.09060241
000060 51 c5 14 3e c7 19 f3 bd c1 a9 81 3e 1d 2f 71 be
       0.14528395 -0.11870151 0.25324824 -0.23553129
000070 4d 78 55 3e 06 66 33 3d e7 da d2 3c 88 7d 46 bc
       0.20846672 0.04379847 0.025739146 -0.01211489
000080 72 31 3a 3e 84 de 07 3c 68 68 51 bc 85 b2 d4 3c
       0.18182924 0.008292798 -0.01278124 0.025964031
000090 ff 2c d2 bb f7 06 eb bd b5 88 42 be d5 72 e7 3d
       -0.0064140554 -0.11475938 -0.18997462 0.11301199
0000a0 e2 d5 f3 3d 02 37 40 bd 4c a0 5f bc 3b 95 a4 bd
       0.11906029 -0.04692746 -0.013649058 -0.08036276
0000b0 9e 18 88 be 09 2a 70 be 40 56 24 be fa 63 82 bd
       -0.2658128 -0.23453535 -0.16048527 -0.06366725
0000c0 1b 22 81 3e 8c 1f d3 bd 30 4a 89 3d 06 c0 47 3e
       0.25221333 -0.103087515 0.06703603 0.19506845
0000d0 5a 0c 4c be 0e 40 a1 bd 20 18 99 3a d7 2f 18 3d
       -0.19926587 -0.078735456 0.0011680163 0.037155
0000e0 78 5e 54 bc b0 dd 11 be 06 a7 90 bc 5d ea 09 3e
       -0.012961976 -0.14244723 -0.017657768 0.13468309
0000f0 51 0f 5e be c9 42 38 be b7 65 0a 3e b6 2a 2c be
       -0.2168553 -0.17994227 0.13515364 -0.16813168
000100 7c d1 dc 3c a8 b6 d7 bd 36 5d 6a be 79 dd 1c 3e
       0.026955359 -0.10532886 -0.2288712 0.1531886
000110 35 76 62 be f4 30 82 bd d7 43 66 be 1d 8b d4 3d
       -0.22115405 -0.06356993 -0.22486816 0.10378096
000120 78 d2 7a 3d 34 91 14 3d 3a b7 03 be 87 42 8e 3c
       0.061235875 0.03627129 -0.12862864 0.017365707
000130 f4 45 14 be ae 4e c6 bd 9f ad 47 be ac a9 cc bd
       -0.1447981 -0.09682976 -0.19499825 -0.099933
000140 a3 17 2c be 00 0f b7 3d 73 45 27 3e 22 38 35 be
       -0.16805892 0.08938408 0.16335087 -0.17697194
000150 e0 a0 b9 bb 51 e0 2d be b1 4c b7 3d af b7 62 3a
       -0.0056649297 -0.16980101 0.089501746 0.0008648587
000160 eb f3 d7 bd 31 f4 15 3e 12 67 54 be 02 48 bc 3d
       -0.105445705 0.14643933 -0.20742443 0.09193422
000170 c2 7d 2a be 9c 86 1e be 8d 55 05 3e 4d 39 0d be
       -0.16649535 -0.15481037 0.13020916 -0.1379139

fc3.bias f4 [3]
000000 71 a2 7b 3d 33 39 ee bd 4c 04 d9 bd
       0.061434213 -0.11632004 -0.10596523
