model/save/v8.7_2022-09-03_00-46/model.pt (torch, 611739 bytes, 8 tensors)

lstm.weight_ih_l0 f4 [256, 512]
00000000: f038 d139 5363 04bd 7084 e0bd 1c0c 993d
00000010: d307 12bd 3367 6f3c 08c4 e73a 52f5 9a3d
00000020: 5c83 eb3c 273a 5abd e29d b3bd 58d8 ca3c
00000030: 48fe bd3c 91ce 00be 93cb cdbd 1032 cf3d
00000040: d7c5 1a3d 9ae1 b4bd 7ff7 80bd 3488 b9bd
00000050: bdd9 4e3d c4d5 3a3d 1c49 f73d 1f8e e63c
00000060: 3519 7dbd d8a7 eebb 62ad e03d 5908 183d
00000070: ab64 c5bd d2ca 143d 8be8 99bd c9f8 993d
00000080: 9d41 f63b efa8 b0bd c8df 9ebd e0cc afbc
00000090: 07d2 c3bc 76a5 66bd 1575 1fbd db2c 57bd
000000a0: 0c1a 6bbd 6442 b5bd b215 163e cce1 adbc
000000b0: 35d7 e13c 545b d53d 76b5 dbbc c133 c7bc
000000c0: 4c69 bc3d 9b35 a73d f875 893c 8cd0 183e
000000d0: 1ded 3ebd 5651 89bd eca1 71bd 21e7 8e3d
000000e0: 35a8 213d 7d32 b0bc 5178 593d 6ecc ab3d
000000f0: 41d9 93bd d124 dfbd e850 863d f2b1 b9bd
00000100: c5e2 bf3d 44f6 73bd aa99 e53d b1c2 acbd
00000110: 0edd cebd 8b1f c03d fee8 1c3e f567 dc3d
00000120: 366e 153e 5693 553d ec72 dd3d 29e8 d63c
00000130: 71e4 86bd 664b 19bb 0404 9d3c acc3 023e
00000140: 3002 8b3c 57d5 9d3d ea5d d9bd 6416 d93d
00000150: e556 c13d 12f1 24bc 3c88 83bd d56b 973c
00000160: a1b3 a73d 6e58 783d e028 f7bd bed0 d03d
00000170: f36e 36bd 07ef 59bd 0e1a 733c 9c59 95bd
00000180: 64d0 c0bc e178 6f3d 1cfd 9b3d 8364 b0bd
00000190: 9c44 dcba ea33 ef3c 862e 0e3e 4964 1b3d
000001a0: 2269 9ebd 361d f43c c70b dabd ac72 93bd
000001b0: ecbf 23bd f427 cb3d feee 1b3d be10 eabc
000001c0: b759 01bd d263 7abd 165c c1bd 1d16 aebb
000001d0: 29ed eb3d 2270 31bd d26a acbd fece cbbd
000001e0: 2dac dd3a 9bb5 533c 92b0 3dbd da19 d0bd
000001f0: a024 ef3c 468e fdbd 9991 123d 5364 933d
00000200: 5d1a bdbc 4dc0 dfbd 58db a5bd 05db cfbd
00000210: 36f5 7dbd ca85 b63b 539e 0d3e c7aa e53b
00000220: df1b f63d 125d 9cbd 0fd1 2d3c 872e 9b3d
00000230: ecbc 073e 8273 cdbd 98ee 263d 47fc 8fbd
00000240: d2ba c8bd 3c5f 00bd a2f0 163d cfb7 dfbc
00000250: ef7f 66bd 32f8 7ebd 6dcd 0a3e e96a 7dbd
00000260: 0f75 b33c 3ecb 21bc abc9 abbd d0c5 253e
00000270: 51ef 3c3b 5cae 8fbc f9c0 da3c 7a3a 813d
00000280: 6a22 97bc f539 92bd aaaf d93d 54b1 0a3e
00000290: aab7 11be 2f44 05bd 0c73 a5bd 4101 02bd
000002a0: 7eb2 bb3c c313 113e 3542 0ebe b2ca af3b
000002b0: f68e 8f3a 4b47 61bd 482e 10be bd09 f5bd
000002c0: b8d7 3d3c 90eb 9ebd a53e 0c3e 585b d6bd
000002d0: 88c5 e13d ec5d 553d b92e b43c 26b8 5b3c
000002e0: 2019 a0bd 2814 d43c 2285 c93d 1b41 b1bd
000002f0: 79c7 97bd c44c 723d c4cc 57bd 0d06 293d
00000300: dd4d f03d 8562 133e 0577 6dbd e3fb 1a3d
00000310: f5cb 18bd 5cfb 873d 6ca6 563c 6682 a43d
00000320: 8abf cebd 6be0 8bbd 5077 253e dc7c d7bd
00000330: 2007 093e 3d23 0b3d 9af2 ea3d 1cf7 013e
00000340: 7b82 b1bd ae0d 9fbd ea54 27bd c2b7 043d
00000350: 92c3 f73d 3c06 09be 9d07 c2bd a096 7e3c
00000360: 0ddd da3d 44f6 4a3d 3bcf 4f3d 051f 92bd
00000370: 889a fc3d df17 82bb e1df 0abd 8544 55bc
00000380: 459c a63d 4c69 65bd cffb 8fbd fc7c 83bd
00000390: 13b6 58bd 3a41 bc3d 1fab 9ebd b47e c93d
000003a0: 6cd3 cb3d 3af1 3dbd bea5 3b3d 5daf c6bd
000003b0: b4c8 8cbd e254 bc3d 0408 c7bd 23a5 453d
000003c0: 2c59 f03c 5b31 6e3c 6be5 85bc d170 03bc
000003d0: bb25 cfbd d35b d13d 09df 763d 6cd9 fd3d
000003e0: ed8a 2d3d 7290 a2bd 52a4 0d3e ad1d 843b
000003f0: 498c 9dbc bd2f ea3d 5325 1cbd 57ba 68bb
0.00039906008 -0.032321285 -0.109627604 0.07473013 -0.035651993 0.014612007 0.0017682323 0.075663224
0.02874916 -0.053278115 -0.08770348 0.024761364 0.02319254 -0.12578799 -0.10048594 0.101169705
0.03778633 -0.088320926 -0.06297206 -0.09059182 0.05050062 0.04561402 0.120744914 0.02814394
-0.061791617 -0.007283192 0.1097057 0.037117336 -0.096383415 0.036326237 -0.07515057 0.07518155
0.007515146 -0.086259715 -0.07757527 -0.021459997 -0.02390386 -0.05631014 -0.038930018 -0.052533012
-0.057397887 -0.08850554 0.14656714 -0.021225832 0.027568439 0.1041781 -0.026819926 -0.02431667
0.09199771 0.08164521 0.016779885 0.14923304 -0.046612848 -0.06704967 -0.05899231 0.06977678
0.039467055 -0.02150845 0.05309326 0.08388601 -0.07219172 -0.10895694 0.065584004 -0.090671435
0.09369425 -0.05956103 0.1121095 -0.08435572 -0.101007566 0.09381016 0.15323254 0.10762016
0.14592823 0.052142464 0.10812935 0.02623375 -0.065865405 -0.0023390888 0.019166954 0.12769955
0.016968817 0.07706707 -0.10613616 0.10599974 0.09440402 -0.010067241 -0.06422469 0.018484036
0.08188558 0.060631208 -0.12068343 0.101960644 -0.044539403 -0.05320647 0.014837755 -0.07292482
-0.023536868 0.05846489 0.07616636 -0.08612921 -0.0016805115 0.02919956 0.13884935 0.037937436
-0.07734896 0.029799085 -0.106467776 -0.07199606 -0.039977953 0.0991973 0.038069718 -0.028572436
-0.0315797 -0.061130352 -0.09441392 -0.0053126947 0.11519844 -0.04331983 -0.08418812 -0.0995159
0.0016912274 0.012921716 -0.04631097 -0.10161181 0.029192269 -0.12380652 0.035783384 0.0719687
-0.02308386 -0.1092535 -0.08098477 -0.101491965 -0.06200143 0.005570148 0.13829927 0.0070088836
0.12017035 -0.07634939 0.0106089255 0.07577234 0.13255662 -0.10031797 0.040754884 -0.0703054
-0.09801258 -0.031340823 0.03685058 -0.027309326 -0.05627435 -0.062248416 0.13554926 -0.061869536
0.021906404 -0.009875117 -0.083880745 0.1618874 0.0028829167 -0.017539196 0.026703345 0.06309982
-0.018449027 -0.07139961 0.106292084 0.13544208 -0.14230219 -0.032535728 -0.08078584 -0.031739477
0.02291226 0.14167695 -0.13892443 0.0053647393 0.001095264 -0.05499963 -0.14080155 -0.11964748
0.011587076 -0.07759774 0.13695772 -0.10466641 0.11024004 0.052091524 0.021994935 0.013410604
-0.07817292 0.025888517 0.09839846 -0.08654996 -0.07411093 0.05915524 -0.052685514 0.041265536
0.11733601 0.14393051 -0.057974834 0.037837874 -0.037303884 0.0663974 0.0131012015 0.08032684
-0.10095127 -0.06829914 0.16158795 -0.10521862 0.13381624 0.033969153 0.11472054 0.12691921
-0.08667465 -0.07766281 -0.040852465 0.032401808 0.12097849 -0.13381284 -0.09474108 0.0155388415
0.10686693 0.049551263 0.05073474 -0.07134823 0.12334162 -0.003970131 -0.033904914 -0.013016825
0.08135275 -0.056008622 -0.070304506 -0.06420323 -0.052908015 0.091921285 -0.077474825 0.0983862
0.09952435 -0.04637263 0.04581236 -0.09701417 -0.068742186 0.091958776 -0.09718326 0.04825319
0.029339395 0.014538134 -0.016344747 -0.008022503 -0.101146184 0.10222592 0.060271297 0.123949856
0.042368818 -0.07937707 0.13832214 0.004031858 -0.019231932 0.114348866 -0.038121533 -0.0035511458

lstm.weight_hh_l0 f4 [256, 64]
00000000: 8a0e 0abe d8f6 993c fab4 70bd d758 ad3d
00000010: 92ef 96bd bcbc 0ebe 5d09 9e3d 3fc7 633d
00000020: 6ace d53d 9a79 d0bc 19e8 4abd 5c5a b9bd
00000030: daa0 0e3d b69e a23d f17a 22bd 8169 f4bc
00000040: a551 debc 32ba de3d 3ad4 71bb bfde ec3d
00000050: 927a 81bd 9475 99bd 88fc bc3d 35e7 41bd
00000060: 6f23 a03a 87ca 15bd 1e6b 063e ca4f b93d
00000070: 0356 19be 1d85 b63d 9ab2 1f3e 6707 403d
00000080: 89d5 703b d0fc 273d 805d fdbd b6e9 9b3d
00000090: 1f43 1c3d 0ed3 9f3d b929 71bc f558 edbc
000000a0: 9a0f 40bd 1221 55bd 387d 953d f701 babd
000000b0: 6b9f febd f016 36bd edc4 823d 4a29 7ebd
000000c0: 7b2c 953d a24b a1bc b9a7 833d d5e5 60bd
000000d0: d353 743d 0ad9 3b3d d62a 803d bc7b 7e3d
000000e0: e718 0bbe 8d63 c83c 9e72 1abd 9a09 42bc
000000f0: 5da1 103d 6228 fabc 6ada 253e 4902 f53c
00000100: dce4 88bd 0911 3a3d 7e99 8abd d786 e4bb
00000110: 7f18 363d 15f5 9abc fa95 31bd 8b60 013e
00000120: 6d93 88bb f987 8fbd 62fd c3bd 4b77 183d
00000130: 2d04 af3d 3d26 fa3c e164 063c 5975 9c3d
00000140: 39a3 9cbd 93af 77bc 3674 b7ba 02fe 4b3d
00000150: 28b8 b73c ed4a acbc 2f14 ebbc d375 adbd
00000160: d71a 313d 0ea3 84bd 4274 453d 6de1 f2bc
00000170: c53d c43d 1bd1 c03d 8ec0 e2bd d111 85bd
00000180: 3b9e e0bd 18e7 b23d 227e f7bd 8a02 a5ba
00000190: 71bd d23c bb2e 963c 46b5 193e a183 2e3d
000001a0: 3e76 cc3d 0426 afbc 8747 633d 6a33 c3bd
000001b0: 88ca 1cbd bf39 4f3d b058 91bd 1875 a4bd
000001c0: 354d 3e3d 43ce dcbd 89d3 8d3d c65e 0c3e
000001d0: bb8a d9bd a5a0 25be b8ad 1dbd e6ad 8dbc
000001e0: 4740 fa3b ea37 9ebd 52c7 cd3d 5262 22bc
000001f0: 887b 913d 29ad aa3d 2c4b 12bd 8b6b 993d
00000200: 4c00 ee3c 79e3 adbb ca01 a13b 5789 773d
00000210: b666 13be 56d5 00bd edfb 26bd 5f4c 1e3e
00000220: ddb8 593d b955 07bd 0c80 06be 8b09 22be
00000230: 6cd9 8abd f4e8 7cbd ff0c 14bd 4bff a93d
00000240: afa8 c0bd afa9 1c3e 4dc3 28bd 7667 5e3d
00000250: b06c a9bd 221a 55bd 3f50 63bd e723 dabc
00000260: 3f84 45bd f823 94bd 41da c23a fdf8 87bd
00000270: e544 aabd e357 e03d 360a 093e 5ee8 72bd
00000280: 3d19 00be 0f32 8fbb 4049 9f3c 56d8 2cbc
00000290: b902 9b3d bb57 1ebd 0faa 8ebd 1087 9b3d
000002a0: fd60 b73d 08c6 2b3c 06f4 303d af18 053d
000002b0: 997f 43bd 2dd5 c8bd ed0b 9dbd 56f4 39bd
000002c0: 2030 6b3d 936f e4bd 2a2b 4dbd 51df d33c
000002d0: 64d5 e83c 4b90 94bd 4aac aa3d b0ea 913d
000002e0: 8f81 72bd a434 f23d fceb 93bd 4216 883d
000002f0: dca0 3abd 0556 223e a841 613d 953f b83d
00000300: bc0b 71bd fb50 0e3e 9873 09bd 53ab 4dbe
00000310: 3bb1 8cbb c5a7 babd 6307 26bc 682e f33b
00000320: 8280 02be f85e 493d 38df 18be 2319 b4bd
00000330: 20ae 74bd 3621 9d3d 26c0 fabc ae8e 053e
00000340: 9ca1 063d 7c9b fbbc 43f6 853d 5b30 3b3e
00000350: 4ace 5dbd d0c9 1c3e 6f0a b2bd 5e1b 5ebd
00000360: 5b02 003d 87e5 30bc 2813 113e e6c9 88bd
00000370: a071 923c 6294 ef3d 96c5 d93c 6039 8cbd
00000380: 8881 f9bd 1f2b 21be 4fc5 02be e707 3e3d
00000390: 0d8f 443e 66b3 c1bd 3b6e 82bd 595d 75bd
000003a0: e37b fc3d 61a1 fe3d 14d8 243e c4e9 763b
000003b0: 05e6 7d3d aa0e 15bd 6371 fabc b37c cbbd
000003c0: 21e2 58bd e7ec 9fbc 3ed3 babd 675e a2bc
000003d0: 0856 03be 3af2 d7bd 1a49 363e 93de aebd
000003e0: 4a53 b3bd 0846 3abd 0509 453d eb61 57bd
000003f0: e99f 553d 27ee 013e dd86 6c3d fca1 a53c
-0.13482109 0.018794462 -0.058766343 0.084642105 -0.07369913 -0.13939184 0.0771663 0.055609938
0.10439761 -0.02544861 -0.04953775 -0.09050438 0.03482137 0.07940428 -0.039668027 -0.029835464
-0.02713854 0.10875358 -0.0036900179 0.11565923 -0.063222066 -0.074931294 0.09227854 -0.047339637
0.0012217591 -0.0365701 0.131268 0.09048422 -0.14974217 0.08912108 0.15595475 0.04688206
0.003674837 0.041012585 -0.12371349 0.07612936 0.03814995 0.07803927 -0.01471942 -0.028973082
-0.04688988 -0.05203349 0.07299274 -0.09082406 -0.1243275 -0.04445547 0.06385217 -0.062051095
0.072838746 -0.019689385 0.06428475 -0.054906685 0.059650254 0.04586128 0.0625817 0.06212972
-0.13583718 0.024461532 -0.037706964 -0.0118431095 0.035310138 -0.030536834 0.161966 0.029908316
-0.066842765 0.045426402 -0.067675576 -0.006974082 0.044456955 -0.018915692 -0.04335592 0.12634484
-0.004167965 -0.070083566 -0.09569813 0.03722314 0.08545718 0.030535812 0.008202762 0.0763957
-0.0764832 -0.015117544 -0.0013996426 0.049802788 0.02242668 -0.021031821 -0.028696148 -0.08469739
0.043238487 -0.06476413 0.048206575 -0.029648507 0.09582094 0.09414884 -0.11071883 -0.06497539
-0.1096768 0.08735484 -0.12084605 -0.0012589258 0.025725098 0.01833283 0.15010557 0.042606
0.099834904 -0.021380432 0.055488136 -0.09531291 -0.038279086 0.05059218 -0.07096994 -0.08030146
0.04646035 -0.10781529 0.06925113 0.13708028 -0.10622164 -0.16174562 -0.03849575 -0.017294835
0.007637057 -0.077255085 0.10047783 -0.009911137 0.0710364 0.08333809 -0.03571622 0.07491215
0.029052876 -0.005306658 0.0049135434 0.06043371 -0.1439465 -0.031453453 -0.0407676 0.15458821
0.053154815 -0.033040736 -0.13134784 -0.15823953 -0.06779751 -0.0617456 -0.036145207 0.083006464
-0.09407174 0.15299104 -0.04120188 0.054297887 -0.082726836 -0.052026875 -0.05549645 -0.026628448
-0.048221823 -0.07233423 0.001486607 -0.066392876 -0.08313922 0.10954263 0.13382801 -0.059303634
-0.12509628 -0.004369981 0.019444108 -0.010549625 0.07568879 -0.038657885 -0.0696603 0.075941205
0.08954046 0.010484226 0.04320147 0.032494243 -0.04772911 -0.09806285 -0.0766829 -0.045399033
0.057418942 -0.111540936 -0.050089993 0.025863321 0.028422065 -0.07254084 0.08333643 0.07124841
-0.059205588 0.11826447 -0.07222745 0.0664487 -0.045563564 0.15853126 0.054994255 0.08996502
-0.05884908 0.13898079 -0.033557504 -0.20084886 -0.0042935885 -0.09114031 -0.010133597 0.0074213035
-0.12744334 0.049162835 -0.14928901 -0.08793857 -0.05973637 0.0767235 -0.030609202 0.13042709
0.032868966 -0.03071379 0.06541111 0.18280165 -0.05415181 0.1531136 -0.08693396 -0.054225318
0.031252246 -0.010796911 0.14167464 -0.06679134 0.017876446 0.11698224 0.026583474 -0.06846881
-0.12182909 -0.15739106 -0.1277058 0.046394255 0.19195195 -0.09458046 -0.06368681 -0.059903476
0.12328317 0.12433124 0.16098052 0.0037675956 0.06198694 -0.036390938 -0.030571645 -0.09935894
-0.05295003 -0.019522144 -0.091223225 -0.019820405 -0.12825787 -0.10544248 0.17801324 -0.085385464
-0.087561205 -0.045476943 0.048104305 -0.052583616 0.052154455 0.12688504 0.057745803 0.020218842

lstm.bias_ih_l0 f4 [256]
00000000: 9519 b73d 285e 42bd ee51 b53d b5be b6bd
00000010: c71f 23bd 9c75 e0bd 4aa8 dc3d 1e52 b23d
00000020: d24f 133e 8d9a 3838 d818 473c 5aa1 b8bc
00000030: 7dca c93d b935 d7bd d337 cabd 8f91 35bd
00000040: 8a50 f13a 9ad5 c83d e2ac 3fbd 4ea2 553d
00000050: 15b6 a23d 7d50 023e 248f f23d f0d8 553d
00000060: 1c58 72bd eee4 1dbd 4a89 a23d 7beb d2bd
00000070: 1634 03bd 2604 74bd da8e c53d f0f1 af3c
00000080: e023 873d c907 943d e557 113e 7507 27bc
00000090: 39cc 283e ac64 b23c 1754 123e f9ed 853c
000000a0: 8ee0 f93d 3683 41bb 968c 65bd a905 8d3d
000000b0: 65cc f23d a1ee 5fbd b6bd 453a c72d e93c
000000c0: 186b a73d f027 793d 4ddd 0cbc f7b5 083e
000000d0: 6156 05bd 98e5 5b3d f1bc 143d ca0d 873d
000000e0: 8441 dd3d 8dac 01bd 9873 053e 8793 963d
000000f0: a7a3 4f3d dbe4 61bd d28d 223d 83fb 2a3e
00000100: 0ca4 3fbd 0d84 a0bd a3a7 233e e726 023e
00000110: d608 073e fde8 46bd fc14 1e3c 7bb1 87bd
00000120: d77b 8c3d 675f b43d c823 d83d 4227 b4bd
00000130: e7d5 ef3d 91a9 073d 479f 0c3e fef7 1f3d
00000140: 71e0 afbc 5176 1b3e 476a acbd 2c3e 7e3d
00000150: dd89 ef3c 009f 16bd f9db 083b dd81 4ebd
00000160: 45a5 963d 24ea d2bc 16e6 a8bd 6017 633c
00000170: 88ad db3d 985e cabd 394d 9fbd 8170 163e
00000180: 5a0a c93d c90d 003e 894d a03d f737 cb3c
00000190: a902 853d 1566 a83d 1ebb 14bd e5b5 30ba
000001a0: 3110 473c 37d4 173e bef2 0c3e 41e7 f43d
000001b0: 711f 543d 5f5a 1d3c 6bea 1b3e 6493 cc3d
000001c0: 7ac1 ee3c 0578 993d b5ff d53d a6eb 25bd
000001d0: ebf5 b73c 016f dc3d 3630 243e 7d8b 86bd
000001e0: 0ef3 733d 7511 683c fb4c 4f3d 4b09 213e
000001f0: 9015 16bd b00b 553d 8d53 563d d6d1 88bc
00000200: ca84 96bd f44a b63d 2dc6 4f3d 0384 513c
00000210: 3b36 bebc 9393 e6bd 3249 42bd 3aaf 983b
00000220: 21d2 373d ad2e 5b3d 0800 b0bd bf16 7b3d
00000230: f02d c53d 30dd b13c fa7e 7f3d b748 ccbd
00000240: bd37 293d 7e3f b13c 1ba7 ac3d 40d8 15bb
00000250: 0a26 443c f1b1 073e 37ab 12be 19ad cdbd
00000260: c6c0 703d 9713 c3bd 4da0 803c d19c ca3c
00000270: 49c1 e63d 3d22 f53c b805 28bc 7e43 223d
00000280: 6719 bfbd 8bb8 58bd 3377 5bbd 6390 d8bd
00000290: 3c7d 9d3c 727e f1bd 0e49 273c e04e f4bd
000002a0: 07eb e53d 60c1 a0bd 9dd0 a23d c54d 4b3c
000002b0: 5406 89bc 4db1 3b3d 2d33 c03d 9a20 273d
000002c0: 2cfb ddbd 8024 aabc a260 9dbc 907d f63d
000002d0: 8c55 abbd 526a f33d f9f7 113e b6df efbd
000002e0: 5dd8 a7bd 32fa 373d 9ee0 bfbd 656d 193c
000002f0: 060e 633d 4adf 4ebd d1cd cabd 0625 f63d
00000300: 27cb babd c346 d23b a3f4 653d bfc9 eb3c
00000310: 4a91 183e 8145 7abd 0a95 19bd e151 5e3c
00000320: 07ea 173e d328 a6ba 38ed cebc 4a2c 6abd
00000330: 0b5f 1b3d d5f2 96bd 6091 993d 58dc 893b
00000340: 9e63 003e 97e4 973d 9155 a33d ac01 493d
00000350: be4a 203e 918d 0e3d adf3 36bd 1959 f23d
00000360: f48a 173e 42ed 063e 0ade e23c 9664 2b3e
00000370: c794 fb3d 4b7f ae3d af0d 003e 01ab f23c
00000380: 5c36 843d f13b 223d c7fd 1c3e 5302 91bd
00000390: b98a b43d 6008 89bd fd22 363e 1f4d 693d
000003a0: 1b05 dd3d 78c3 c23d dfbc a0bd 94f4 2cbd
000003b0: 93ff f33d b3e2 78bc 5b16 283e ec81 9c3d
000003c0: bebe da3d 60ed c13d 7bce 1c3e 870f aa3d
000003d0: b3e2 653d d631 743d 860b 4dbd acd1 1dbd
000003e0: ffea d63c ac10 5e3d 1295 50bd 0719 95bd
000003f0: a598 203d 4ff4 963d 9c8e 403c 1f9f 293e
0.08940426 -0.047453076 0.088535175 -0.08923093 -0.039825227 -0.10959932 0.10774286 0.08707069
0.14385918 4.4012955e-05 0.012151919 -0.022537876 0.09853075 -0.10508294 -0.09873929 -0.04432827
0.0018410843 0.09806366 -0.046795733 0.05215674 0.07944886 0.12726016 0.11843708 0.05220884
-0.05916606 -0.038548402 0.07936342 -0.102988206 -0.032032095 -0.05957427 0.096463874 0.02147767
0.065986395 0.072280474 0.14193685 -0.010194649 0.16484155 0.02177652 0.1428989 0.016348826
0.122010335 -0.002952767 -0.056042276 0.06885845 0.118553914 -0.054670934 0.0007543223 0.028464211
0.081747234 0.060829103 -0.008597684 0.13350664 -0.03255308 0.053685755 0.036313 0.06594427
0.10803512 -0.031658698 0.13032377 0.07352357 0.05069318 -0.055149894 0.03968603 0.16697507
-0.046787307 -0.07837687 0.15981917 0.12710153 0.13186964 -0.04856204 0.009648558 -0.066256486
0.06859558 0.08807259 0.105537 -0.0879655 0.117107205 0.033120696 0.13732634 0.039054863
-0.021469327 0.15181853 -0.08418708 0.06207101 0.029240543 -0.036772728 0.0020883067 -0.050416816
0.073557414 -0.025746413 -0.082470104 0.0138605535 0.10726458 -0.098813236 -0.07778401 0.14691354
0.098164275 0.12505259 0.07827289 0.02480696 0.06494648 0.082225956 -0.03631126 -0.00067409716
0.012149856 0.14827047 0.13764474 0.11958171 0.051787797 0.009604066 0.15226142 0.0998905
0.029144991 0.07493595 0.10449163 -0.040507935 0.02245613 0.1076336 0.16034016 -0.06569574
0.059557967 0.014164318 0.050610524 0.15726201 -0.036641657 0.0520131 0.052325774 -0.01670162
-0.07349546 0.08901015 0.050726105 0.012787822 -0.023219218 -0.11258616 -0.047433086 0.0046595605
0.04487813 0.05351131 -0.08593756 0.06130099 0.096279025 0.021711916 0.062376954 -0.09974807
0.04131292 0.02163672 0.0843031 -0.002286449 0.01197196 0.13251473 -0.14323126 -0.100427814
0.058777593 -0.09525221 0.015701437 0.024732979 0.11267335 0.029923553 -0.01025527 0.039615147
-0.09331017 -0.05291037 -0.053580474 -0.105744146 0.019224755 -0.11791696 0.010210289 -0.11929107
0.112264685 -0.07849383 0.07949946 0.012408678 -0.01672665 0.045823384 0.09384761 0.040802576
-0.10838923 -0.020769358 -0.019211117 0.12035668 -0.08365926 0.11885513 0.1425475 -0.11712591
-0.08195565 0.04491634 -0.09369014 0.009364461 0.055433296 -0.050505914 -0.099025376 0.120187804
-0.091207795 0.006417127 0.056141507 0.028782723 0.14899173 -0.06110144 -0.03749565 0.013569326
0.14835368 -0.0012676961 -0.0252596 -0.057171144 0.037932437 -0.07370535 0.07498431 0.004207175
0.12538001 0.07416647 0.07975305 0.04907386 0.15653512 0.034802977 -0.04466598 0.118334
0.147991 0.13176444 0.027693767 0.16737589 0.122842364 0.08520373 0.1250522 0.029622557
0.06455681 0.039607946 0.15331183 -0.070805214 0.08815522 -0.066910505 0.17786784 0.056958314
0.107919894 0.09509939 -0.07848524 -0.042225435 0.11913981 -0.015190768 0.16414778 0.07641968
0.106809124 0.09469104 0.15313141 0.08303743 0.0561244 0.05961784 -0.050059818 -0.038530037
0.026235102 0.05421512 -0.050923415 -0.07280164 0.039208073 0.07370817 0.011752751 0.16564606

lstm.bias_hh_l0 f4 [256]
00000000: 85e6 983d 9e23 863d a464 90bd f67a 1e3e
00000010: d958 d33d ca19 f33d b0ac 503d 98f2 df3d
00000020: 7dc5 06bc a75f 093e 2c06 5c3d 8d31 6f3c
00000030: 5448 21bd 2f5e 09bd 92a5 983d 49ee 183e
00000040: 229f ce3d 224e 953d d351 b6bb 43cd f63d
00000050: 2778 813d f7eb 043e e095 de3d 1ed1 ee3d
00000060: ffed 4b3d c910 65bd 79f2 b23d 399a 013e
00000070: 4787 a03d c89c bcbd a36f 313c ec16 c53d
00000080: 4ff1 bbbd fc5b 6dbd b15b 233c 5599 a1bd
00000090: b7f3 023e 1ca5 2a3d 438e a23d 704c 843c
000000a0: 6e96 9a3d 10c7 803d fb9d 043e e9f1 983d
000000b0: 3ccd 713d 8bc3 82bb 30ce d3bc bb70 e53d
000000c0: f012 3fbd 1e89 4fbd bdcf c23d 0b86 593d
000000d0: 1e1e cd3c 14ee 5ebb 7941 233e 92d1 8c3d
000000e0: 20b7 b2bd 953d 34ba 1de0 e83d 9dac ddbb
000000f0: c88e 0e3d 1753 05bd 77cf 823d 9d7f 803d
00000100: 67b6 fbbc f141 95bd 188d 9cbd 078f e33c
00000110: 08d5 623c dfa3 013e 66be 7f3c e600 0d3e
00000120: 39a4 973c 72f3 a23d 593a 17bd d008 c03d
00000130: 78e9 0ebc 34f0 f7bc 4ba1 e03c 7ded 633d
00000140: 89dd c23d 485c 393e 05d7 f53d bca1 803d
00000150: f125 93ba accc 093e d367 96bd ec29 c93c
00000160: 2fb1 4b3d bf01 d1bc ef1b c6bb 950e 0a3e
00000170: 2eac fa3d 2b53 043e 6db5 c8bd 9c9e 8b3b
00000180: fcda d33d 6c00 40bc 391a 2a3d 9840 07bd
00000190: 648f 0c3e 276b e03d dadd fb3d dbe3 333c
000001a0: 58c6 12bc dc0b c73d 4213 aa3d f0c4 0d3e
000001b0: 95d7 643d 9f2f 043d 6ab8 3e3b 0722 123e
000001c0: 9122 bb3d 23f9 a6bd 28cd 883a cd9d 7bbd
000001d0: 4acc 6ebd 9dc5 a33d e5e3 22bd 9b1a df3d
000001e0: de0d 233e b82e c1bc 8d6a 863d aafa 983d
000001f0: 0347 933d d47a 073e 40d4 e63d 53f8 223e
00000200: dd66 453c 5368 e73b 834e 36bd 31cb 45bd
00000210: 53d2 63bd 85b3 9bbc 3353 0fbc 4f3a b93d
00000220: 5b8a 1abd 47b3 60bd 7634 2ebc 921f 703d
00000230: a0ce aebd 8702 a53d 4180 563d 7a70 4fbd
00000240: bbb0 17bd 2183 d43d 0414 38bd 4791 d03d
00000250: 7f8d d53c 24e2 b03c 49b9 a3bd 47ad 903d
00000260: 2c77 e43d f10e b53d 610a 1dbc 7b4b 453d
00000270: 71f8 d4bd 2ba3 c43c d1a2 d1bd 0e90 8c3d
00000280: e194 d5bd d901 5cbc be6b 893d 6cce 13be
00000290: dcde 9f3d ecb0 ad3d 83d7 9a3d a6c0 86bd
000002a0: 0736 063e b1b3 50bd dc2f f53d 7c2f b43c
000002b0: 42fd 22bd c706 da3c 17fe adbd 553b 96bd
000002c0: fb4a f4bc d9aa 933c e4c8 103c bc4c b23d
000002d0: 3e0e 05be 94c9 96bd 48cd 0b3d 5298 bb3d
000002e0: 3d47 07bc 7c94 6c3d 10c3 00be ebc8 9d3c
000002f0: 27a4 723d 56da 39bc a54a c53d cfc5 35bd
00000300: 1c13 b53d ced3 903d c4b4 5fbd e612 1ebd
00000310: 3c80 20bd ce0d 243e 276d 0e3d abcc 103e
00000320: a9ff 8dbc 02e4 823d c2a3 1d3e d522 063e
00000330: 4a39 adbc 1588 7e3b 39ab 703d c4cf d7bc
00000340: e81f 823d f300 123d 9ea0 fcbc 0a5d 2b3d
00000350: 9e4b 55bd dc8b 313e 2189 433d 9eac 383e
00000360: 3d07 e13c 25d5 a03d e0e5 d23c 3020 13bd
00000370: fce4 30bd 37ff fd3d 35e8 1fbd 3c64 3dbd
00000380: c548 af3c 331f d03d a7e5 ab3d bc9a aa3d
00000390: 5572 493d 69f3 21bd b015 0f3e 02e5 9e3d
000003a0: e5b4 f93d 33d0 713d 6a47 e0bb 22ca 213e
000003b0: e5de f33d 2cef b93d 7433 a23d f95b dd3d
000003c0: 019f 033d cca3 3a3d 839b 94bd cb56 053d
000003d0: 1e66 b93d 3ca9 f03d 696e 483d c1fb 3d3d
000003e0: 3ca4 d63d bc3b 63bc c69c 063e a3c4 80bc
000003f0: e613 863d 1713 253e 1971 103e fa48 6abd
0.07465843 0.06549762 -0.07050446 0.15476593 0.10319681 0.11870153 0.050945938 0.10934943
-0.008225796 0.13415395 0.053716823 0.014599216 -0.039375618 -0.033537086 0.07453455 0.14934649
0.10088946 0.07290293 -0.0055639534 0.12050869 0.06321745 0.12980638 0.1086843 0.1166098
0.049787518 -0.05592421 0.08737654 0.12656488 0.07838302 -0.09209591 0.010829839 0.096235126
-0.09176885 -0.05794905 0.009970591 -0.07890574 0.12788282 0.041661367 0.079372905 0.01614973
0.075482234 0.06287968 0.1295089 0.07468016 0.059033617 -0.0039905957 -0.025855154 0.11203142
-0.04664892 -0.050667875 0.09512279 0.05310635 0.025038775 -0.0034016417 0.15942945 0.0687591
-0.087263346 -0.00068756315 0.11370871 -0.006764962 0.034804136 -0.032549944 0.06387227 0.0627434
-0.030726625 -0.07287968 -0.07644099 0.027778162 0.013844736 0.12660168 0.015609359 0.13769874
0.018510925 0.0795659 -0.03692088 0.09376681 -0.0087226555 -0.030265905 0.02742066 0.05564641
0.09514911 0.18101609 0.12003902 0.062808484 -0.0011226517 0.13456982 -0.07344022 0.024556123
0.049729522 -0.025513528 -0.0060458104 0.13482125 0.12239872 0.12922351 -0.09800229 0.004260851
0.10344502 -0.011718851 0.041528914 -0.033020586 0.13726574 0.10957938 0.12298174 0.010979618
-0.008958422 0.09719059 0.083044544 0.13844657 0.055869658 0.032271978 0.0029101619 0.14270793
0.091374524 -0.08152988 0.0010437118 -0.061429787 -0.058300294 0.07996676 -0.03976812 0.108937465
0.15923259 -0.023581848 0.06563292 0.074696854 0.07191279 0.13230449 0.11270952 0.1591504
0.01204845 0.007061997 -0.04450847 -0.04828948 -0.055620503 -0.0190065 -0.008747864 0.090443246
-0.037729602 -0.054858472 -0.010632625 0.058623858 -0.08535504 0.08057123 0.052368406 -0.050644375
-0.037033778 0.10376573 -0.044940963 0.101839595 0.026068447 0.021592207 -0.07994325 0.070643
0.11155543 0.088407405 -0.009584994 0.048167687 -0.10398949 0.024003586 -0.10236133 0.06863414
-0.10428787 -0.013428175 0.06710003 -0.14434212 0.07806179 0.08481011 0.07560637 -0.065797135
0.13106547 -0.050952617 0.11972019 0.021995299 -0.039792307 0.02661456 -0.084957294 -0.073355354
-0.02982091 0.018025802 0.008836959 0.08706042 -0.12993714 -0.07362667 0.03413132 0.09159912
-0.008256731 0.057758793 -0.1257441 0.019260844 0.05923858 -0.011343559 0.09633378 -0.044378098
0.088415354 0.070716485 -0.05461575 -0.03859224 -0.039184794 0.16020891 0.034772065 0.14140575
-0.017333822 0.06391145 0.153945 0.13099225 -0.021145482 0.0038838435 0.05875704 -0.026344188
0.06353742 0.035645436 -0.030838307 0.041836776 -0.052074067 0.17338508 0.0477382 0.18034598
0.027469272 0.07853154 0.025744379 -0.03591937 -0.043187127 0.12402194 -0.03903981 -0.04623817
0.021397004 0.10162201 0.08393412 0.083302945 0.0491813 -0.039538775 0.13973117 0.077585235
0.12192706 0.059036445 -0.0068444507 0.15799764 0.11907748 0.090788215 0.0791997 0.10808558
0.03213406 0.045566365 -0.07256224 0.032553475 0.090526804 0.11751029 0.04893342 0.04638267
0.10480544 -0.013869222 0.13145742 -0.015718764 0.06546764 0.16120563 0.14105643 -0.057198502

fc1.weight f4 [64, 64]
00000000: 5839 083d 1a38 c0bd a1df 04be 3983 10be
00000010: 56d2 bdbd 6534 12be 10c7 ddbd 9d1f 133e
00000020: cb5a 36be 270f f8bd c995 5cbd 7ec1 c0bd
00000030: 45c8 3e3d 81d3 11bd a3b8 ca3d f3a4 ad3d
00000040: 23bf ef3c 654c c43d 82e0 373e 0585 403e
00000050: 0362 e9bc f4b3 c5bd 85b1 35bd 8c3e d63d
00000060: 5dac 1fbd a38f 783d 0483 c83d 6e6f 74bd
00000070: 2df6 0cbe ba07 e53d e9ef 8c3d ca7e 363e
00000080: 6af1 f43c cc0e 27bc 7024 01be 616e 82bd
00000090: 6f0a 953d fea2 07be af58 823d c597 0f3e
000000a0: d818 813d d644 633d 2333 b3bd 9a90 863d
000000b0: 8a44 933c 40e2 1e3d 86a4 5a3c e374 54bd
000000c0: 69f7 dbbd bb23 ddbd 8d41 e0bb e306 70bd
000000d0: bfd1 99bd 0c02 b03d d9b0 163e 95b1 ebbc
000000e0: cb9a 713d 40a7 c03d c2c7 2abe f9bf 0fbe
000000f0: c9c7 0ebd 8218 303d 85f2 293e 0a01 b33c
00000100: 5df1 293d 90fb b6bc bcb6 893d b7b3 93bd
00000110: a960 bebd 42e1 b3bd 4e2b 72bd 14bd 33bd
00000120: e05c 57bd 51b1 b83d 3ae6 b13c c6b1 a73d
00000130: b2b5 0a3d 3b80 dc3b 24bf c2bd e2ff 943d
00000140: a092 89bd 50f5 55bd 0bfb bd3c 1ac0 cebd
00000150: ad9b 85bd d7c5 d33d e528 d2bc a179 1b3d
00000160: 6b7e aa3a bc96 e83d 43a1 fabd 8283 babb
00000170: 3693 f13d 9c75 b83d 895f 63bc f25d 863d
00000180: 3bfa 063e 960a 203d 9ef9 f43d f7dc c33d
00000190: e1c3 f1bd 4b5f c0bd d9ac d93d 86ca 213d
000001a0: 96e7 dd3d a07b 69bc 332a b1bc d7ee 7cbd
000001b0: 8a92 22bd 55bc bb3d 3924 f73d 740a e13d
000001c0: af62 8a3d e9c5 21bd cee8 78bd 1b3c 103d
000001d0: 90ba 97bd b003 9abd 1b63 2f3d c908 29bd
000001e0: a7f9 8f3d 8b35 763d 0752 d73d 2a21 903d
000001f0: ae24 c5bd adf5 3b3d f080 b33d ea4b cebd
00000200: ae70 9a3d 58ce faba 31d6 04be 95ad 9c3d
00000210: 0c97 33bd 0780 0cbe 3518 2d3e f4a3 8abc
00000220: 0dec debc 9f02 e6bd d17f e6bd 29ef e43c
00000230: a74c 65bd 449e 20bd 90cb ebbd e967 86bc
00000240: c53c aebd 56c7 95bd c2a3 47be 956a 1ebe
00000250: fcef 6d3c 243f 69bd d7f5 3cbc 0ba1 03be
00000260: d03d 34bd 752f 193d 5b83 27bd 3cf8 163d
00000270: c98c 9fbd 8f43 e0bd 09c4 69bd 2099 1d3d
00000280: dfc9 51bc 025d c33d edf3 3bba b074 d03d
00000290: 7199 8fbd 50ca 9cbd 1a58 82bd 333b ecbc
000002a0: 04d5 3d3d e490 6ebd 1a34 52bd 2f80 8f3d
000002b0: fa4f a33d 4bd5 2cbd 8999 093e 20ff fdbd
000002c0: b349 0d3e de59 0ebd dcd1 55bb 2c38 f6bd
000002d0: 7aa0 a93d 0868 3739 ac21 d0bd 9d83 33bd
000002e0: a868 fabd cdbc 1a3c 42e4 143d 3124 c43c
000002f0: 2fab a33d fcba b03d e8c8 89bd 7531 f73a
00000300: 6b6c e0bd 944e 92bd 824e 873d 6f9a b7bd
00000310: eb5c 68bd a243 96bd 8d93 1d3b 6fd9 e8bd
00000320: 7fbd 02bd dad5 dfbd 3515 f93d dbf5 ca3d
00000330: 3691 ca3d b24e f0bb 63a8 d9bd fb62 d9bd
00000340: b5b0 a1bc 7aba 3abd 4a64 963c d6c2 f23d
00000350: 9409 fabd fa0d a3bc cabc d93d 67d2 d6bd
00000360: 89d5 703d bf59 1f3b 2fe6 343d 27ab 9abc
00000370: 4bd3 96bd af25 efbd 2dda 913d b84e d4bd
00000380: 7913 e4bd 78e0 9abd 5742 20bc f781 9e3c
00000390: 59ee 673c d44e a9bd 4d42 e4bd 1171 f0bc
000003a0: 004b f0bd cd9f 383d 64ab 1f3d 9dd7 933d
000003b0: 499c 6b3c 8b4a 983d e17e 70bd 60c4 a23d
000003c0: 6694 e93d 27a0 603d c6b4 a83d 1521 a6bd
000003d0: 3de3 0a3c 2426 e7bc fb3a 6f3c 6b94 823d
000003e0: 48c3 cebd 44fc bdbd 197d 92bd 7e22 603d
000003f0: 3d5a ad3c dca0 cb3d 33e0 213d 5755 063c
0.033257812 -0.093857005 -0.12975933 -0.14112557 -0.09268634 -0.142778 -0.10828984 0.14367528
-0.17808072 -0.12112265 -0.053853784 -0.09411906 0.04657771 -0.035602096 0.09898498 0.08478727
0.029265946 0.095848836 0.17956737 0.18800743 -0.028489118 -0.09653464 -0.04435875 0.104611486
-0.038982738 0.060683858 0.09790614 -0.05967658 -0.13765784 0.11183114 0.06881697 0.17821804
0.029900271 -0.010196399 -0.12611556 -0.06368709 0.07277381 -0.1324577 0.06364571 0.14022739
0.06303567 0.05548557 -0.08749988 0.06570549 0.017977018 0.038789988 0.0133448895 -0.051869284
-0.10740549 -0.10797831 -0.0068437518 -0.058600318 -0.07510709 0.085941404 0.147159 -0.028771201
0.058985513 0.094069004 -0.16677764 -0.14038076 -0.0348585 0.042992122 0.1659642 0.021851081
0.041489948 -0.022336751 0.06724307 -0.07212012 -0.0929578 -0.08783199 -0.05912333 -0.04388149
-0.052578807 0.090181954 0.021716226 0.081882045 0.033864684 0.0067291535 -0.095091134 0.07275368
-0.067174196 -0.0522359 0.023190996 -0.10095234 -0.065238334 0.10340469 -0.025654266 0.03795779
0.0013007646 0.11356875 -0.122377895 -0.0056919465 0.117956564 0.09006807 -0.013877758 0.065608874
0.13181393 0.039072596 0.11961673 0.0956363 -0.11804939 -0.09393176 0.10628671 0.039499782
0.10835187 -0.014250666 -0.021626567 -0.061751213 -0.03969053 0.09166781 0.12067456 0.10988322
0.06757104 -0.039495382 -0.060768895 0.03521357 -0.07408631 -0.075202346 0.042819124 -0.041268144
0.07030039 0.060109656 0.10513692 0.070375755 -0.09626137 0.04588859 0.08764827 -0.10073073
0.07541023 -0.0019134982 -0.12972333 0.07650296 -0.04384522 -0.13720714 0.16903765 -0.016923882
-0.027212167 -0.11230969 -0.11254848 0.027946072 -0.055981304 -0.039213434 -0.11513436 -0.01640697
-0.085076846 -0.07313411 -0.19496062 -0.15470345 0.014522549 -0.05694498 -0.011533222 -0.12854402
-0.04400426 0.037398774 -0.040896755 0.03685783 -0.077905245 -0.10950386 -0.05707172 0.03847611
-0.0128044775 0.09539224 -0.00071698317 0.101785064 -0.070116885 -0.076557755 -0.0636446 -0.028836822
0.046345726 -0.058243647 -0.05131922 0.07006871 0.07974239 -0.0421956 0.13437475 -0.12402177
0.13797645 -0.034753673 -0.0032626307 -0.12022433 0.082825616 0.00017490995 -0.101626724 -0.043826688
-0.12226993 0.009444428 0.036350496 0.023943039 0.07991635 0.086294144 -0.06727773 0.0018859344
-0.10958179 -0.07143894 0.06606771 -0.08965003 -0.05672924 -0.07337119 0.0024044246 -0.11369597
-0.031919 -0.10929461 0.12162248 0.099101745 0.09890978 -0.0073336 -0.1062782 -0.10614582
-0.01973758 -0.045587994 0.018358368 0.11853568 -0.12208858 -0.019904125 0.10631712 -0.1048935
0.058797393 0.0024314967 0.044164833 -0.01888044 -0.0736452 -0.116771095 0.07121692 -0.10366577
-0.111365266 -0.07562345 -0.009781442 0.019349081 0.014155948 -0.082669884 -0.11145458 -0.02935079
-0.11733055 0.045074273 0.03898181 0.07218859 0.014380523 0.07436093 -0.05871475 0.07947612
0.11405258 0.054840233 0.08237605 -0.08111779 0.008477029 -0.028216429 0.014601464 0.06375965
-0.10095841 -0.092766315 -0.07152767 0.054720394 0.021161193 0.09942791 0.039520454 0.008199058

fc1.bias f4 [64]
00000000: d2ff 423d 6d8f f13c a29b c13d c498 debc
00000010: 3cad 9ebc 9eff d83d 25cf f1bb 23be ac3d
00000020: 8458 773d 5a6a e4bb 0210 053e 057e 0f3e
00000030: d784 c33c 0ec0 8ebd c16f 113e 21c3 d73c
00000040: 277e 9bbd 243e 9eba 1543 a6bc 0037 da3d
00000050: 1550 023e c542 aebd 9219 b1bc 060d 9d3d
00000060: 3b4d 363d bd55 e73d 543a cd3d 2555 863d
00000070: cd7a 6fbd 3a3e bab9 a8bb ce3c 4618 3abb
00000080: 4148 9f3d 86c6 82bd 8445 f23d dc62 edbd
00000090: efe8 4b3c 313d ad3c 1623 a63b 1095 dfbd
000000a0: 9ed8 0dbd f1ed 6cbd f9d0 bb3d 57d8 81bd
000000b0: 9d68 003e e6f7 da3d d958 163d 04ad 1a3e
000000c0: 8046 3e3d 4108 a83d f53b e73d 2478 073e
000000d0: 706c fb3c 4cab 843d b313 2ebd 97f5 a63c
000000e0: bae3 a83d 1a6c 82bc 2af9 cb3d fa11 d2bc
000000f0: 8863 c33d 5f66 5f3d c8c1 debc fb6a dd3d
0.04760725 0.029487336 0.09453513 -0.027172454 -0.019369714 0.1059563 -0.00737943 0.08434703
0.06038715 -0.006970686 0.12994388 0.14012916 0.023867054 -0.06970225 0.14202787 0.026338162
-0.07592421 -0.0012072963 -0.02029566 0.10655022 0.12725861 -0.08508829 -0.021618638 0.076685
0.044507246 0.1129565 0.10020891 0.06559209 -0.05846672 -0.00035523047 0.025235966 -0.0028395816
0.07777453 -0.063855216 0.11829665 -0.115911216 0.012445672 0.021147342 0.0050701005 -0.10917103
-0.03463041 -0.057844106 0.09170718 -0.06340092 0.12539907 0.10691814 0.036705825 0.15105063
0.046453953 0.08204699 0.11290733 0.13229424 0.030691355 0.06477985 -0.042499255 0.020380778
0.082465604 -0.015920687 0.09959634 -0.025643338 0.095404685 0.054540988 -0.027192011 0.108114205

fc3.weight f4 [5, 64]
00000000: 5b49 033d 819a 863c 66ff fd3b b5e9 9cbc
00000010: dde7 ab3d c58c f13d 3692 513e 3155 7a3d
00000020: b588 d4bd c018 47bd 476d 9abc f417 e83c
00000030: 2c6f 333e 1c9f 2fbd 72fd 413e 8806 81bd
00000040: 8ecd 37be 3c25 2ebe f214 3f3e a095 153e
00000050: f97b a83d aa1c 303e cb40 78be 852c 183e
00000060: f12b b83d b19f 10bd 4114 b53d 290e 5cbc
00000070: 9904 49be 7676 20be 185d 0fbe 4850 503d
00000080: 4d80 623c 756a 75bd 8cc2 ff3b 0677 93bd
00000090: e17b 593d 7c18 343e 8e21 8d3d 80b2 c63a
000000a0: 5b15 99bd 7b8e 04be c4a9 d6bd 2300 283d
000000b0: 1aff da3d 2b84 3bbd 7450 dabd 1c49 0e3b
000000c0: 28d8 2f3e 07ea 5dbd 1482 a13b 880d 59bd
000000d0: 1c06 173e 82e6 12be 6479 473e 5b59 2f3e
000000e0: d325 0d3e fee5 eabc 29a3 7bbc 87a1 3f3d
000000f0: 160b 793d 08af aa3c a219 dbbc 4da3 833d
00000100: 120a 31be 3384 833d 49ba 103e b6ad 50bd
00000110: c320 cbbd 06ce 013c 1abd 15be f8ee ce3d
00000120: 38d4 c5bc 1f5c 993c 62d5 2a3d e391 05be
00000130: 8266 5abe 58c5 bd3d 0a44 74bd 860c 8e3c
00000140: a937 013e 00a3 963d 2876 07be 4f6d 01be
00000150: adb1 853d 1c08 0cbd 3c0c b73d 6a3f 5cbe
00000160: f616 41be 5559 2dbe 23f6 8ebd 6a5d ebbd
00000170: 6926 953d 4bda 7cbb 7b1c f43d 97de 08be
00000180: 0485 07bd 31ab 21bd e65b a2bd f060 d33d
00000190: ef97 74bd 399d 543d a715 013e 8c37 dcbd
000001a0: dd2d b1bd e97b 6ebc 9145 073e a054 4bbe
000001b0: 9572 9dbc f151 f03c f417 ab3d 4af0 42be
000001c0: 7a43 3abd 853d a33d 996e cebd 3f91 fabc
000001d0: dcc5 aebd 199e 8d3d 6cee 40be 2d75 2ebe
000001e0: 851e 89bb fa5c 2f3e b631 bfbc b95c 8f3d
000001f0: b8aa bcbd a98e d4bc f6e5 be3d 74ad 653d
00000200: 81b1 0fbe e23b bb3c 764c 1abc 4ee2 d3bd
00000210: 1cc9 f2bc 4159 a7bd 0e39 00bc b7b3 43bd
00000220: a3d6 45be d9ac 453e d660 4a3e d05b e53d
00000230: 9ef8 c1bd 1285 a4bd d07b a4bd 9c1c 13be
00000240: 31af 85bd 7ff1 6fbd ef07 55bd 9808 5ebe
00000250: 3dbc 3cbe 55f3 27be 2221 21be 60bb 06be
00000260: 88d6 b1bd 2ee4 403d a54a 6abd 118a 6c3e
00000270: 8326 d1bc 22f3 9fbd 5261 cf3d d699 ce3c
00000280: b597 28be 5554 253e f3a5 453e 4072 993d
00000290: 68a1 32bd eeb4 b8bd 2283 553c 00b4 11ba
000002a0: 2a68 e53d 9183 ef3d 357b 69bd 7f3e 3c3e
000002b0: 29db a0bd 88ce c13d 8076 3dbd f30f 0ebe
000002c0: 316e 633e 6f9b 88bd 2f84 2abe 7ed2 21be
000002d0: ceac 0c3e 32b0 2ebe b6c7 13be 96f3 a43d
000002e0: 03b2 6d3e 45f8 29be 6cb2 8f3d 8d8e 5c3b
000002f0: a4c4 303e e118 d6bd a496 2dbe 8fd0 0dbd
00000300: 2403 50bc d75e e53d 48da 6d3d debe 12bd
00000310: 2e54 54be 63a2 f0bd 228d 5bbe e7f0 933c
00000320: 275f ccbd c52e aabc b6f0 21be 9403 2fbd
00000330: 9b98 3dbe c824 d83d d387 4fbd 1250 c1bc
00000340: 59bf f63d b68d c23d de6c 31be 85f8 e3bc
00000350: c47f afbd d35f afbd 4082 4d3d d09b ed3a
00000360: ae68 09be 3b10 04be 567d ecbd 3b2b 06bd
00000370: 216a 1c3d c4c4 333e c4ca 3b3d 0fc2 76bd
00000380: f778 1dbe 6dc6 693d 52a1 163d 2a2f 93bd
00000390: 50d4 bdbd b786 0bbe 094d 6fbd 6403 cb3d
000003a0: fe10 07bb 6b49 bd3d a457 0f3e 009c 59be
000003b0: 8cce a73d 1a33 163c 5367 013e 1845 97bd
000003c0: d6cb 703c 44f5 933c ab5e 1bbe 172a 8c3d
000003d0: 98bb c7bd c5c3 5d3d 0cd9 eebd 0d67 1bbe
000003e0: 7263 7dbd 28c1 863d 1a99 00bc d624 b3bd
000003f0: ad25 44be 1ca2 77bd 84df 373d eb7f 053e
0.03205238 0.016431095 0.007751393 -0.019154409 0.08393834 0.11794428 0.20465931 0.0611164
-0.10377637 -0.048607588 -0.018850936 0.028331734 0.17522877 -0.042876348 0.18944338 -0.06300074
-0.17949507 -0.17006391 0.18660334 0.14607859 0.08226771 0.17198434 -0.24243467 0.14860733
0.08992756 -0.035308544 0.08841754 -0.01343111 -0.1963066 -0.1567019 -0.14000356 0.050857812
0.013824535 -0.05991598 0.007805174 -0.07200436 0.053096656 0.17587465 0.06891166 0.0015159398
-0.07474776 -0.12944977 -0.10481599 0.041015755 0.10693188 -0.045780342 -0.106598765 0.0021711057
0.17172301 -0.054178264 0.0049288366 -0.05299142 0.14748424 -0.14345744 0.194799 0.1712393
0.1378396 -0.028674122 -0.015358725 0.046784904 0.060801588 0.020835415 -0.026745621 0.064276315
-0.17288998 0.064216994 0.14133562 -0.050946914 -0.09918358 0.007922655 -0.14622918 0.101041734
-0.024149045 0.018720685 0.041707404 -0.13043933 -0.21328166 0.09266156 -0.0596352 0.017339956
0.12618889 0.073553085 -0.13228667 -0.12639354 0.065280296 -0.03418742 0.089378804 -0.21508566
-0.18856415 -0.16928609 -0.069805406 -0.11492427 0.07282717 -0.0038582261 0.11919495 -0.13366161
-0.033085838 -0.0394699 -0.079276845 0.10321224 -0.059715208 0.05190775 0.12605916 -0.10752782
-0.08651326 -0.01455591 0.13210131 -0.198565 -0.019219676 0.029335948 0.08354178 -0.19036976
-0.045474507 0.07970718 -0.100796886 -0.030586837 -0.085338324 0.0691492 -0.1884095 -0.17036887
-0.0041845464 0.17125311 -0.023339134 0.07000107 -0.092122495 -0.025946932 0.09321205 0.05607362
-0.14032556 0.022855703 -0.009417644 -0.103458986 -0.029636912 -0.08171321 -0.007826103 -0.04777881
-0.19320159 0.19304217 0.19763502 0.111991525 -0.09471248 -0.08033194 -0.08031428 -0.14366382
-0.06527556 -0.058579918 -0.05200952 -0.21682966 -0.18431182 -0.16401418 -0.15735295 -0.13157415
-0.08683497 0.04709261 -0.057200093 0.23099543 -0.02553106 -0.07810046 0.10125984 0.025219839
-0.16464122 0.16145451 0.19301586 0.074924946 -0.04361096 -0.090188846 0.013031753 -0.0005558133
0.11201508 0.11695016 -0.057002265 0.18383215 -0.078543015 0.09463221 -0.04625559 -0.13873272
0.22210003 -0.066702716 -0.16651987 -0.15802953 0.13737795 -0.170594 -0.14431652 0.08054273
0.23212437 -0.16598614 0.07016453 0.0033654303 0.17262512 -0.10453964 -0.16951996 -0.034622725
-0.012696061 0.1119973 0.058069497 -0.035826556 -0.20735237 -0.11749723 -0.21440557 0.018059207
-0.09979086 -0.020774255 -0.1581448 -0.04272802 -0.18515246 0.105538905 -0.05066664 -0.02359775
0.120482154 0.094996855 -0.17326686 -0.027828464 -0.08569291 -0.08563199 0.050173044 0.0018128101
-0.13418838 -0.12896816 -0.115473434 -0.03275607 0.03818715 0.17555529 0.04584767 -0.060243662
-0.15378176 0.057074 0.03677494 -0.0718673 -0.09269011 -0.13625608 -0.058423076 0.09912756
-0.0020609493 0.09242519 0.13998276 -0.21250916 0.081936926 0.009167457 0.12637071 -0.073862255
0.014697036 0.018061288 -0.15172832 0.068439655 -0.097525775 0.05414178 -0.11662492 -0.1517603
-0.061862417 0.065798104 -0.007849002 -0.0874726 -0.19154997 -0.060457334 0.044890895 0.13037078

fc3.bias f4 [5]
00000000: 410c 083d d58f c0bd 29fd de3d 400a 5d3d
00000010: 4e66 d23d
0.03321481 -0.09402434 0.1088813 0.053964853 0.10273419
