model/save/v8.2_2022-09-01_17-45/model.pt (torch, 286235 bytes, 8 tensors)

lstm.weight_ih_l0 f4 [128, 512]
00000000: 5c66 c13e 772e 37be 050f 3dbe ffe5 fb3d
00000010: a088 c53d 32c1 4ebc 06bd 00bd 4836 823e
00000020: c4e8 fcbc c06a ecbc 7388 17bd f420 443e
00000030: eb0a d4bb 8075 95bd 068d 82bd 5867 673e
00000040: f6fb df3d f222 da3d 83cc ab3c c32b 9a3d
00000050: a4ce 183e bbcc 943e bf1c 333e 3a11 9a3d
00000060: 15b8 8cbd 23ae a73c 19f1 853e 53ff c53d
00000070: 3ac1 a9bd d6dc 323e f043 5ebc 1a68 f53d
00000080: b8d3 c4bd af15 28be 6b0c cebc 1bd5 c8bd
00000090: b065 343d 039a 02be 9647 14be 8fae efbd
000000a0: ffc4 4fbe 3bf0 96bd 2d6d 123e ab1f 9a3d
000000b0: ef23 5f3d 443a 8fbd 520d 823d f49f 023e
000000c0: 2ebc b7bd efd5 143e cd7e fa3d 3622 453e
000000d0: 06f0 a9bc c148 d7bd 28c1 7abd 98a7 6e3e
000000e0: 4c5d f1bc 08ff 09be d18c 273e c810 0bbd
000000f0: 6898 263d 26ec 4fbd 6524 c83d c00f d23d
00000100: 0e7f 6f3d 02b0 34be 8a0b a13e a869 00be
00000110: be25 d6bd 0831 083e bfca 6d3d e415 b03d
00000120: 0b8b 7b3e 1132 383d 3114 1b3e e857 b33d
00000130: 7688 a33d 959b bebd c278 f13c 4542 673e
00000140: 4b31 653e fe22 713e 7663 43be 67ba 2f3e
00000150: fe35 753e 5aa0 803e 80cf ed3d 8d0d 673d
00000160: 363d 3c3e 4273 383e 6f15 0fbe 8a7c a33d
00000170: e35b b7bd 14bd 973c 2a77 0b3e 282e 11be
00000180: 30d5 31bd bc8a 9e3b 7aa2 843e 0589 02be
00000190: 0655 b83d 449b 0d3e 7bfb b83d 598f a53d
000001a0: 09ca 10be 4ebe 563c ca11 d33d 71a4 5fbe
000001b0: 87b2 e43b 5d8d 533e 7c3e 953d 4e42 b7bd
000001c0: 60ef aabd 038a 8dbd a22f 1ebe c52c 2d3c
000001d0: a134 0e3e a52f aabd a772 90bd a522 57be
000001e0: 0438 863d 1f1f 97bd 4dc7 753d 8af0 7dbd
000001f0: dc19 ef3d 47f7 34be 7353 fe3d adfa 313d
00000200: 0174 8d3d 6015 b1bd 50e9 bd3d 62d8 4bbd
00000210: 5856 943c 5e26 a63d 98de 003e bb87 bc3d
00000220: 5213 823e c964 f7bd 4616 523d 460a 183e
00000230: 7c91 493e d7a2 4abd 759d a73d 83fb f7bd
00000240: 698f 1abe ceda 4f3b 23a5 803e 3e10 85bd
00000250: 252d c0bd ba11 e7bd b489 d73d 0b15 02be
00000260: 66cd d0bb 9780 d83d c37e 38be 0196 973e
00000270: 7bb9 003e 9956 8aba ade6 333e fc92 c63d
00000280: 2996 5abd 98f3 56bd cfa0 5b3e b53c 393e
00000290: 1eb1 403d 00d3 04be d753 6dbc ef62 063d
000002a0: 7ab7 953c 5da1 eb3d 6404 06bd 9a65 cc3d
000002b0: 5819 fb3c 2cd9 a63c 58a9 19be a615 e4bd
000002c0: 02e8 e33d a8f0 8cbc 2c62 3c3e c500 43be
000002d0: 2048 6f3e 227e 643e ae4e 4c3d 2379 6cbc
000002e0: 5fe1 7ebd be63 c13d 1ff6 223e 5e7c 5cbd
000002f0: 0c32 0fbd 18a0 0d3b f375 76bd a89d cc3d
00000300: 9b8f 6b3e b9e8 a73e dce8 e7bd 0f8e 5d3c
00000310: c81f 18bc 666a 113d 03c8 9a3d abf4 3a3d
00000320: f2d3 c9bd eb49 4abe ecc6 a33d 9ef3 17be
00000330: 1fe1 3c3e a20b dd3c 5525 f33d 5f2c 9c3d
00000340: 8344 37bd 370f c4bd 8618 053d 1164 293e
00000350: 8959 403e f264 a6bd d1a7 b33c 73d0 a3bd
00000360: 48dd 413e 863e 403d c1fe 213e 8771 0cbd
00000370: 185d 4a3e 704f bebb 2e72 8f3d 5fa9 6e3d
00000380: 6822 7d3e 9936 9e3b f6f2 61bd 58e1 b8bd
00000390: 711f c73d 3641 d53d de4e 09be c47b 383e
000003a0: 6ec8 4c3e 6414 413d d251 a63d 2d4a 8cbd
000003b0: 6948 23be 86cc 0d3e 098c c0bd 658f d33d
000003c0: 510e db3c a4d1 b73d 6257 02bd e576 f93c
000003d0: 83ab 0abe 2df3 a33d 56ce e13d af68 0c3d
000003e0: 3631 113c 0b23 d6bd 3c54 963d efdd 093d
000003f0: 6398 6fbd baa3 d93d 2799 2bbd f3f7 033c
0.37773407 -0.17888819 -0.18462761 0.12299728 0.096452 -0.012619304 -0.031430267 0.25432038
-0.03087271 -0.028859496 -0.036995362 0.19153196 -0.006471028 -0.07297802 -0.06374554 0.22598016
0.109367296 0.106511965 0.020971542 0.07527878 0.14922577 0.29062447 0.17491435 0.07522817
-0.06871048 0.020468777 0.26160505 0.0966784 -0.08288808 0.17467055 -0.013566002 0.119827464
-0.09610695 -0.16414522 -0.025152406 -0.09806272 0.04404229 -0.12754063 -0.14480433 -0.11703216
-0.20289992 -0.07370039 0.1429946 0.075255714 0.05447763 -0.06993535 0.06350197 0.1275633
-0.08971439 0.14534734 0.122312166 0.19251332 -0.020744335 -0.105119236 -0.061219364 0.2330612
-0.029463433 -0.13476193 0.16362311 -0.03395155 0.04067269 -0.050762318 0.09772567 0.1025691
0.05847078 -0.17645267 0.31454116 -0.12540305 -0.104564175 0.13299954 0.058054682 0.08597925
0.2456476 0.044969622 0.15144421 0.08757001 0.07985012 -0.09307019 0.029476527 0.22583874
0.22382085 0.23548505 -0.1908091 0.1716095 0.23946378 0.2512234 0.11611843 0.056409407
0.18382725 0.18012717 -0.1397302 0.07982738 -0.08953073 0.018522777 0.13619676 -0.14177763
-0.043416202 0.004838316 0.2590521 -0.12747581 0.09000592 0.1382876 0.09032341 0.08083982
-0.1413957 0.013106896 0.10306127 -0.21840073 0.00697929 0.20659395 0.072873086 -0.089481935
-0.083464384 -0.06911089 -0.15447858 0.010569756 0.13887264 -0.08309869 -0.07053118 -0.2100931
0.06553653 -0.07378983 0.06000452 -0.061996974 0.11674854 -0.17672454 0.124182604 0.043451954
0.069068916 -0.08646655 0.092730165 -0.049766906 0.018107578 0.08112787 0.12584913 0.09205576
0.25405365 -0.1207977 0.051290773 0.14847669 0.19684404 -0.049471702 0.081843294 -0.12108519
-0.15093769 0.003171611 0.2512599 -0.064972386 -0.09383611 -0.11282678 0.10524312 -0.1270334
-0.0063721417 0.105714016 -0.18017106 0.2960663 0.12570755 -0.0010554373 0.17568465 0.09696004
-0.05336586 -0.052478403 0.21448062 0.18089564 0.047043912 -0.12971115 -0.014485321 0.032809194
0.018275965 0.11505387 -0.03271903 0.099803165 0.030651733 0.020367227 -0.15006006 -0.111369416
0.11128236 -0.017204598 0.18396825 -0.19043262 0.23367357 0.22313741 0.049879722 -0.014433178
-0.06222665 0.094428524 0.159142 -0.053829543 -0.034959838 0.0021610316 -0.06017108 0.09991008
0.23004 0.3279474 -0.11323711 0.013522639 -0.009284921 0.03550186 0.075576805 0.04564349
-0.098548785 -0.1975476 0.07996926 -0.14839026 0.18445252 0.026983086 0.11872355 0.076256506
-0.044743072 -0.095732145 0.03249409 0.16542079 0.18784155 -0.081247225 0.021930607 -0.07998743
0.18932068 0.046934627 0.15819837 -0.034287956 0.19762075 -0.0058078095 0.070042 0.058266994
0.24720156 0.004828286 -0.055163346 -0.09027356 0.09722794 0.104128286 -0.13408992 0.18015963
0.19998333 0.047138587 0.08121075 -0.068500854 -0.15945591 0.13847551 -0.094017096 0.10330085
0.026740225 0.08975533 -0.031821616 0.030452201 -0.13541989 0.080053665 0.110256836 0.03427952
0.00886183 -0.10455903 0.07340285 0.033658918 -0.058494937 0.106269315 -0.041894104 0.008054721

lstm.weight_hh_l0 f4 [128, 32]
00000000: 5d0e 85bc 05f1 e6ba 50d0 293d 7254 e63d
00000010: 28dd 94bd 73f3 dcbd 521a 1b3e a1d8 f63d
00000020: 4803 0b3d 8918 18be b993 6e3e b077 2abe
00000030: 1f37 fabc b94d efbd f0c9 16be 28f0 033e
00000040: a711 9dbc c999 4b3e eb84 42bc 70d5 3e3d
00000050: 3c8a 6e3c 93cb 2bbe d936 dcbd dba9 bf3c
00000060: 931b 36be ccaa 483d 6279 cbbd 8bcd 453c
00000070: bf8f 75bc 41e7 14be 13bf 72be 5c3e d63d
00000080: 8ee1 02be 225f 7f3c 36a4 513e b082 f03d
00000090: 1eea 3bbd 021c 1b3e 6f63 18bc 269c 183e
000000a0: f5af 633d 7bee 323e fe93 9d3d efd3 223e
000000b0: ba56 733b ac98 35be ce2e fabd a666 c5bd
000000c0: e4ab 96bd 904f f1bd 3d07 c73c 11bf f2bd
000000d0: 5091 263d 74e3 6d3e 410c 443d d400 0abd
000000e0: 0664 8e3c 4b16 183c fb34 4cbe 356f 543d
000000f0: c546 393e 7a42 853d f8e6 1cbd a199 c3bd
00000100: ef48 10bd 793c 483e ba03 19be 9932 3a3e
00000110: d444 f0bc cee4 823e cea7 473e dc16 5b3e
00000120: 666a 06bc 346d a23d 03aa 7abe 9715 c73b
00000130: e239 0e3d aa34 c93d bb20 42bd d927 843d
00000140: 0f0b 85bd d2b2 703e dc33 c3bb 7cce efbd
00000150: b6ee e23d f548 513d b709 d7bd 6786 c9bc
00000160: 4842 4b3e 2d02 9f3d abca dbbd b799 c03c
00000170: b65c 3abd 1975 14be dfe0 91bb ca86 5b3d
00000180: 97bb 1c3e 25a7 193e e198 2d3d c4e7 94bc
00000190: 206c 223c 0b85 63bc b30f 0b3e c992 ed3c
000001a0: 151d 01be bbe7 dbbd 6455 90bc 5489 49bc
000001b0: 461f a23d 2578 c1b8 1d2e 29be 9e06 d9bb
000001c0: b252 abbd 2a29 eabd af68 1f3d d9f4 0a3e
000001d0: 0a2e 9a3d efea c73d aaae 09be 1254 6b3e
000001e0: fa63 263e 3990 d1bd ce94 71be 0eaf 923d
000001f0: b15a 42be 30a1 6cbc a20e d53d f44f 75bd
00000200: 83f7 5dbe 6e2e 1f3e fe14 54bd 764f 2a3e
00000210: 2e39 f4bd 07cd 8b3e bb0b 5dbd 6251 643e
00000220: 6882 b4bd 2d28 633d d782 6abb d89e 673e
00000230: 48b9 83be 3c48 7abc 63cc 39be c2f2 843c
00000240: 36d8 02bc 0d17 833c 883e b7bd 55df 2ebe
00000250: 960f 52bd fe94 a4ba 07fb e6ba 951d b5bd
00000260: 79f2 e53c dbb9 01bd 6198 b7bd 5f1b 2f3e
00000270: d8ae 713e c09b 31be 8e81 2c3d a2f6 593d
00000280: 6bb0 22be c35d 153e 6436 773d a281 183e
00000290: 2acf c23b 660d 6fbd 093d 9a3d c76c 323e
000002a0: d501 ebbd 5adf 6ebd 4f26 e1bd fa6b 493e
000002b0: 86ce e5bc 9215 41be 3e62 f8bd d41d b8bd
000002c0: 8412 463c 295e 003e cefd 163d fcf8 d53b
000002d0: 3ab5 7d3d 9eda 4f3d 8c5b 013e 23ec 2b3d
000002e0: a09e f23d 95e8 7e3e 6c87 20bd f6e8 d03d
000002f0: 220c 6c3e 290c 37be 1957 623e c916 71be
00000300: d2c1 45bc a60e 013e ebca 9fbd 7fb2 5d3e
00000310: f18b 073e fc94 0a3e 5821 bd3d b419 573e
00000320: 78b2 253e d81c 7c3e 1dc5 083e 17ae a4bd
00000330: 3cf0 b4bd 110c 60bd de15 e7bc e7b5 0f3d
00000340: bec8 0e3e e150 10be 0050 5ebe f832 30be
00000350: 3494 8ebd ccf8 2c3e 180d 123d 94e5 d1bd
00000360: 49b6 233e cc10 01bc ad3a 94bd 7a3a 95bd
00000370: db4c 5d3e 75c8 30be a654 cebb ce9d 79be
00000380: ec62 fdbc aefc 303e df13 4cbd 3dac 363e
00000390: 1c9d 52bd e4d3 edbc 9587 883a bb70 d2bd
000003a0: bfa5 d03d 8841 213d a2a5 0ebd 8f45 2e3d
000003b0: 1153 a9bd 8ef9 d83d a84f 56bd 9183 b03d
000003c0: 78a9 363e 804c 2e3d 6a90 143c 08ed ab3d
000003d0: e35e 86bd 870d 4bbd d1d5 d7bd 8546 0cbe
000003e0: 36ff 233e aa72 253d a617 363b 3b41 133e
000003f0: c4c9 09be a406 fdbc 0fb0 7cbd 5efd 3abe
-0.0162422 -0.0017619437 0.041458428 0.112465754 -0.07268745 -0.10788622 0.15146759 0.120530374
0.033938676 -0.1485311 0.23298539 -0.1664722 -0.030543862 -0.11684746 -0.1472547 0.12884581
-0.019173456 0.19882883 -0.01187251 0.04659027 0.014559325 -0.16776876 -0.10752649 0.023396423
-0.17783956 0.04899101 -0.09935261 0.012072931 -0.014987885 -0.14541341 -0.23705702 0.10461113
-0.12781355 0.015586646 0.20472798 0.11743677 -0.04587757 0.15147403 -0.009301051 0.14903316
0.055587728 0.17473786 0.07694243 0.15901159 0.003713055 -0.17734021 -0.122159585 -0.09638719
-0.07357004 -0.117827535 0.024295444 -0.11852849 0.040665925 0.23231298 0.04786325 -0.033692196
0.01738168 0.009282659 -0.19942085 0.051863868 0.18093403 0.0650682 -0.038306206 -0.09550787
-0.035225805 0.19554318 -0.14942828 0.18183364 -0.029329695 0.2556519 0.19497606 0.21395439
-0.008204078 0.07930985 -0.24478917 0.0060755718 0.03472317 0.09824498 -0.047394495 0.06452913
-0.0649625 0.23505715 -0.00595711 -0.11709306 0.11080687 0.051094968 -0.104999 -0.02460022
0.19849503 0.07764087 -0.10732015 0.023510797 -0.045498572 -0.14497794 -0.0044518556 0.05359534
0.15305935 0.15005167 0.042382125 -0.01817692 0.009913474 -0.0138867 0.13580208 0.029000657
-0.1260875 -0.107375585 -0.017618842 -0.012300808 0.07916121 -9.225336e-05 -0.16521497 -0.0066231033
-0.08365382 -0.11433633 0.038918193 0.13569964 0.075283125 0.09761607 -0.13445535 0.22981289
0.16249076 -0.102325864 -0.2359192 0.07162295 -0.18979909 -0.014442727 0.104031816 -0.059890702
-0.2167645 0.15545055 -0.051777832 0.16631874 -0.11924969 0.2730486 -0.053966265 0.2229667
-0.088139355 0.055458236 -0.0035783553 0.22619188 -0.25727296 -0.015276011 -0.18144374 0.016229037
-0.007986119 0.016002202 -0.08947474 -0.17077382 -0.051284395 -0.001255661 -0.0017622419 -0.08843533
0.028069722 -0.031671386 -0.08964611 0.17100285 0.23601854 -0.1734457 0.04211574 0.053213723
-0.1588761 0.14586549 0.060354605 0.14893201 0.005945106 -0.058362387 0.07531173 0.17424308
-0.11474959 -0.058318473 -0.10993635 0.19670096 -0.02805258 -0.18855885 -0.12128113 -0.08990064
0.012089375 0.12535919 0.03686314 0.0065299254 0.06194041 0.0507456 0.12632579 0.041973244
0.118466616 0.2489341 -0.03919165 0.10200684 0.23051503 -0.17875732 0.22103538 -0.23543848
-0.012070136 0.12603244 -0.078023754 0.21650122 0.13236977 0.13533396 0.092348754 0.21005899
0.16181362 0.24620378 0.13356443 -0.080410175 -0.088348836 -0.054699007 -0.02820867 0.035085585
0.13943765 -0.14093353 -0.21710205 -0.17206943 -0.06961861 0.16891783 0.03565702 -0.10248867
0.15987505 -0.00787754 -0.07237754 -0.07286544 0.2161135 -0.17263968 -0.006296712 -0.24376604
-0.030930959 0.1728389 -0.049823638 0.17839141 -0.051419362 -0.029031701 0.0010416383 -0.10275408
0.101878636 0.039369136 -0.03482593 0.042546805 -0.08267797 0.10594474 -0.05232206 0.08618844
0.17838085 0.042553425 0.009067634 0.083948195 -0.06561067 -0.049573448 -0.10538829 -0.13698776
0.16015324 0.040392555 0.0027785092 0.14380352 -0.13455874 -0.030886956 -0.06169134 -0.18260714

lstm.bias_ih_l0 f4 [128]
00000000: 5909 c4bd ffc3 2b3e 062d 853e 24d4 023d
00000010: 2ea0 223e bc17 a23d c070 ab3c 2806 19be
00000020: 5556 e0bd 340d bd3d 4c93 b83d 0b5e d73a
00000030: 359a 4c3d c5d0 5d3e add4 c63c 206d 943e
00000040: 8e77 993d c58e 9bbd 60cc a03d 0bed 08be
00000050: be81 0f3e f9a0 543e 0061 a43d 14d2 173e
00000060: 0054 3b3e 5f6b 7cbc 9039 f0bc 3f6b c33d
00000070: b5c2 413e 7285 b53d 8777 c33d 8b1b d1bb
00000080: b674 fa3d 2077 103e d7f6 93bc 8476 653d
00000090: 4aee 033e cfa6 433e d022 673e 2def e93d
000000a0: 2400 19be e200 003e 1284 c03c 3b86 713d
000000b0: a68d 0f3e 9224 2b3e dc7d fe3d 30f6 503e
000000c0: 4296 883d f2e5 5e3e 7813 40bd 9f63 6a3e
000000d0: 5ae3 0fbd f418 573d 4022 a93d e0fd 633e
000000e0: b465 89bb 64b3 423e 9177 9bbd 1ce6 553e
000000f0: 48b9 903d 0a7e e53c 1c0f ae3d 71bd e2bc
00000100: 0f2d d33d 781d 193e 92ce 2fbe 1092 25be
00000110: d3c6 3a3d 8845 e23d 3049 95bd 8b55 ba3d
00000120: c68a 2dbe aa5a 99bd 8e28 363e 59a0 173e
00000130: 1759 eabc cb27 c4bc 620d 22bc 04f7 15be
00000140: e9fc 17be 4d43 cbbc 22bc 243e 35b9 86bc
00000150: 0812 5bbd 12e3 2d3e 01b1 fcbc 0e95 193e
00000160: 952e 373e 5771 f63d 1725 c9bb 3b27 083e
00000170: 70f4 09be cbb9 57bd 3e58 0abd 5948 8cbd
00000180: 2104 ca3d 21c8 403e b568 0e3e 8a67 88bc
00000190: 246b a83d 23b8 603e aeea 863e ed69 5d3e
000001a0: b6a3 8a3e 21bb 6fbd 868c 7d3d 6fe9 0abc
000001b0: e2ca a23d 5c08 6ebd 1188 e4bc 41da 603e
000001c0: ed30 55bd 62cf 313e a25a 953b a4f3 903a
000001d0: aaf6 0a3e 5a50 413e 846f 453e 4f93 013e
000001e0: 05ee 77bd ceb6 fcbd 2048 c0bd b031 733e
000001f0: 6de7 af3c 1323 083e 02c0 d43d b34d 203d
-0.095720954 0.16773985 0.26010913 0.031940594 0.15881416 0.07914683 0.020927787 -0.14943755
-0.109539665 0.09231034 0.0901247 0.0016431225 0.04995175 0.2166167 0.024271334 0.28989506
0.07493506 -0.075955905 0.078514814 -0.13371675 0.14014336 0.20764531 0.08026314 0.14826232
0.18293762 -0.015406459 -0.029324323 0.0954194 0.18921931 0.08863343 0.095442824 -0.006381457
0.12229292 0.14107943 -0.018062038 0.05602123 0.12883869 0.19106601 0.22571874 0.11422572
-0.1494146 0.12500337 0.023500476 0.058965903 0.14018878 0.16713169 0.124263495 0.20406413
0.066692844 0.21767405 -0.046893567 0.22889565 -0.03512893 0.05251403 0.08258486 0.22264814
-0.004193032 0.19013745 -0.07591165 0.20888561 0.070665896 0.028014202 0.08498976 -0.027678223
0.103113286 0.14952648 -0.17168644 -0.16169 0.04559977 0.11048418 -0.0728935 0.09098347
-0.16947469 -0.07487996 0.17788908 0.14807262 -0.028606934 -0.023944756 -0.009890886 -0.1464501
-0.14842571 -0.024812365 0.16087392 -0.016445735 -0.053483993 0.16981152 -0.03084612 0.14998266
0.17888863 0.120333366 -0.0061384547 0.13296215 -0.13472152 -0.05266742 -0.03377556 -0.06849737
0.09864069 0.18826343 0.1390713 -0.016650934 0.082235605 0.21945243 0.2635092 0.21622439
0.27078027 -0.05852807 0.06190159 -0.0084785065 0.07948853 -0.05811344 -0.027896913 0.21958257
-0.052048612 0.17364267 0.0045579234 0.0011058939 0.13570657 0.18878308 0.19280821 0.1265385
-0.060529727 -0.12339555 -0.09388757 0.23749423 0.021472657 0.1329463 0.10388185 0.0391366

lstm.bias_hh_l0 f4 [128]
00000000: 7448 833d 3a43 bb3d ad9a a23d 89c8 593c
00000010: fe5f 95bd 1899 b23d 703c 0abd 0533 2c3e
00000020: a870 b03c d9b5 83bd 83a2 373e d746 ab3c
00000030: f68a 493d 33a5 d53c b4ba e83d 0eb5 df3c
00000040: e00f f3bd 5748 093e c50e 993d bbcb d2bd
00000050: 66ed 8fbd f535 b23d bccf 813d c7fb 333e
00000060: 1423 de3c 85c2 c7bd 54a2 fc3d 0e53 d13d
00000070: 1d71 f33c 8266 193e aaf8 5d3e a55e 66bd
00000080: b016 1c3e caa7 4b3e e67a 58bd 8200 fb3c
00000090: 282d d8bd 1007 4a3e edb9 603e 18a2 253d
000000a0: f7ec bebd c62c 853d c9ac f73d 2d77 a7bc
000000b0: 15cc 0fbe f7d4 1b3e 5ef7 593d 91fb 08bd
000000c0: 11ae 81bd a818 60bd 61d4 443e 1d95 483e
000000d0: a365 883d 3857 2f3e ebd9 babc 6309 4f3e
000000e0: 4af6 603e 7200 78bd 1fc3 1abe 1eb4 4a3e
000000f0: 9bf6 aebd 0458 4b3e 4fb1 8fbc e42e 853d
00000100: 7595 e9bd 4a42 f6bd c79a 82bd ff03 173e
00000110: 044c 6a3c 1ea5 33bd 6f70 2f3e 5d23 b1bd
00000120: 681d 5ebd 1a67 c2bd c34a d93d 3537 93bd
00000130: 69b2 5b3c 793c 8fbd c05f adbd 09ca 463d
00000140: c6f3 0f3e 7405 073e 82bb 0fbe bfa0 4ebc
00000150: 358b 443e 5163 4e3b 3e3f 0f3d 39d4 b3ba
00000160: 61a3 1ebe c16f f6bd 2535 7dbc 4f31 82ba
00000170: bd19 3f3e 2a2a 54bd f7b6 d2bd 7525 c6bb
00000180: 55e6 c6bc cd73 cbbd e102 1c3e f10f b9bd
00000190: 795a a2bd 7a6c 813e 4abb 433e 0562 d0bd
000001a0: 1351 4aba d7d6 3b3d 9d12 653d 05a7 2f3b
000001b0: 5101 c5bd c0cb 1a3b bf73 173e a142 113e
000001c0: f5bb 8a3d 3f2d 603c 4f2a f43d 677d 64bd
000001d0: 1d29 e4bc ce46 05bd 6c90 1c3e b781 573e
000001e0: b81a c43c 5bef b8bc 93c3 bdbd cd88 73bd
000001f0: 0024 edbc 3395 4b3d a973 ae3d 4348 1a3e
0.06410304 0.09143682 0.07939658 0.01329244 -0.072937 0.087206066 -0.033749044 0.16816337
0.021538094 -0.06431169 0.17933087 0.020907803 0.04920479 0.02607975 0.11363736 0.027308013
-0.11868262 0.13406502 0.0747352 -0.10292765 -0.07027702 0.08701698 0.0633845 0.17576514
0.027116336 -0.097538985 0.12335649 0.102209195 0.029717023 0.1498051 0.21676889 -0.056242604
0.1524303 0.19888225 -0.05285158 0.03063989 -0.10555488 0.19729257 0.21945925 0.040437788
-0.09322541 0.065026805 0.12093503 -0.02044257 -0.14042695 0.15217958 0.053214423 -0.033443037
-0.06332029 -0.054711014 0.19221641 0.19588132 0.06660011 0.17123115 -0.02280899 0.20218424
0.21968952 -0.0605473 -0.15113495 0.19795272 -0.0854313 0.19857794 -0.017540602 0.06503084
-0.1140546 -0.120243624 -0.06377178 0.14747618 0.01430035 -0.04385864 0.17132734 -0.08649323
-0.054227263 -0.09492321 0.10609963 -0.07188264 0.0134092355 -0.06993956 -0.084655285 0.04853252
0.14057836 0.13185674 -0.14036372 -0.012611567 0.19193728 0.0031492303 0.03497242 -0.0013719863
-0.15492012 -0.12033034 -0.015454565 -0.0009932908 0.18662162 -0.051798023 -0.10288804 -0.0060469457
-0.024279753 -0.099341966 0.15235473 -0.09036244 -0.079274125 0.25278074 0.19114414 -0.10174946
-0.00077177695 0.045859184 0.055925954 0.0026802432 -0.09619392 0.002361998 0.14790247 0.14185573
0.06774131 0.0136826625 0.11922132 -0.055783655 -0.027851636 -0.032538228 0.15289468 0.21045576
0.023938522 -0.022575071 -0.092658184 -0.059456635 -0.02894783 0.049702834 0.08518154 0.15066628

fc1.weight f4 [32, 32]
00000000: 0d22 5bbe 4e0e df3d 9ab0 49be 8834 a63c
00000010: 918b c1bd 41f3 8abe 557a 8d3e 87a2 5dbd
00000020: 8a59 93be f1a7 b9bc 6c65 5f3e 80b5 b6be
00000030: 20c5 1bbe d1b5 b13e 5674 35bd a463 333e
00000040: 9ca9 ccbd 72b9 53bc 3aca a73d 91d4 64bd
00000050: ccd3 703e 1a97 923d 9075 0bbd 13e3 34be
00000060: 6022 513e 26a2 aa3d 75c0 5b3e 9402 513d
00000070: 6667 743e e5a0 973b de08 a8be 4ad3 7f3d
00000080: 0787 5cbe 7484 d13d 42cf 963e 37bb 663d
00000090: a25a 873e a397 a03e a0fd e6bb 9b6c 96bc
000000a0: 507d d5bb fb37 983e ef0b 9fbe 7fb3 943e
000000b0: 40ec 4fbe c347 86bd cd40 89bd 0251 17be
000000c0: 61f9 973e b8f8 fd3c 0080 8fbd baa9 94bd
000000d0: 6821 1bbd b1fb 533b 9d37 9c3e 2749 dbbc
000000e0: 2e62 943d d56e f23c 24df df3d 3c24 bc3c
000000f0: 99e8 283e 061a 96be 8a32 5e3e 6598 6abe
00000100: 19e9 51be 90e0 4b3d 363d 333e 7e8d 403e
00000110: 3c01 b23e 73d1 a03e f47e 6abd e543 c53d
00000120: a71d 4bbc 6b31 6b3e 6e8d 99be 604a 633e
00000130: 5696 54be 33d6 273c 61ac bcbd 0730 d4bd
00000140: ac01 2cbd 99b8 e3bc 04df 54be 9d32 01bc
00000150: df7c 283e 4a02 da3a 93e9 3d3d 84a3 3abe
00000160: be50 743e 9228 ce3d 1e27 d13d f8e9 d03d
00000170: d8dd 103e 7952 bebb 1100 893e ffdb 3bbe
00000180: 642b 003e b0d8 c33d 5109 78be 472a 253e
00000190: bde5 51be d57d 1fbe 19cf 99bd 5cb6 c1bd
000001a0: ee35 43be da00 63be 8a0c 1f3e 0ba8 eb3d
000001b0: 9a8c 343d 27fb c33d a53a 3ebe 5b91 99bd
000001c0: d087 1e3e 29e3 d23c c43b 0bbe 2bca d4bd
000001d0: b564 edbd 1992 12be f120 a23d 146f 58bd
000001e0: e4a6 c43d 68f8 533d 4256 783d 2540 083e
000001f0: e3ee 1fbd 52f0 1bbe eab4 873c 0f66 423e
00000200: ece8 85bd 3f4f a7bc 3292 813e 0e46 1b3e
00000210: 5675 9e3e eed6 163e 675a acbd c9d1 343e
00000220: 42bc eb3c c5a6 593e 3d3b 89bd a93a 7a3e
00000230: aac1 56be 77b9 6fbe 24a1 e7bd 3b61 47be
00000240: 1830 3f3e 9099 dc3c c484 6ebe fdb0 003c
00000250: a34a b7bd c756 cd3d 7130 2e3e be7a 1abe
00000260: 76f6 023e 0c63 833e 5b4f 763e ea79 e43d
00000270: 69f6 dc3c 869c b5bd b191 353e 057a 95be
00000280: bc37 0cbd 5b6f 183e 1485 c0be f809 c0bd
00000290: 7bb1 9cbe 3813 0dbf aa00 c03d 1b45 30be
000002a0: a60e 56be 594d 6fbe f515 d23d e0f8 28be
000002b0: 9c62 49bd 93b9 233e c9c3 b7bd 4e50 823e
000002c0: f25b 233d d9f5 07be 6987 253e 4439 863d
000002d0: c158 fa3c 9dac e1bd 9654 2bbe 4904 aabe
000002e0: efa9 a8bd 9c9a e23d 2091 073a 7e0e 8bbd
000002f0: d280 1e3d 3027 be3d 7fb8 53be 7989 ba3c
00000300: 067b 33be aaa8 943d b0c4 073e 03fc 1b3e
00000310: d07c 333e f1ec 823e b54b 583e 31ac 5f3e
00000320: 9b44 803e cf3d 1f3e 2c9d c1be 2921 8d3e
00000330: 6816 44be 8715 ccbd 5de6 16be b555 8fbe
00000340: 8dab 3b3e db2e ab3d ace1 89be ec6d 70be
00000350: e675 cdbd 8f07 e13d 21f4 0e3e 09f8 43be
00000360: cd3b 523e 0a3f e13c 17cd 01be 6991 9c3d
00000370: f7ec e03d 02f0 c2bd 1cdd 9a3e 5fb5 b5bd
00000380: 15d2 673d 4e2e 103e 5216 503e 850f cfbd
00000390: 1347 ed3d 94ac 2d3e 36c8 cdbd 3854 593e
000003a0: e5c4 8f3e 002b 6d3d 71df 8bbe 73f6 873e
000003b0: 4a1e 42be 03e3 eabc f395 60be 3eca 0fbe
000003c0: cecd 933e 4665 b73d ca70 74be 0226 13bd
000003d0: af05 cebd 0477 933d 719e 903e 6100 0fbe
000003e0: 42c4 c13c 349f 403e 9536 db3d ee3d 443e
000003f0: dba4 293e 8188 dabd 9b03 a03e bbc6 83bd
-0.21399708 0.108914 -0.19696274 0.02028872 -0.09450448 -0.27138713 0.27632394 -0.054110076
-0.2877925 -0.022663089 0.21816033 -0.3568535 -0.15211916 0.34709027 -0.0443004 0.17518479
-0.09993288 -0.012922632 0.081928685 -0.05586678 0.23518294 0.071577266 -0.034047663 -0.17664747
0.2042327 0.083317086 0.21460135 0.05102785 0.23867568 0.0046273344 -0.32819265 0.06245736
-0.21535884 0.102303416 0.29455 0.056330886 0.26436335 0.3136569 -0.0070492774 -0.018362334
-0.0065151826 0.2973021 -0.31063792 0.29043195 -0.20304966 -0.06556656 -0.06701813 -0.14776996
0.29682449 0.031002387 -0.07006836 -0.07258935 -0.037873656 0.0032346065 0.3051118 -0.02676828
0.07245289 0.029593864 0.109312326 0.022966497 0.16494979 -0.2931673 0.21698967 -0.22909696
-0.20499076 0.049774706 0.17503819 0.18803975 0.34766567 0.31409797 -0.05724998 0.096320905
-0.012397206 0.2296807 -0.29990715 0.2219634 -0.20760474 0.01024394 -0.09212566 -0.10360723
-0.041993782 -0.027797984 -0.20788199 -0.007885602 0.16453885 0.0016632762 0.04636533 -0.18226439
0.23858926 0.10066332 0.10212539 0.10200876 0.14147127 -0.0058081714 0.26757863 -0.1834564
0.12516552 0.09562814 -0.24222304 0.16129409 -0.20497794 -0.15575345 -0.07510204 -0.094586104
-0.19063541 -0.22168294 0.15532127 0.11506661 0.0440794 0.09569388 -0.18577059 -0.074984275
0.15481496 0.025743084 -0.13597018 -0.10390123 -0.11591474 -0.14313544 0.07916439 -0.052840307
0.09602144 0.05175057 0.060629137 0.13305719 -0.03904618 -0.15228394 0.016565759 0.18984245
-0.06538567 -0.02042353 0.2530685 0.15163442 0.30948895 0.14730427 -0.084156804 0.17658152
0.028776292 0.21255024 -0.06700752 0.2443644 -0.20972314 -0.23410593 -0.11310032 -0.19470684
0.1867069 0.026928693 -0.23292834 0.007854697 -0.08949783 0.10026317 0.17010666 -0.15085885
0.1278933 0.25661504 0.24053709 0.11156066 0.026972966 -0.08867745 0.17731358 -0.29194656
-0.03423284 0.14886229 -0.3760153 -0.093769014 -0.30604157 -0.5510745 0.09375127 -0.17213862
-0.20904025 -0.2336935 0.10258094 -0.16501188 -0.049166307 0.1598876 -0.0897289 0.25451893
0.039882608 -0.13277377 0.16164936 0.06553891 0.0305599 -0.110192515 -0.16731486 -0.33206394
-0.08235537 0.11064646 0.00051714666 -0.067898735 0.03869707 0.09284818 -0.20675848 0.02277063
-0.17527398 0.072587326 0.13258624 0.15232854 0.17528081 0.25571397 0.2112263 0.2184303
0.25052342 0.15550922 -0.37815225 0.27564362 -0.19149172 -0.099650435 -0.14736314 -0.27995077
0.1832716 0.08358546 -0.26929986 -0.23479432 -0.10032253 0.1098777 0.13960315 -0.19137587
0.20530625 0.02749588 -0.12675892 0.07644922 0.109826975 -0.09518434 0.30246818 -0.088724844
0.056596834 0.14080164 0.20321015 -0.10110382 0.11585822 0.16960365 -0.10047953 0.21223533
0.28079906 0.057902336 -0.2731891 0.26555213 -0.18956867 -0.0286727 -0.21932201 -0.14041993
0.28867954 0.08954863 -0.2387115 -0.03592492 -0.10059678 0.07200435 0.2824588 -0.13964988
0.023653153 0.18810731 0.1070377 0.1916425 0.16566794 -0.10670567 0.3125275 -0.06434389

fc1.bias f4 [32]
00000000: 338f e7bc a4f0 433e 03e8 423e 37f7 bdbd
00000010: bcf4 2d3e 0caf eebd ce37 303e 5876 d33c
00000020: 8ed6 d03d 05aa c83d ce1d 9b3d 4381 003e
00000030: fd45 b93d 26c9 27be 95aa fcbd 02ce 25bd
00000040: 696d 05bd dcc5 223e 88ac aebd b024 f83d
00000050: a758 1dbe 5575 c43d 4e16 5f3e a350 2b3d
00000060: e7b0 b5bd 5314 113e 53b4 653e d0f2 e33c
00000070: 77db a4bd 3a0c 0a3e c659 b9bd ef17 2f3e
-0.028266525 0.19134766 0.19033818 -0.09275668 0.1698789 -0.11654481 0.17208788 0.025813267
0.10197173 0.09798054 0.07574044 0.1254931 0.09046552 -0.16385326 -0.123372234 -0.040479667
-0.032575045 0.1589579 -0.085290015 0.121163726 -0.1536585 0.09592692 0.21785852 0.041824948
-0.08871632 0.1416791 0.2243207 0.027825743 -0.08049672 0.13481227 -0.09050326 0.17098974

fc3.weight f4 [4, 32]
00000000: 56d5 63be cc57 c43e ecb8 a93d 1615 8ebd
00000010: b3ce ed3d b595 37be d637 853e a068 e13e
00000020: d1f7 07be 3798 9d3d ec12 143e 3880 ba3a
00000030: 5cbd cc3d 0565 0a3e 3e4c d13d d7c0 a43d
00000040: dc23 143d cfc6 f3bc 40f0 fa3b 4bb8 a2be
00000050: fd94 e93d b3bf 52be caa9 ae3d 9fd6 cabd
00000060: b95d dd3d ed7e b1bd c5a3 b73e 03f1 b7be
00000070: 279d bd3e c9ce 2c3e 50c1 bdbd 0d69 163d
00000080: 0594 3d3e 66cd 553d 8c4e 2cbd 80ab 26bd
00000090: db8e 19bb bd20 a9be 772c 51be 9506 bbbd
000000a0: 8552 f23d e78a 62be d421 933d 8974 0bbe
000000b0: 640c 89be 14d3 09be 9e99 4abd 94a3 88bd
000000c0: d9fb 913d 7089 2cbe 4b6f 9bbd e55a 013e
000000d0: 7b8c 0dbf 8dfb 81bc c5b7 84bd 8ff7 003d
000000e0: 2b8a 323d 2772 51be 87e1 113c 0137 eb3d
000000f0: 246d a0be 4b67 6ebe a9be 0bbc 7e6c 42be
00000100: 3a01 593e 0855 9abe bcf0 c4be 97a9 ad3e
00000110: 5e47 93be 5857 1c3e a972 a0be 9104 37be
00000120: d722 783d f56c 10be 31de 87bd cf0a 153c
00000130: 46d5 70be 680b 0c3c 13c6 e4bd c4e8 c7bd
00000140: 8258 49be 3a6a 443d ecbf 9a3e 3289 63bc
00000150: 004c 10bd aae0 5abd 7fc5 153c 7571 e9ba
00000160: 474a 12bd 40cb e23d 4623 b4be 1c70 663e
00000170: 3bd5 a8be 9770 8bbe 9303 af3e fc43 22be
00000180: 54cd 15be cc6c 99bd 1451 aabd 095f b7bd
00000190: 5ee4 f4bd 1ff6 16bf ad53 91bd 9a3b 563c
000001a0: c5ba 24bd 6be7 4bbe 9068 cd3d 32e5 7abe
000001b0: 5ed8 e0bc f6ac 153d 4c6a 233e 9fe2 acbd
000001c0: 8f28 5ebe 535c fabd 0d4a 4bbe a8c1 b7bd
000001d0: 5787 6cbe eb3f 0c3e 7470 27be ffcd 033d
000001e0: 04a5 c13d 9210 5bbe 859c a3bc 091f 92bd
000001f0: db71 54be 4e1a a6bc be97 8ebe 4fe3 5abe
-0.2224935 0.38348234 0.08287224 -0.069376156 0.1161169 -0.17928202 0.26019162 0.44025135
-0.13278128 0.07695048 0.14460343 0.0014228886 0.09997055 0.13515098 0.1021962 0.08044594
0.03616701 -0.029757885 0.0076580346 -0.3178123 0.114053704 -0.2058094 0.085284784 -0.09904217
0.10808892 -0.08666787 0.35867134 -0.35926065 0.3703396 0.16875757 -0.09265387 0.036721278
0.18513496 0.052197836 -0.042067096 -0.0406909 -0.0023431096 -0.3303279 -0.20427118 -0.09132115
0.118321456 -0.221233 0.071841866 -0.13618673 -0.26767266 -0.13459426 -0.049462907 -0.06671825
0.07128114 -0.16849303 -0.07589587 0.1263233 -0.5529248 -0.01586702 -0.06480364 0.03148609
0.0435888 -0.20453702 0.008903868 0.114851005 -0.31333268 -0.2328159 -0.008529344 -0.18986699
0.21191874 -0.30143 -0.38464916 0.3391845 -0.28765386 0.15267694 -0.3133748 -0.17872836
0.0605801 -0.14104064 -0.066341765 0.009096815 -0.23518857 0.008547641 -0.11170592 -0.097611934
-0.1966267 0.047952868 0.3022455 -0.01388769 -0.03522873 -0.053436913 0.009141325 -0.0017810302
-0.035715368 0.11073923 -0.35183161 0.22503704 -0.32975182 -0.27234337 0.34182414 -0.15846246
-0.14629108 -0.074914545 -0.08316246 -0.089536734 -0.1195762 -0.589693 -0.07096038 0.013075734
-0.04021718 -0.19912498 0.10029709 -0.24501494 -0.027446922 0.0365419 0.15958518 -0.08441662
-0.2169516 -0.12224641 -0.19852467 -0.08972484 -0.23098503 0.13696258 -0.16351491 0.032178875
0.09455302 -0.2139304 -0.019972095 -0.07134826 -0.20746557 -0.020276215 -0.27850145 -0.21375774

fc3.bias f4 [4]
00000000: 725a 133e 6315 b03d 756e 35be e061 cebd
0.14389971 0.08597829 -0.17717917 -0.10077262
