model/save/v3_2022-08-28_22-26/model.pt (torch, 796755 bytes, 10 tensors)

lstm.weight_ih_l0 f4 [128, 1500]
0.17091563 -0.073172435 -0.018509682 0.07617249 0.124306194 -0.10611321 -0.0064495686 0.14528501
-0.032667685 -0.064887956 0.20221184 -0.059437376 -0.09740954 0.08466685 -0.012158368 -0.06673936
0.0020317936 -0.078098014 -0.028239576 0.12168868 0.108410336 0.100232825 0.31762815 0.047405414
0.11880533 0.08457718 0.040487047 -0.07189252 0.002855924 -0.20388119 -0.10985176 0.021895852
0.13965404 0.09260851 0.15014699 -0.15464413 0.24609514 0.26002184 0.029637357 0.121480174
0.091969095 0.25017303 -0.098875195 0.012444115 0.28875914 0.014460727 0.01837845 -0.15866792
0.15323766 0.014027867 0.11565403 0.059256427 0.18400782 0.21046367 -0.04274698 0.11081912
0.029167827 -0.10605795 0.2563281 0.1724436 0.004731113 0.12067489 0.019094128 0.061865553
0.085662246 0.09996072 -0.074836046 -0.04563913 -0.039185245 -0.07576937 -0.106473096 0.0051928195
0.28182182 -0.11944044 -0.10611136 0.18970187 0.23660974 0.027937979 0.17903984 -0.03532383
-0.076459385 -0.09063979 -0.098768786 -0.08785489 -0.22654748 0.16536002 -0.13977085 0.017199822
-0.1138247 0.2633378 0.09028585 0.108070165 0.17775281 0.05577992 0.18748088 0.06553296
0.0063108616 -0.11048046 0.010799328 0.12395688 0.118130706 0.074434124 -0.011369616 0.10673729
0.11272733 0.05611876 0.107370056 -0.11775616 -0.18661442 0.12661019 -0.0131079685 0.014691702
0.21886401 0.0795688 0.09497276 -0.063237965 0.0143215535 0.16539888 0.22091524 -0.03336131
0.15157403 -0.025522955 0.07250999 0.2857762 -0.030680865 -0.041892376 0.014190099 0.14035925
0.1904582 0.052506734 0.27845427 0.05008454 -0.07225255 -0.048638154 -0.03505849 0.0444331
0.11399413 0.13069619 0.2039307 -0.07803367 -0.03854822 0.15699819 0.13441515 0.19411714
-0.05614654 -0.03209595 -0.06699459 0.05737423 0.19873367 -0.030554542 0.089002594 -0.05033863
0.123905696 0.14847358 -0.048122957 -0.031824995 0.025117273 0.09836567 -0.11607866 -0.093224466
0.08318932 -0.04743435 0.10729599 0.29952434 0.257145 0.14917596 0.019273512 0.17504412
-0.10410252 -0.10682601 0.0095621385 0.1736678 0.04699038 0.061782304 -0.060469087 0.12951681
0.13864309 0.043390762 0.15620752 0.13330121 0.022795822 0.15319966 0.25936007 -0.13303082
0.22296646 -0.09691602 0.055549785 0.034552492 0.22267903 0.033942673 0.17356825 -0.103523
0.07588762 0.08369295 -0.09053034 -0.050636042 -0.060407884 0.012591864 0.06698717 -0.12298618
0.1946659 -0.12908109 -0.06833284 0.15828113 0.07331217 0.19659394 0.17883596 -0.10890808
0.068865016 -0.054260693 0.092864685 0.09494357 -0.01529223 -0.060930658 0.06286754 0.17181565
0.09637224 0.22726156 -0.02917367 0.13279699 0.18661042 0.019791864 0.23487535 -0.097865105
-0.062012143 0.21056937 0.163668 -0.0014545792 0.083600454 0.025395714 -0.13622727 -0.13452533
-0.05207392 0.18502562 -0.04352023 0.023959428 0.06802181 -0.14915907 -0.034495194 0.032946303
-0.087521285 -0.10041129 -0.008095572 -0.0003759378 0.15950346 -0.094034985 -0.020855734 0.06930425
0.1421854 0.021976218 0.037824005 -0.15984297 0.19085419 -0.019534541 -0.031647827 -0.21102923
00000000: 8204 2f3e 6edb 95bd 9ea1 97bc 5300 9c3d
00000010: 3f94 fe3d e251 d9bd e756 d3bb 98c5 143e
00000020: 8dce 05bd fae3 84bd 9f10 4f3e 9b74 73bd
00000030: a77e c7bd d065 ad3d e433 47bc a5ae 88bd
00000040: d727 053b daf1 9fbd af56 e7bc ea37 f93d
00000050: 3d06 de3d de46 cd3d 28a0 a23e 2e2c 423d
00000060: 3550 f33d cd36 ad3d bfd5 253d 633c 93bd
00000070: 742a 3b3b 3bc6 50be f6f9 e0bd ee5e b33c
00000080: 7801 0f3e 88a9 bd3d 22c0 193e 085b 1ebe
00000090: 5d00 7c3e 9521 853e 0bca f23c 99ca f83d
000000a0: 4b5a bc3d ae16 803e 147f cabd 67e2 4b3c
000000b0: 3dd8 933e afec 6c3c 678e 963c d879 22be
000000c0: 55ea 1c3e 23d5 653c 05dc ec3d deb6 723d
000000d0: 8c6c 3c3e ca83 573e 7517 2fbd 23f5 e23d
000000e0: 5ef1 ee3c e934 d9bd 703d 833e 0e95 303e
000000f0: 7407 9b3b 6624 f73d 4a6b 9c3c bc66 7d3d
00000100: b06f af3d 35b8 cc3d a443 99bd 19f0 3abd
00000110: b580 20bd f92c 9bbd 910e dabd 8728 aa3b
00000120: f34a 903e 309d f4bd ea50 d9bd 3541 423e
00000130: d349 723e 30de e43c 3856 373e b8af 10bd
00000140: bd96 9cbd 5ba1 b9bd 4a47 cabd 44ed b3bd
00000150: 10fc 67be 2354 293e 1720 0fbe a4e6 8c3c
00000160: ed1c e9bd 36d4 863e cae7 b83d e453 dd3d
00000170: d504 363e 7c79 643d fdfa 3f3e 2536 863d
00000180: 58cb ce3b 9443 e2bd aaef 303c 1bdd fd3d
00000190: 83ee f13d eb70 983d a047 3abc 1599 da3d
000001a0: 96dd e63d c9dc 653d d5e4 db3d 242a f1bd
000001b0: da17 3fbe 1aa6 013e cec2 56bc 77b5 703c
000001c0: e31d 603e f8f4 a23d 1481 c23d e882 81bd
000001d0: f3a4 6a3c 535e 293e 9b37 623e dea5 08bd
000001e0: 3936 1b3e 8415 d1bc 1e80 943d 4251 923e
000001f0: 7056 fbbc 5797 2bbd 977d 683c 56ba 0f3e
00000200: 7907 433e 4d11 573d 8f91 8e3e 7225 4d3d
00000210: 25f9 93bd cd38 47bd 7e99 0fbd 7bff 353d
00000220: c175 e93d 39d5 053e 36d3 503e 1ed0 9fbd
00000230: bde4 1dbd 22c4 203e 20a4 093e a5c6 463e
00000240: eaf9 65bd 0b77 03bd 7634 89bd 3e01 6b3d
00000250: d780 4b3e 854d fabc fe46 b63d e12f 4ebd
00000260: 45c2 fd3d 7509 183e 941c 45bd ed5a 02bd
00000270: bdc2 cd3c f173 c93d a6ba edbd 78ec bebd
00000280: 2a5f aa3d 854a 42bd 00be db3d 415b 993e
00000290: 82a8 833e 95c1 183e 7ce3 9d3c c43e 333e
000002a0: b433 d5bd 98c7 dabd 84aa 1c3c f9d5 313e
000002b0: fc78 403d 710f 7d3d 6fae 77bd 0ea0 043e
000002c0: 74f8 0d3e 83ba 313d ddf4 1f3e 1d80 083e
000002d0: 4ebe ba3c 5fe0 1c3e d8ca 843e 3b39 08be
000002e0: 5251 643e e87b c6bd 2c88 633d ea86 0d3d
000002f0: f905 643e 7907 0b3d e0bb 313e de03 d4bd
00000300: f86a 9b3d 3667 ab3d f967 b9bd bd67 4fbd
00000310: 426e 77bd 1b4e 4e3c 9230 893d 2ee0 fbbd
00000320: 7f56 473e d52d 04be 17f2 8bbd 7314 223e
00000330: b124 963d ec4f 493e c620 373e 330b dfbd
00000340: 1a09 8d3d 7640 5ebd d72f be3d c671 c23d
00000350: 438c 7abc 6d92 79bd b2c0 803d 71f0 2f3e
00000360: cf5e c53d 41b7 683e 9ffd eebc effb 073e
00000370: cd16 3f3e 8c22 a23c 2a83 703e 806d c8bd
00000380: 7200 7ebd 7f9f 573e 9698 273e 94a7 beba
00000390: b736 ab3d ac0a d03c 297f 0bbe 02c1 09be
000003a0: 764b 55bd 5b77 3d3e 4542 32bd 9046 c43c
000003b0: 054f 8b3d 28bd 18be d54a 0dbd b4f2 063d
000003c0: 5c3e b3bd 6fa4 cdbd 4aa3 04bc 8419 c5b9
000003d0: e054 233e 6a95 c0bd a5d9 aabc 63ef 8d3d
000003e0: 0d99 113e 7807 b43c 58ed 1a3d e0ad 23be
000003f0: 486f 433e e706 a0bc 27a1 01bd 0c18 58be

lstm.weight_hh_l0 f4 [128, 32]
0.1272952 0.07912006 0.033550855 0.025323037 0.04822669 0.037481796 -0.104933865 0.14067014
-0.007944797 0.090980746 -0.110421464 -0.006062394 0.25836888 0.2352284 -0.021457495 0.15456776
-0.018072926 0.088540524 0.066370845 -0.06693986 0.06426583 0.039340936 0.12422369 -0.046729624
-0.053818177 0.022121357 -0.081616685 0.05436586 0.17536457 -0.044457138 -0.19626391 -0.06514762
0.0685918 -0.07871819 -0.01762381 -0.14202794 0.04740354 -0.19440728 -0.03383642 0.13637862
0.12079581 0.08059311 -0.043919258 0.12912266 0.014958961 -0.07771629 -0.06755129 -0.15129511
-0.1455229 -0.054793965 -0.110994816 -0.18692301 -0.14142652 -0.15574981 0.023892738 -0.19832699
-0.06656111 -0.008620061 -0.11769974 -0.066004016 -0.027913615 0.12918554 0.09920268 -0.07614184
-0.04216639 -0.01192636 0.05945642 -0.016022516 0.09803491 0.07947031 -0.20190018 -0.08645469
0.06800729 -0.2167212 -0.107540414 -0.15853961 0.2143145 -0.12982954 -0.13096382 0.15115052
0.14234954 -0.13765396 0.12263967 0.05560858 0.008332809 -0.14963573 -0.026097078 -0.196629
-0.12240578 0.03764783 0.01587972 -0.11095369 0.15732121 -0.041705925 -0.1678799 -0.101623885
0.20576324 -0.015575285 0.057720464 0.13966118 0.021158382 -0.09090593 -0.13656951 0.076210074
-0.042112157 0.106145516 -0.037666067 0.027681736 0.20125784 -0.08309423 -0.026963325 -0.015722513
0.11973161 0.065718256 0.0555553 -0.0351135 0.008863649 -0.1010157 0.07192222 0.0368882
-0.22158764 -0.037119176 0.19563182 0.046033934 0.14446954 0.074877396 -0.18822224 -0.11432862
0.06764782 -0.02012214 -0.031604823 0.15743572 0.0989398 0.061387666 0.036054347 0.13182618
-0.12323261 -0.15570791 0.17410018 0.13387312 -0.014149157 0.08977427 -0.12214458 0.21458031
0.031358734 -0.14749822 -0.15726551 0.010175527 -0.078142196 -0.0644922 0.13506243 -0.097341165
0.02495257 -0.035766438 -0.12595929 0.022393703 -0.04361198 0.15558097 0.072882906 0.15086494
0.12337069 0.17657617 -0.14567469 0.15126403 0.03857474 -0.06070223 -0.17444927 0.07351771
-0.04234425 0.07503679 0.19270025 -0.18523666 -0.026383927 -0.05012551 -0.03558143 0.15089509
0.045299523 -0.057135902 -0.104550324 -0.032882486 0.09211013 -0.19377466 0.06713153 -0.099057555
-0.08557283 -0.067737706 -0.027057331 0.002983187 0.05393853 -0.06934499 -0.15740515 -0.11726196
0.124476984 0.22477634 0.19568963 0.21600054 0.15584145 -0.09538826 -0.025473809 0.012172508
-0.10678016 0.057506952 0.058697265 0.09680789 0.10579575 -0.029165475 -0.022183038 0.0064322096
-0.061298855 0.12343104 -0.17359251 0.15459633 -0.08312009 -0.14102864 0.08308454 -0.15485384
-0.034449067 -0.16920297 -0.024750028 0.032891132 0.13389347 0.2103396 -0.15969472 0.11507302
-0.07939378 0.21831186 -0.026690833 -0.054401416 -0.09076592 0.07670446 -0.12531708 0.16274108
0.123956695 0.10021346 0.1500447 0.072757035 -0.089524545 0.040698063 -0.036313303 0.07205878
0.16407098 -0.17744486 -0.06512581 0.076391235 0.0070954203 0.110938355 -0.01722 -0.029385338
0.07319772 0.06451072 0.038863186 0.14297228 0.14996812 0.109291 0.06322202 -0.1468405
00000000: ac59 023e b309 a23d 9f6c 093d 4272 cf3c
00000010: 5a89 453d 8386 193d 91e7 d6bd d50b 103e
00000020: e52a 02bc 1d54 ba3d a624 e2bd 0ca7 c6bb
00000030: ed48 843e b7df 703e a1c7 afbc 0347 1e3e
00000040: ac0d 94bc bc54 b53d 70ed 873d c417 89bd
00000050: ce9d 833d f623 213d fd68 fe3d 9067 3fbd
00000060: 7370 5cbd d937 b53c a626 a7bd bcae 5e3d
00000070: c592 333e b018 36bd 68f9 48be 1e6c 85bd
00000080: dc79 8c3d 0137 a1bd cf5f 90bc c66f 11be
00000090: 372a 423d b412 47be 0f98 0abd d6a6 0b3e
000000a0: cb63 f73d 000e a53d aee4 33bd bb38 043e
000000b0: 6e16 753c b829 9fbd 5558 8abd 1bed 1abe
000000c0: f503 15be a36f 60bd 4051 e3bd bf68 3fbe
000000d0: 1dd2 10be e17c 1fbe b4ba c33c 3b16 4bbe
000000e0: 3151 88bd 283b 0dbc 900c f1bd 1d2d 87bd
000000f0: 18ab e4bc 3749 043e c62a cb3d 41f0 9bbd
00000100: aab6 2cbd c866 43bc 9388 733d a741 83bc
00000110: 87c6 c83d 54c1 a23d ecbe 4ebe 280f b1bd
00000120: 6847 8b3d 2aec 5dbe 263e dcbd 3558 22be
00000130: 4375 5b3e 09f2 04be 611b 06be 34c7 1a3e
00000140: 14c4 113e 29f5 0cbe 822a fb3d d3c5 633d
00000150: 5686 083c 1c3a 19be 8ac9 d5bc 1d59 49be
00000160: e2af fabd 9c34 1a3d 3016 823c b03b e3bd
00000170: d018 213e d5d3 2abd b5e8 2bbe 2f20 d0bd
00000180: 99b3 523e 7b2f 7fbc 4b6c 6c3d 5703 0f3e
00000190: 5854 ad3c e32c babd e1d8 0bbe 0714 9c3d
000001a0: cc7d 2cbd d262 d93d bc47 1abd cfc4 e23c
000001b0: 8916 4e3e 4f2d aabd 31e2 dcbc 80cc 80bc
000001c0: d935 f53d 4b97 863d f48d 633d 2cd3 0fbd
000001d0: d738 113c 52e1 cebd f54b 933d 1518 173d
000001e0: dfe7 62be 470a 18bd b553 483e 148e 3c3d
000001f0: d3ef 133e 5259 993d 55bd 40be 2025 eabd
00000200: f18a 8a3d 30d7 a4bc 0f74 01bd d436 213e
00000210: f3a0 ca3d a271 7b3d b9ad 133d 71fd 063e
00000220: 6161 fcbd e571 1fbe 5147 323e 0916 093e
00000230: ded1 67bc 93db b73d f026 fabd f1ba 5b3e
00000240: 0472 003d c609 17be 360a 21be 41b7 263c
00000250: 0409 a0bd 7d14 84bd ce4d 0a3e ce5a c7bd
00000260: 5569 cc3c d47f 12bd 79fb 00be 0073 b73c
00000270: 7aa2 32bd 9e50 1f3e a243 953d 577c 1a3e
00000280: c6a9 fc3d 62d0 343e bf2b 15be f5e4 1a3e
00000290: 8c00 1e3d e7a2 78bd d4a2 32be 7490 963d
000002a0: 2a71 2dbd e3ac 993d 3753 453e aeae 3dbe
000002b0: 1b23 d8bc 6850 4dbd d5bd 11bd 3e84 1a3e
000002c0: fe8b 393d 5607 6abd 7b1e d6bd c9af 06bd
000002d0: 3ca4 bc3d dd6c 46be 417c 893d b0de cabd
000002e0: cf40 afbd 11ba 8abd 56a7 ddbc 9381 433b
000002f0: a6ee 5c3d bf04 8ebd d12e 21be 0a27 f0bd
00000300: caed fe3d c52b 663e dd62 483e 3f2f 5d3e
00000310: e794 1f3e ec5a c3bd 73ae d0bc 336f 473c
00000320: 8eaf dabd 698c 6b3d 8b6c 703d 3743 c63d
00000330: 71ab d83d 6fec eebc 34b9 b5bc 49c5 d23b
00000340: 8214 7bbd 6ac9 fc3d 3cc2 31be 804e 1e3e
00000350: de3a aabd d069 10be 3a28 aa3d 0192 1ebe
00000360: 771a 0dbd 8b43 2dbe 92c0 cabc dab8 063d
00000370: 5f1b 093e 4463 573e 0387 23be 67ab eb3d
00000380: 3599 a2bd 258d 5f3e bca6 dabc 05d4 5ebd
00000390: 7ce3 b9bd 3a17 9d3d 1f53 00be 99a5 263e
000003a0: 02dd fd3d b73c cd3d 51a5 193e a401 953d
000003b0: a558 b7bd 03b3 263d 42bd 14bd 8e93 933d
000003c0: 3902 283e 1bb4 35be ae60 85bd 0273 9c3d
000003d0: b380 e83b a633 e33d f510 8dbc 85b9 f0bc
000003e0: b0e8 953d 321e 843d 012f 1f3d 5367 123e
000003f0: 3e91 193e f6d3 df3d 8c7a 813d 5b5d 16be

lstm.bias_ih_l0 f4 [128]
0.12783407 -0.103309266 0.03736748 -0.09587933 -0.0975223 0.19840859 0.18282744 -0.049160514
0.03463699 0.23743366 0.003474186 -0.06333065 0.19938508 -0.020418096 -0.09864462 0.008876145
0.17060263 0.053248912 -0.050461568 0.00077344204 -0.080558434 0.012606364 0.18080586 -0.067121744
0.0092367185 -0.026245419 0.027508914 0.14348365 0.05934518 0.18980299 -0.14815064 -0.05991655
-0.07554724 0.0980776 0.16484278 0.09802247 0.10223221 -0.13731289 0.10598329 0.08007029
-0.14392766 0.1690366 -0.1320373 0.064631805 -0.073690906 0.16195954 -0.023203352 -0.08826921
-0.03501576 0.15007031 -0.15620628 0.20865221 0.18333256 0.085516244 0.18960805 0.062255725
0.099353984 -0.10519214 0.15724076 0.07205005 0.06753553 -0.0240885 0.06259265 -0.019285336
-0.012602671 -0.013304287 -0.0043105856 0.08330594 0.15394732 0.016189383 0.17881498 -0.050534822
-0.16906138 0.14205569 0.060948897 -0.032459743 -0.0031904262 -0.009294595 -0.09100223 -0.16130911
-0.054796517 -0.062098734 -0.08881249 -0.08232543 -0.07137633 -0.13782367 -0.067784466 0.04444644
0.029989945 -0.15424442 0.14989722 0.06128265 0.15436755 0.14845929 -0.094928294 -0.15059985
0.17757586 0.09188712 0.033652112 -0.061488863 0.08475647 -0.033394758 -0.09800198 0.11215269
0.03552156 0.21606323 -0.15008792 -0.003892844 0.27036038 -0.055092923 0.16562156 -0.05013039
0.16834815 -0.10816343 0.079281054 0.024901332 0.113970034 0.1032434 0.03941772 0.233347
0.051086772 0.050776895 0.2080902 0.22204098 0.084558934 -0.043813583 0.1446281 0.24428372
00000000: efe6 023e cf93 d3bd a50e 193d 625c c4bd
00000010: c6b9 c7bd 9f2b 4b3e 1e37 3b3e 895c 49bd
00000020: 84df 0d3d cf21 733e 2baf 633b 80b3 81bd
00000030: 9a2b 4c3e da43 a7bc 3106 cabd 406d 113c
00000040: 75b2 2e3e 881b 5a3d cab0 4ebd d1c0 4a3a
00000050: d2fb a4bd ec8a 4e3c 2c25 393e 2077 89bd
00000060: 9b55 173c a200 d7bc 605a e13c 61ed 123e
00000070: ee13 733d b75b 423e cdb4 17be 0e6b 75bd
00000080: 83b8 9abd e9dc c83d 8ccc 283e 01c0 c83d
00000090: 1f5f d13d c09b 0cbe c40d d93d e4fb a33d
000000a0: c661 13be ee17 2d3e c934 07be ae5d 843d
000000b0: 42eb 96bd b9d8 253e f514 bebc 7dc6 b4bd
000000c0: b06c 0fbd 08ac 193e 8af4 1fbe eda8 553e
000000d0: 88bb 3b3e 2423 af3d 9d28 423e dcff 7e3d
000000e0: 1a7a cb3d fa6e d7bd b903 213e fa8e 933d
000000f0: 1150 8a3d 3f55 c5bc 9330 803d 48fc 9dbc
00000100: 6f7b 4ebc 39fa 59bc d03f 8dbb 4e9c aa3d
00000110: 5ea4 1d3e 999f 843c 461b 373e 9afd 4ebd
00000120: 6d1e 2dbe 0c77 113e 8da5 793d 82f4 04bd
00000130: 7816 51bb 5b48 18bc 615f babd 372e 25be
00000140: 5072 60bd 3e5b 7ebd 53e3 b5bd 3c9a a8bd
00000150: c12d 92bd a621 0dbe 95d2 8abd 780d 363d
00000160: 79ad f53c 40f2 1dbe a87e 193e 8403 7b3d
00000170: 8712 1e3e b605 183e c469 c2bd d936 1abe
00000180: 72d6 353e 502f bc3d ccd6 093d bfdb 7bbd
00000190: cd94 ad3d f1c8 08bd 43b5 c8bd 4fb0 e53d
000001a0: 0e7f 113d ae3f 5d3e a6b0 19be 161f 7fbb
000001b0: ad6c 8a3e 1ea9 61bd b398 293e 8655 4dbd
000001c0: 7563 2c3e ca84 ddbd 1b5e a23d e1fd cb3c
000001d0: 1f69 e93d 4771 d33d 7a74 213d 84f2 6e3e
000001e0: 5d40 513d 6ffb 4f3d 9915 553e b65e 633e
000001f0: 3c2d ad3d df75 33bd 6319 143e 8325 7a3e

lstm.bias_hh_l0 f4 [128]
0.11674688 0.14313929 0.10148336 -0.016220998 -0.06521201 -0.08607877 -0.007811428 0.06594134
0.024643604 0.07147336 0.09405514 -0.050491817 0.2637267 0.05275482 -0.015695464 0.13169684
0.108830355 0.13981311 0.16033955 0.008589228 -0.12348065 0.02978019 -0.057907235 -0.0099328
-0.004315344 0.000429252 0.09554546 0.20408377 0.123215 0.10993209 -0.13690369 -0.1720328
0.08881442 0.10644005 -0.09365893 -0.10572482 -0.118307956 -0.12092441 0.09969238 0.08575956
0.10663737 0.108023696 0.17309485 0.06649474 0.079040386 -0.004605909 -0.066887036 0.08107298
0.19357932 0.17863913 0.12805876 -0.03245364 0.16324513 -0.12222127 -0.0064063286 0.17599584
0.16690394 -0.058160122 -0.072259985 0.06635568 -0.046142813 -0.023942415 0.041174904 -0.072953865
-0.1708635 0.10269707 -0.06854365 0.053242605 0.14761409 -0.04650744 -0.11510198 -0.0093219215
-0.103624076 0.0057773986 0.14967874 0.13288002 -0.1306061 -0.027854707 -0.07440866 0.12874262
0.098685496 0.013038941 -0.03638784 -0.117958255 -0.15202604 -0.10543063 0.08130433 -0.11011113
-0.08714233 0.12644678 0.08398964 -0.09687021 0.05893179 0.039649095 -0.12482868 -0.107017964
0.21471238 0.016713735 0.039133333 0.13751364 0.022154156 -0.023827896 0.17747714 0.03908012
-0.010282512 0.055517983 0.07018057 0.092851795 0.23286 0.1892413 -0.10840279 0.16421846
0.007054272 0.069386326 -0.025695246 0.00561979 0.14241011 0.09683609 0.04471705 -0.0886241
-0.046290427 -0.0048071337 0.20849347 0.1873113 0.11805019 0.021646114 0.012535359 -0.06462948
00000000: fd18 ef3d 1b93 123e 82d6 cf3d e6e1 84bc
00000010: e08d 85bd 114a b0bd 02f7 ffbb 410c 873d
00000020: 62e1 c93c a060 923d fb9f c03d 82d0 4ebd
00000030: 3007 873e 7015 583d c693 80bc 89db 063e
00000040: 73e2 de3d 2b2b 0f3e 0d30 243e d5b9 0c3c
00000050: 6ce3 fcbd 96f5 f33c 2330 6dbd 2fbd 22bc
00000060: bb67 8dbb 3a0d e139 57ad c33d 56fb 503e
00000070: 2558 fc3d 1324 e13d 7b30 0cbe 5e29 30be
00000080: 56e4 b53d 3efd d93d 41d0 bfbd 4186 d8bd
00000090: 714b f2bd 38a7 f7bd 852b cc3d b5a2 af3d
000000a0: b264 da3d 873b dd3d c73f 313e 652e 883d
000000b0: eddf a13d 2aed 96bb 12fc 88bd 9709 a63d
000000c0: a839 463e 2ded 363e d621 033e 1cee 04bd
000000d0: bb29 273e 254f fabd 2eec d1bb 4138 343e
000000e0: dee8 2a3e 4f39 6ebd 0bfd 93bd 7de5 873d
000000f0: 3f00 3dbd e222 c4bc 04a7 283d d668 95bd
00000100: d7f6 2ebe d752 d23d 9d60 8cbd eb14 5a3d
00000110: 2628 173e 967e 3ebd 96ba ebbd f9ba 18bc
00000120: dc38 d4bd 5550 bd3b 6245 193e b311 083e
00000130: 9bbd 05be 8e2f e4bc 9163 98bd 1bd5 033e
00000140: 9f1b ca3d 48a1 553c 6a0b 15bd 1994 f1bd
00000150: b7ac 1bbe 04ec d7bd e282 a63d f281 e1bd
00000160: ae77 b2bd 447b 013e c302 ac3d e363 c6bd
00000170: 7662 713d 1767 223d 2ea6 ffbd 3c2c dbbd
00000180: 90dd 5b3e 3eeb 883c 464a 203d 60d0 0c3e
00000190: a27c b53c b832 c3bc 91bc 353e 7a12 203d
000001a0: fb77 28bc d366 633d d5ba 8f3d 1529 be3d
000001b0: da72 6e3e 79c8 413e 4802 debd e228 283e
000001c0: 8627 e73b 6b1a 8e3d d67e d2bc 3726 b83b
000001d0: f5d3 113e 0052 c63d 3a29 373d 8d80 b5bd
000001e0: 089b 3dbd 2985 9dbb 507f 553e 89ce 3f3e
000001f0: 4cc4 f13d 3153 b13c 1b61 4d3c 765c 84bd

fc1.weight f4 [32, 32]
0.20083822 -0.06036815 0.08913009 0.20889957 0.011950333 0.084925234 0.06598223 0.04502587
-0.03606831 -0.20314021 -0.016840708 -0.01848479 -0.070448026 0.008768781 -0.24551412 0.22542556
-0.11912241 0.09963082 0.012484732 0.18951781 0.009545942 -0.0012794376 -0.24326302 -0.025861835
0.0614329 -0.13310121 -0.12884995 -0.047527295 -0.07306644 -0.1422694 0.1460332 0.018286653
0.29714286 -0.011268515 0.1528459 -0.09580786 0.09502721 0.19491437 -0.22017545 0.108294524
0.020663684 -0.3054332 0.071868815 -0.21699803 0.14302894 0.17124291 -0.22765557 0.26299873
-0.1539746 -0.15221816 -0.14687075 0.22903048 -0.0031222515 -0.14999296 0.023552315 -0.2046921
-0.15622771 -0.13479555 0.24682952 0.18404238 0.20135434 -0.059773084 0.12838368 0.10759233
0.16992432 -0.0622075 -0.028056225 0.09563119 -0.09680442 0.004953897 -0.120515615 -0.15771388
-0.071059994 -0.0032165973 -0.06181384 -0.11605498 0.05514964 -0.09972161 -0.14525032 0.09702018
-0.08865373 -0.18356678 -0.07817617 0.20049362 0.07366166 -0.24200204 -0.02948426 -0.08266187
-0.04686668 -0.15187182 0.007403997 0.19435146 -0.059642255 -0.10622864 0.18578905 0.23693132
-0.0634531 0.050217252 0.08235764 0.09532029 0.19486079 0.019640457 0.0344941 0.19454117
-0.16862452 0.0866893 -0.0027448088 -0.12483731 0.086827844 -0.07108247 -0.09134979 0.10092997
0.019008322 -0.10458746 -0.20680158 0.18922192 0.18968852 0.035085842 0.12178265 -0.06088276
-0.17474191 0.105106845 0.14254834 -0.10509722 0.09216442 0.09839544 -0.18535066 -0.107684255
0.027616138 0.17026046 -0.079939745 0.075973645 -0.026645731 0.15483564 0.06950838 0.22351621
-0.22891617 -0.087604165 -0.07150842 0.10288293 0.006907186 -0.1356352 -0.23927094 -0.05684483
0.09401326 -0.18575007 -0.16353445 0.013336542 0.20937112 -0.0041704956 -0.22639917 -0.10909914
0.062847026 -0.11573518 0.0043439553 0.14413026 0.23184633 0.13678494 0.06889409 0.17311539
0.25078174 -0.0023631644 0.021479666 0.08595711 -0.07837725 0.006407735 0.074830204 -0.04454054
-0.052748464 -0.035600893 -0.06960708 -0.038747676 -0.13355717 -0.1048898 0.0018634046 -0.01826243
-0.22311816 -0.08901537 0.045105517 -0.057097178 0.075773574 0.11593721 -0.00021588194 0.056930088
0.18513507 -0.06634057 0.10605977 0.16774799 0.0891904 0.01844056 0.13120492 0.22713345
0.03855652 0.11377962 -0.008467245 0.11957175 -0.06313901 0.06556802 0.13673978 0.11677663
-0.019005256 0.13734184 0.13493979 0.103928484 -0.30611518 -0.2510361 -0.039283022 0.07377343
-0.2444679 0.018483402 -0.21900001 0.052737415 -0.0030730686 0.040864795 -0.18398373 -0.115907654
-0.03349417 -0.056992184 -0.17929043 0.05391309 0.044028286 0.042219885 -0.17273405 -0.1632488
0.011595736 0.10084308 0.25756365 0.14106081 0.045908064 0.15409717 -0.23455586 0.18298721
0.026664067 -0.21510413 -0.024690414 -0.020973671 0.18729904 0.21701954 0.005378159 0.22545533
0.19512433 -0.028634697 -0.17793456 0.17835774 0.038872015 -0.11024116 -0.13079113 -0.007438514
-0.20140561 -0.18986718 0.2642335 -0.045363072 0.02581223 -0.03124631 -0.040089563 0.06872936
00000000: 89a8 4d3e 9844 77bd d689 b63d c5e9 553e
00000010: 54cb 433c 48ed ad3d b121 873d 0c6d 383d
00000020: 5dbc 13bd fd03 50be 86f5 89bc 6a6d 97bc
00000030: 0e47 90bd efaa 0f3c 0e68 7bbe f5d5 663e
00000040: 73f6 f3bd 3e0b cc3d c38c 4c3c f510 423e
00000050: 9566 1c3c cdb2 a7ba f119 79be 33dc d3bc
00000060: 11a1 7b3d af4b 08be 3ef1 03be fbab 42bd
00000070: dca3 95bd 12af 11be ba89 153e e4cd 953c
00000080: 1c23 983e 949f 38bc a383 1c3e e936 c4bd
00000090: a09d c23d a297 473e ac75 61be 85c9 dd3d
000000a0: e346 a93c be61 9cbe f52f 933d bb34 5ebe
000000b0: 2e76 123e 4d5a 2f3e 8b1e 69be c5a7 863e
000000c0: 84ab 1dbe 14df 1bbe 4965 16be f786 6a3e
000000d0: b09e 4cbb c197 19be c9f0 c03c ce9a 51be
000000e0: 28fa 1fbe d807 0abe e1c0 7c3e 9b75 3c3e
000000f0: d52f 4e3e 9fd4 74bd 0377 033e 5e59 dc3d
00000100: a400 2e3e 4bcd 7ebd 2bd6 e5bc 49da c33d
00000110: 6541 c6bd 4d54 a23b e4d0 f6bd bf7f 21be
00000120: e787 91bd 8ccd 52bb 8230 7dbd 3cae edbd
00000130: 97e4 613d d83a ccbd 80bc 14be 84b2 c63d
00000140: 1690 b5bd eef8 3bbe d41a a0bd 334e 4d3e
00000150: eddb 963d 62cf 77be fa88 f1bc a04a a9bd
00000160: 47f7 3fbd 4984 1bbe 3a9d f23b 1204 473e
00000170: 704b 74bd 678e d9bd 7c3f 3e3e 209e 723e
00000180: b3f3 81bd 9bb0 4d3d 1fab a83d 4937 c33d
00000190: 9689 473e 06e5 a03c af49 0d3d cd35 473e
000001a0: e8ab 2cbe 298a b13d 40e2 33bb b4aa ffbd
000001b0: ccd2 b13d b093 91bd 9915 bbbd 5fb4 ce3d
000001c0: 57b7 9b3c f331 d6bd cbc3 53be 64c3 413e
000001d0: b53d 423e 2cb6 0f3d 2f69 f93d 3360 79bd
000001e0: 8bef 32be 4242 d73d 31f8 113e 363d d7bd
000001f0: b3c0 bc3d 8c83 c93d 90cc 3dbe 9089 dcbd
00000200: 3d3b e23c c258 2e3e 73b7 a3bd 1298 9b3d
00000210: 2648 dabc 3c8d 1e3e 695a 8e3d 6fe1 643e
00000220: 0069 6abe d069 b3bd 0273 92bd 49b4 d23d
00000230: ad55 e23b f4e3 0abe 7103 75be 20d6 68bd
00000240: 068a c03d 4435 3ebe 9375 27be 8381 5a3c
00000250: 6265 563e a7a8 88bb 2fd5 67be 5f6f dfbd
00000260: f1b5 803d 9106 edbd bd57 8e3b e296 133e
00000270: 2069 6d3e 5a11 0c3e 5818 8d3d 2945 313e
00000280: 7766 803e 52df 1abb 20f6 af3c 480a b03d
00000290: 4084 a0bd faf7 d13b 9440 993d 2470 36bd
000002a0: c60e 58bd 3ed2 11bd 288e 8ebd e2b5 1ebd
000002b0: 36c3 08be 77d0 d6bd 7c3d f43a 179b 95bc
000002c0: 1679 64be b14d b6bd 90c0 383d bbde 69bd
000002d0: 2d2f 9b3d 7d70 ed3d 5e5e 62b9 862f 693d
000002e0: 0c94 3d3e 91dd 87bd dd35 d93d 21c6 2b3e
000002f0: 75a9 b63d a810 973c 955a 063e ac95 683e
00000300: 71ed 1d3d 4a05 e93d 33ba 0abc 09e2 f43d
00000310: 064f 81bd 8748 863d 8305 0c3e 9628 ef3d
00000320: e9b0 9bbc 57a3 0c3e a82d 0a3e 75d8 d43d
00000330: 21bb 9cbe ce87 80be 3ce7 20bd 8616 973d
00000340: cb55 7abe 816a 973c 8a41 60be 3003 583d
00000350: 8965 49bb d861 273d 3b66 3cbe fe60 edbd
00000360: 2f31 09bd a370 69bd e997 37be f9d3 5c3d
00000370: 0157 343d c2ee 2c3d 32e1 30be b22a 27be
00000380: 0bfc 3d3c d186 ce3d 62df 833e 3f72 103e
00000390: 180a 3c3d a6cb 1d3e 692f 70be 0061 3b3e
000003a0: 9a6e da3c 4244 5cbe 8d43 cabc fad0 abbc
000003b0: 52cb 3f3e 5f3a 5e3e 453b b03b c3dd 663e
000003c0: acce 473e 5093 eabc 7a34 36be 69a3 363e
000003d0: 4338 1f3d 1ec6 e1bd 1cee 05be c7be f3bb
000003e0: 463d 4ebe 8b6c 42be 9d49 873e a1ce 39bd
000003f0: 2b74 d33c 43f8 ffbc f434 24bd fbc1 8c3d

fc1.bias f4 [32]
-0.10543041 0.15859734 0.16391979 0.06705157 0.23427483 0.015938742 0.028996343 0.054471508
-0.14441904 -0.016440332 -0.0815997 -0.07005189 0.17861407 0.07778629 0.014335826 -0.0052671516
0.034539845 -0.10599872 -0.10774529 0.11056053 -0.03823715 -0.08263516 0.013846505 0.08424699
0.14835651 0.09520548 0.17979284 0.17201172 -0.02701875 0.1212173 0.06855112 -0.021235533
00000000: e6eb d7bd 5767 223e 97da 273e 5552 893d
00000010: bee5 6f3e f791 823c bd89 ed3c 841d 5f3d
00000020: 96e2 13be e0ad 86bc be1d a7bd 5e77 8fbd
00000030: 9be6 363e 6b4e 9f3d d0e0 6a3c 1298 acbb
00000040: a779 0d3d db15 d9bd 90a9 dcbd 8f6d e23d
00000050: 8f9e 1cbd 9f3c a9bd 74dc 623c b089 ac3d
00000060: c5ea 173e 17fb c23d 9d1b 383e d723 303e
00000070: 6d56 ddbc c740 f83d 8864 8c3d 24f6 adbc

fc2.weight f4 [32, 32]
-0.15809797 -0.062303834 0.061654598 -0.08190947 0.1678177 0.01652873 0.13548622 -0.05629834
0.03149598 0.15014653 0.015553374 0.19472411 0.11452521 0.029707177 -0.015481126 -0.21548231
-0.115888774 -0.009875592 -0.08946734 0.018425073 0.022453072 -0.19020963 -0.16048183 0.14401874
-0.14354816 0.00755635 0.19403592 -0.09706871 -0.2014901 0.076101646 0.04125326 0.12242482
0.082753606 -0.03793975 -0.029726783 -0.053171914 -0.123688735 -0.08761801 -0.018189462 0.15381287
-0.021673068 -0.07450623 -0.023171557 0.010071537 0.013995999 0.077786304 -0.10724854 0.053218465
-0.078061044 -0.06432812 -0.039253384 -0.1575657 -0.16768147 -0.029939309 0.060375337 -0.16832547
-0.09543374 -0.16375631 0.12478489 -0.006903822 0.1367939 0.02957419 0.09900278 -0.17379838
0.24084601 0.010286472 -0.09826937 0.16373898 0.2037921 0.06348936 -0.006853788 -0.18884729
0.21482329 -0.004780382 0.05899526 0.23314844 0.11504065 0.17999521 0.10565217 -0.019264573
0.04197682 -0.10239563 0.16951366 -0.026557133 0.26890534 -0.14251058 -0.15837544 -0.030477524
0.24316615 0.113815755 0.15037426 -0.063081846 -0.1039944 -0.03856419 0.24099894 -0.1095275
-0.108739376 -0.071241476 -0.028511014 -0.05248665 -0.022611652 0.2150391 0.16579555 -0.18345492
-0.17055668 -0.026623162 -0.09496153 -0.08704939 0.12078603 -0.08399973 -0.1445856 0.07318746
-0.1088005 0.16266748 -0.05517211 -0.033952277 0.0075056413 -0.010771326 -0.01056049 0.12738368
0.17094593 0.046447836 0.18151799 -0.10072905 -0.015484141 0.04932772 -0.00083164684 -0.084665984
0.12519859 -0.11924449 0.16023374 -0.04782936 -0.06101808 -0.15694869 -0.15061733 0.09203567
0.11924576 0.16786228 -0.09574959 -0.05812103 -0.13532476 0.17358288 -0.028638087 -0.14406471
0.05137882 -0.11209435 -0.1049199 -0.12504908 0.09979589 0.16199867 0.11708272 0.06792184
0.08271169 0.006478961 -0.12774324 0.01111583 0.044606242 0.08572323 -0.14481361 -0.018984457
0.20841447 -0.010449399 -0.044494625 -0.03320211 -0.10753685 -0.1283132 0.05328064 0.0011136247
0.061376385 0.16920589 0.1360623 -0.04052092 0.19089857 -0.0047990805 -0.15399164 -0.21058455
-0.21006331 -0.006441148 0.11883007 -0.00433668 0.08068078 -0.12438468 -0.16689742 0.10393271
0.16641837 -0.07892896 -0.05653626 0.057559364 0.14694034 0.10933643 -0.15206201 -0.11160036
0.18548064 0.14624369 0.062023297 -0.055080816 0.14049876 -0.08502074 -0.11960326 0.07953319
0.14017482 -0.12509811 0.12472823 0.031406745 0.033760756 0.19823949 0.042313196 0.1333392
0.13096336 0.24688579 0.07024661 0.045179237 0.093872175 0.23546493 0.057979535 0.068584666
0.18830302 0.2452516 -0.11025404 0.15786093 0.00079245516 -0.19051088 0.072776556 0.106080994
0.18662903 -0.056530856 -0.012042373 0.050147966 -0.06802213 0.051172793 0.17279208 0.06373021
0.016459225 0.08584816 0.008684044 -0.032115508 0.04060264 0.14897275 0.109596804 0.11667821
-0.113325514 -0.077334896 0.023587953 0.101450674 0.044254404 -0.09880649 -0.12319131 0.09211317
0.03501154 -0.11333313 0.14838465 -0.19797938 -0.061893955 0.018565902 0.05159656 0.08939587
00000000: 6fe4 21be 4e32 7fbd 8889 7c3d 27c0 a7bd
00000010: 67d8 2b3e 4267 873c e6bc 0a3e 1799 66bd
00000020: ee01 013d 03c0 193e 94d3 7e3c c265 473e
00000030: 318c ea3d 775c f33c 8ca4 7dbc 65a7 5cbe
00000040: 1857 edbd 3ccd 21bc a73a b7bd 2ef0 963c
00000050: 81ef b73c 50c6 42be 5955 24be a679 133e
00000060: 4afe 12be 429b f73b 5ab1 463e f6cb c6bd
00000070: 6c53 4ebe 2edb 9b3d 2ef9 283d ddb9 fa3d
00000080: b97a a93d b666 1bbd 9585 f3bc cbca 59bd
00000090: 8550 fdbd 1271 b3bd 1102 95bc 1f81 1d3e
000000a0: b88b b1bc b996 98bd 47d2 bdbc 1703 253c
000000b0: 794f 653c 6d4e 9f3d 1fa5 dbbd 9bfb 593d
000000c0: 78de 9fbd 76be 83bd 28c8 20bd e758 21be
000000d0: b1b4 2bbe 4843 f5bc 214c 773d 835d 2cbe
000000e0: c472 c3bd bcaf 27be 388f ff3d 7539 e2bb
000000f0: b313 0c3e 9245 f23c f8c1 ca3d 34f8 31be
00000100: 56a0 763e 9788 283c 7441 c9bd 31ab 273e
00000110: e0ae 503e b606 823d be95 e0bb 2f61 41be
00000120: a3fa 5b3e c0a4 9cbb 04a5 713d 77be 6e3e
00000130: 6f9a eb3d aa50 383e 2a60 d83d bdd0 9dbc
00000140: e3ef 2b3d cdb4 d1bd fd94 2d3e 588e d9bc
00000150: f6ad 893e 4bee 11be 2c2d 22be 00ac f9bc
00000160: 8c00 793e 3c18 e93d b6fb 193e 0e31 81bd
00000170: 04fb d4bd 7cf5 1dbd 6dc8 763e f44f e0bd
00000180: c0b2 debd 0de7 91bd ee8f e9bc 3efc 56bd
00000190: 123c b9bc 3633 5c3e 4fc6 293e 9bdb 3bbe
000001a0: 69a6 2ebe d118 dabc 317b c2bd f346 b2bd
000001b0: ab5e f73d 0d08 acbd 3f0e 14be 4fe3 953d
000001c0: ccd2 debd 4e92 263e 27fc 61bd 8b11 0bbd
000001d0: e2f1 f53b 377a 30bc e805 2dbc de70 023e
000001e0: 730c 2f3e 1640 3e3d dadf 393e 084b cebd
000001f0: 32b1 7dbc dd0b 4a3d e002 5aba 5c65 adbd
00000200: 0f34 003e 7536 f4bd 5014 243e b8e8 43bd
00000210: 18ee 79bd 28b7 20be 6e3b 1abe 337d bc3d
00000220: 1f37 f43d 17e4 2b3e 5c18 c4bd 5110 6ebd
00000230: 9392 0abe b6bf 313e 6c9a eabc b385 13be
00000240: 9972 523d b991 e5bd 3fe0 d6bd de0c 00be
00000250: ca61 cc3d fbe2 253e 11c9 ef3d 9b1a 8b3d
00000260: bf64 a93d 774d d43b 20cf 02be 2c1f 363c
00000270: 09b5 363d a98f af3d 054a 14be 4b85 9bbc
00000280: 9a6a 553e f533 2bbc ff3f 36bd f0fe 07bd
00000290: 483c dcbd 8964 03be cd3c 5a3d 0bf7 913a
000002a0: ce65 7b3d 4f44 2d3e ea53 0b3e 44f9 25bd
000002b0: ea7a 433e 9b41 9dbb fcaf 1dbe 7aa3 57be
000002c0: d61a 57be 4410 d3bb 2e5d f33d b51a 8ebb
000002d0: f73b a53d 65bd febd 28e7 2abe acda d43d
000002e0: 9469 2a3e 82a5 a1bd 9192 67bd 5ec3 6b3d
000002f0: 8777 163e c7eb df3d 25b6 1bbe bb8e e4bd
00000300: a3ee 3d3e e8c0 153e 240c 7e3d 6c9c 61bd
00000310: e8de 0f3e 5b1f aebd 8ef2 f4bd 4ce2 a23d
00000320: fd89 0f3e b819 00be 8471 ff3d 5ca4 003d
00000330: b848 0a3d 4bff 4a3e 9a50 2d3d 128a 083e
00000340: 421b 063e a1cf 7c3e 74dd 8f3d dd0d 393d
00000350: 0e40 c03d b81d 713e f37b 6d3d 1e76 8c3d
00000360: 82d2 403e 3c23 7b3e dfcc e1bd 4ca6 213e
00000370: c4bc 4f3a 4915 43be e00b 953d fe40 d93d
00000380: ae1b 3f3e e68c 67bd 604d 45bc f467 4d3d
00000390: 304f 8bbd 909a 513d 68f0 303e fc84 823d
000003a0: 7fd5 863c 29d1 af3d 8547 0e3c 8d8b 03bd
000003b0: f44e 263d 508c 183e 4a74 e03d fcf4 ee3d
000003c0: 3517 e8bd c261 9ebd 863b c13c 5fc5 cf3d
000003d0: 1b44 353d 0f5b cabd ba4b fcbd d4a5 bc3d
000003e0: 4368 0f3d 331b e8bd 25f2 173e 1bbb 4abe
000003f0: 8484 7dbd 8517 983c ea56 533d 2f15 b73d

fc2.bias f4 [32]
0.15349415 -0.104908474 -0.08737829 0.15924051 -0.08082503 0.101414524 0.051987574 0.043424897
0.049022958 0.13202533 -0.13746059 -0.11669203 0.122397564 0.1546779 -0.044195633 -0.089226775
0.124361485 -0.081539296 0.0877751 -0.07927068 0.095715575 0.12307781 0.1536421 0.044576567
-0.13399428 0.032162536 -0.07720869 -0.14197482 -0.18014656 0.014640791 -0.02850148 -0.12712939
00000000: 922d 1d3e 41da d6bd 64f3 b2bd f20f 233e
00000010: 9887 a5bd 6bb2 cf3d ecf0 543d 4ede 313d
00000020: 4ccc 483d a631 073e 78c2 0cbe 3bfc eebd
00000030: 93ab fa3d e263 1e3e 7b06 35bd 87bc b6bd
00000040: 3cb1 fe3d 13fe a6bd 6ec3 b33d ab58 a2bd
00000050: 8706 c43d 3810 fc3d 5b54 1d3e eb95 363d
00000060: cc35 09be ddbc 033d 971f 9ebd d961 11be
00000070: 5778 38be eedf 6f3c f07b e9bc 352e 02be

fc3.weight f4 [4, 32]
-0.22297564 -0.0750397 -0.020856956 -0.11920356 -0.11752151 -0.040185682 0.24328646 -0.09054142
0.15324079 0.0717103 0.030954648 0.07307386 0.11938888 -0.019523 0.246403 -0.21933404
-0.02228706 -0.16364221 0.124163866 -0.042198922 -0.12101548 -0.16340958 0.19511332 0.15125272
0.13860658 0.114405006 -0.21474285 0.056187183 -0.06686479 0.1892507 -0.014711963 -0.044863738
-0.020385388 0.0875437 0.045928482 0.10950432 -0.12358248 0.09201281 -0.111952975 -0.03624933
0.14927615 -0.13548544 -0.13457415 -0.12450984 0.16243131 0.0025978785 -0.041750386 0.16843231
-0.22428161 0.1648816 -0.09665631 0.17561296 0.15145682 0.032253698 -0.20466828 0.126589
-0.1332352 -0.11735399 -0.16830482 0.02975922 0.056005478 -0.1059519 -0.07841202 0.0018691284
-0.18040563 0.014412536 -0.2842914 0.17555842 -0.10375715 -0.101774044 -0.017238393 -0.2050224
-0.14186938 0.041022796 -0.06535628 -0.1650576 -0.2576169 -0.106970794 0.0070619765 -0.15444793
0.23395559 -0.11077597 -0.124394536 -0.2287345 -0.12180966 -0.2423421 0.0155985365 -0.112639576
0.23276035 -0.20269822 0.30042726 0.07281567 0.023917638 0.14998813 0.27144703 0.041253716
0.12320185 0.13346347 0.12623556 0.04813294 0.12559667 0.18591252 -0.1782477 -0.059307963
-0.16002835 -0.09455016 0.03518166 -0.14935194 0.06346307 0.17516018 -0.24446183 0.18331316
-0.26644287 -0.018480023 0.08805774 0.047203954 0.073819324 -0.0041217986 0.03768252 -0.11172916
-0.20195316 0.21924092 -0.038862526 -0.005870189 0.06773315 -0.032585792 -0.22896786 -0.1416176
00000000: ba53 64be 6aae 99bd 35dc aabc ff20 f4bd
00000010: 1eaf f0bd be99 24bd 1620 793e c86d b9bd
00000020: 27eb 1c3e dadc 923d 9a94 fd3c bfa7 953d
00000030: 2882 f43d b3ee 9fbc 1151 7c3e 1a99 60be
00000040: 5a93 b6bc d391 27be a049 fe3d c7d8 2cbd
00000050: f7d6 f7bd d754 27be c9cb 473e fee1 1a3e
00000060: e2ee 0d3e 2c4d ea3d 8de5 5bbe 8824 663d
00000070: 68f0 88bd efca 413e 720a 71bc 0ac3 37bd
00000080: 42ff a6bc 1d4a b33d 811f 3c3d cd43 e03d
00000090: d018 fdbd 3671 bc3d 9a47 e5bd 2d7a 14bd
000000a0: d9db 183e b2bc 0abe cecd 09be 04ff febd
000000b0: 6554 263e 2b41 2a3b 7402 2bbd 8579 2c3e
000000c0: 14aa 65be b9d6 283e bef3 c5bd e2d3 333e
000000d0: 7f17 1b3e 741c 043d 9094 51be 8ca0 013e
000000e0: cf6e 08be 4a57 f0bd 1958 2cbe 9cc9 f33c
000000f0: 0066 653d 4ffd d8bd 7b96 a0bd 8bfd f43a
00000100: 41bc 38be 8f22 6c3c a48e 91be 96c5 333e
00000110: a17e d4bd e96e d0bd 8837 8dbc 64f1 51be
00000120: 3546 11be 8507 283d 83d9 85bd dc04 29be
00000130: 5de6 83be 8113 dbbd 2768 e73b 9927 1ebe
00000140: 0e92 6f3e 83de e2bd 90c2 febd 6039 6abe
00000150: 5877 f9bd 8728 78be 0191 7f3c 94af e6bd
00000160: bb58 6e3e 1f90 4fbe 9ad1 993e 6220 953d
00000170: ecee c33c 7d96 193e 1bfb 8a3e a8f9 283d
00000180: 4051 fc3d a6aa 083e e543 013e 0c27 453d
00000190: 6a9c 003e da5f 3e3e 9186 36be e8ec 72bd
000001a0: 79de 23be 84a3 c1bd a51a 103d b7ef 18be
000001b0: edf8 813d 315d 333e 3454 7abe 72b6 3b3e
000001c0: 336b 88be 6b63 97bc 9e57 b43d ef58 413d
000001d0: 962e 973d 2710 87bb fc58 1a3d 42d2 e4bd
000001e0: cfcc 4ebe b180 603e 502e 1fbd b75a c0bb
000001f0: aeb7 8a3d ae78 05bd 8d76 6abe 3404 11be

fc3.bias f4 [4]
-0.14901319 0.09155583 -0.08348406 -0.11497107
00000000: ea96 18be 9f81 bb3d b1f9 aabd f475 ebbd
