model/save/v7.2_2022-08-30_12-28/model.pt (torch, 753107 bytes, 14 tensors)

lstm.weight_ih_l0 f4 [256, 512]
000000 ab eb 35 3e ea bf 0b bd ab 17 1a bc 26 dd 80 3c
       0.17765681 -0.03411857 -0.009405057 0.015730452
000010 e0 3b 2a 3c a8 70 18 3d 82 54 c0 bb ee 68 2c 3e
       0.010390252 0.037216812 -0.005869449 0.16836902
000020 e7 46 69 bd 39 3c 19 bd bb 83 44 be c4 21 8f 3d
       -0.056952383 -0.03741095 -0.19190876 0.06988862
000030 9d 82 0e 3c 43 2c 87 bd 8c 4a 7e bd 16 12 c8 3d
       0.008698133 -0.06600239 -0.062082812 0.097690746
000040 a7 c4 e9 3d 7a c1 3e bd 07 65 5c bb 0b 47 8c bd
       0.114144616 -0.046571232 -0.0033629553 -0.06849488
000050 f9 29 4c 3e d2 ea 30 3d b5 43 1d 3e 55 e3 a5 3c
       0.19937886 0.043192692 0.1535786 0.020250002
000060 ed 72 bf bd 66 a9 dd bc 7e c3 ce 3d 93 49 a6 bc
       -0.09348092 -0.027058315 0.10095881 -0.020298755
000070 f4 36 42 bd 3f c6 32 3d 36 5d 01 bc 76 9a fc 3d
       -0.04741569 0.043646093 -0.007895758 0.123341486
000080 bf a4 af 3c 1a 8b b7 bd d5 55 1d be 76 64 a0 bd
       0.021440862 -0.089620784 -0.15364774 -0.078316614
000090 91 7b 2b 3c 6d 94 41 bc 91 28 6a bd 57 e0 5f bd
       0.010466472 -0.011815173 -0.057167593 -0.054657307
0000a0 c2 ff 4e ba a7 75 1e bc 05 a7 27 3e 92 15 01 bc
       -0.0007896387 -0.009671605 0.16372307 -0.007878678
0000b0 a9 01 ea 3d dc 96 82 3d 0c 90 09 3c 02 24 06 bd
       0.11426098 0.063764304 0.00839616 -0.032749183
0000c0 6b 8a 94 3d 1a 72 2e 3e 67 ae 85 bc a0 48 b5 3d
       0.07252964 0.17035714 -0.016318513 0.08851743
0000d0 29 88 9f bc 06 fb ad bc 94 1a 79 bd 52 50 3d 3e
       -0.019474106 -0.021237861 -0.060816363 0.18487671
0000e0 5c a4 a8 3c 56 5e e6 bc ce 6e 46 3d 46 84 74 3d
       0.020586185 -0.028121155 0.048445515 0.05969646
0000f0 36 87 0f be 6d 9d fc 3c 68 66 2f 3d e1 12 ff bd
       -0.14016423 0.030836785 0.04282227 -0.12454773
000100 30 fc 11 3e 01 2d 5f bd 20 f8 1b 3e 06 ad b3 bc
       0.14256358 -0.05448628 0.15231371 -0.02193309
000110 f1 c1 02 bd cf a3 0b 3e ad 59 4b 3e 58 46 1e 3e
       -0.03192324 0.13636707 0.19858427 0.15456522
000120 55 3b 76 3e fb 5b 0f 3e ff e5 a4 3d c0 3f 11 bd
       0.24046071 0.13999932 0.08051681 -0.035461187
000130 d6 f4 97 3d 24 76 24 bc 86 4b 32 3d c4 68 0d 3e
       0.074197456 -0.010037933 0.043529056 0.13809496
000140 f8 7f a0 3c 2c 59 03 3e e9 c5 ff bc 01 55 2b 3e
       0.01959227 0.12826985 -0.0312223 0.16731645
000150 35 a3 8a 3d 2f 24 75 3d f0 f2 bb 3c 6e 80 bc 3b
       0.067694105 0.05984896 0.02294299 0.0057526147
000160 11 d1 75 3d 72 b3 4f 3e 47 49 15 be 92 88 ce 3d
       0.060013834 0.20283297 -0.14578734 0.100846425
000170 1c 08 19 bd a3 74 41 3c 28 c3 a1 3d 68 0c 78 bd
       -0.03736125 0.0118075935 0.07898551 -0.060558707
000180 7c d0 8d ba 50 39 ab 3c 61 fc d1 3d fd e6 d5 bd
       -0.001081958 0.020901352 0.102532156 -0.10444448
000190 c5 c1 f2 3d e8 ee 0e 3d 59 6c 06 3e 8f 7c 7c 3d
       0.11853365 0.034895808 0.13127269 0.061642226
0001a0 e6 16 b3 ba 94 50 43 3d a9 d8 88 bc 57 34 ca bd
       -0.001366344 0.047684267 -0.016704874 -0.09873264
0001b0 53 1f 15 3d b5 bc 92 3d 0b d3 90 3d 36 d9 a8 3b
       0.036406826 0.07164899 0.07071503 0.0051528467
0001c0 fb 6b 6c bc 17 39 68 bd 43 b5 09 3c 68 d7 10 3e
       -0.014430041 -0.05669507 0.008405033 0.14144671
0001d0 5b e8 bc 3c 7a 6e 0f bd 6d a1 ab bc 82 a4 19 bd
       0.023060014 -0.035017468 -0.020950997 -0.037510403
0001e0 8e 0f e4 3d f5 1c ff 3c bc 2d 0d bd 4e 6b d8 3b
       0.11135779 0.031141737 -0.034467444 0.0066045886
0001f0 fd eb a8 3d 0b 54 ec bd b9 62 22 3d d1 48 cc 3c
       0.08248136 -0.115394674 0.03964493 0.024937065
000200 f0 34 d8 bb 99 82 42 bd 91 99 01 bd 8e e2 ca bc
       -0.0065981075 -0.04748783 -0.031640593 -0.024766233
000210 0e 7b c1 bc a0 b8 ab 3d 83 09 0b 3e e6 25 36 3c
       -0.023618247 0.08384824 0.13577847 0.011117434
000220 f0 e3 ea 3d 3a 9b 04 be 54 39 09 3d 71 8f a0 3d
       0.11469257 -0.12949839 0.033501938 0.07839859
000230 0a 40 25 3e e0 d5 ad bd 60 8a a1 3d 5a 6f 9a bd
       0.1613771 -0.08488059 0.07887721 -0.0754077
000240 36 42 dd bd 2e 89 88 bd 08 8d c8 3d 7d 37 aa bc
       -0.10803644 -0.0666679 0.097925246 -0.020778412
000250 28 92 16 bd 74 6c be bd e0 6f 08 3e e6 19 0f bd
       -0.03676048 -0.092980295 0.13323927 -0.034936808
000260 53 65 a8 3d 39 98 80 3c dc d9 fb bd 2f 65 1f 3e
       0.08222451 0.015697585 -0.12297413 0.15565942
000270 3b b4 99 3d 07 3b 11 3d b5 bb af 3d 23 fb 11 3e
       0.07505079 0.035456683 0.08580724 0.14255957
000280 69 23 3c bc 90 6c cd bd ee 7a 2c 3e 83 15 24 3e
       -0.011483052 -0.10030472 0.16843769 0.16023831
000290 5c 75 15 bd fd af f5 bc 42 a6 ba bc f1 6d 7e ba
       -0.036488876 -0.029991144 -0.022784356 -0.00097057136
0002a0 a4 6f b8 3c 54 bb 2e 3e 7d 0d ac bd a2 ff 90 3d
       0.022514172 0.17063648 -0.0840101 0.07080008
0002b0 35 6d af 3b e2 04 45 ba 97 db d9 bd d4 56 53 bd
       0.0053535947 -0.0007515681 -0.106375866 -0.051596478
0002c0 fc 48 c8 3c eb 56 9e bd 38 14 31 3e 4a db 05 be
       0.024448864 -0.07731422 0.17292869 -0.13071933
0002d0 d3 e0 20 3e d0 f3 42 3d e7 a8 1f 3d 19 2d 4c bb
       0.15710764 0.0475958 0.038979437 -0.003115481
0002e0 e3 5f 5f bc 3a cd 2b 3e 6d 30 8c 3d 51 a4 69 bd
       -0.013633701 0.16777506 0.06845174 -0.05704147
0002f0 aa cb 8b bd 27 91 02 3c 64 e7 d2 bd 2c 09 b3 3d
       -0.06825955 0.007969177 -0.102980405 0.08741984
000300 8a e6 84 3d a6 c3 24 3e 27 c6 9e bd 17 da 41 3d
       0.06489284 0.16090259 -0.07752638 0.047327127
000310 ac 17 5e bd a0 2c c4 3d 57 c9 e9 bc 2a 91 c3 3d
       -0.054221794 0.09578824 -0.02853839 0.09549172
000320 03 bf b2 bd f6 0c cc bd da a4 ea 3d 40 ef 80 bd
       -0.08727839 -0.099634096 0.11457224 -0.06295633
000330 4d 1a 20 3e 2f d0 f3 bc f5 62 e4 3d e4 f0 d2 3d
       0.15635033 -0.029762356 0.11151687 0.102998525
000340 31 92 0c bd fd 14 96 bd f2 41 46 bd dc b5 ee 3c
       -0.034319106 -0.07328222 -0.048402734 0.029139452
000350 68 7a 2b 3e 08 0b 15 be 80 29 01 bd 40 cb 44 bc
       0.16745913 -0.1455499 -0.031533718 -0.012011349
000360 ff 88 d0 3d 0b c2 e5 3c 1e d1 4c 3d 95 c3 e6 bd
       0.1018238 0.028046628 0.050004117 -0.11267773
000370 aa 80 39 3e cd 6a d6 bc 14 82 11 3d 36 d7 03 3d
       0.18115488 -0.026173973 0.035524443 0.032187663
000380 cb 97 fa 3d a5 4b a9 bc 48 7b 8d bb 84 a3 df bd
       0.122359835 -0.020665953 -0.004317675 -0.1091986
000390 e2 28 98 bd 86 7a b2 3d 6a 9d d4 bd 37 b0 19 3d
       -0.07429673 0.08714776 -0.10381587 0.037521567
0003a0 fc b0 9b 3d f4 9b c8 bc 0d 27 63 3d 5b 4e b9 bd
       0.076021165 -0.024488427 0.055457164 -0.09048148
0003b0 f7 8d c8 bd af 18 fd 3d dc 7d 06 bd cb cb 40 bc
       -0.09792703 0.12358224 -0.032834873 -0.011767338
0003c0 b5 98 8b 3d 94 75 93 3b c7 f1 88 3c 9f a7 75 3c
       0.06816236 0.0045001004 0.01671685 0.014993577
0003d0 be 5a e5 bc c5 f6 20 3e e5 ff 95 3d 35 b2 0c 3e
       -0.02799737 0.15719135 0.07324199 0.13739856
0003e0 9c 53 7b bd 0e 38 95 bd 84 26 c2 3d fb 14 32 bc
       -0.061359033 -0.07286082 0.094800025 -0.01086926
0003f0 ab 91 bf bd 96 37 f6 3d d9 e2 04 bc e4 b2 48 bd
       -0.09353956 0.12022321 -0.008110725 -0.04899873

lstm.weight_hh_l0 f4 [256, 64]
000000 52 25 c7 bd 3e 32 d2 bc f6 3a 2e bd f4 f1 cc 3d
       -0.09723915 -0.025658723 -0.0425367 0.100070864
000010 1d 27 29 bd a0 be fd bd 60 e4 c9 3d 1c a6 eb 3c
       -0.041297067 -0.123898745 0.09858012 0.02876573
000020 ea 23 04 3e 5a fc 2e 3d dd 7f 0b ba c0 8e 6e bd
       0.12904325 0.04272113 -0.00053214823 -0.058241606
000030 e7 34 ea 3c 7e b6 8d 3d 3c 74 8a bd 56 97 4f bd
       0.028589679 0.06919573 -0.06760451 -0.050681435
000040 ee 09 d4 bd 31 cb b9 3d 0b 79 91 3b 22 ba b5 3d
       -0.103534564 0.09071959 0.0044394783 0.08873393
000050 c4 de 7e bd cb 0d bb bd 1a 61 04 3e 23 9e 01 be
       -0.062224165 -0.0913349 0.12927666 -0.1265798
000060 97 04 93 bc ad 7e 81 bd 36 e9 ea 3d 24 cd 66 3d
       -0.017946525 -0.063229896 0.11470263 0.05634798
000070 65 07 cb bd 0f 7d 92 3d e4 9a b5 3d af 94 c3 ba
       -0.0991352 0.07152759 0.08867434 -0.001492163
000080 ee 41 5d 3c 8f 47 ae 3d 06 24 d7 bd 71 0b 85 3d
       0.013504488 0.085097425 -0.10504918 0.06496323
000090 a5 cf df 3b 05 f7 f4 3d 7d 08 b8 bc b5 29 bf bc
       0.006830173 0.11961178 -0.022464985 -0.023335317
0000a0 1c 43 9c bd ab 72 c5 bd 8d 19 8a 3c 9e 75 41 bd
       -0.076299876 -0.09641012 0.016857887 -0.04723131
0000b0 03 07 d2 bd 03 48 de ba 3a e5 0c 3d 45 ae 41 bd
       -0.10255244 -0.0016958717 0.034398295 -0.047285337
0000c0 2d 6c c5 3d b2 65 95 3d 45 c9 c5 3d 76 ef ab bd
       0.096397735 0.072947875 0.0965753 -0.08395283
0000d0 38 fb a0 3d 21 14 a3 3d 21 b3 42 3d 9b 6e d7 3d
       0.07860416 0.07962824 0.047534112 0.10519143
0000e0 30 e5 ca bd 7a 1e 97 3b a8 01 a8 bc f2 b9 50 3c
       -0.09906995 0.0046117874 -0.020508602 0.012739645
0000f0 83 67 92 3c 5c df 74 bd ab 49 01 3e 4b 51 3a 3c
       0.017871624 -0.059783325 0.12625758 0.011371921
000100 6c da 8b bd e9 b9 16 bd 26 f6 b1 bd 3b 7c 48 bd
       -0.0682877 -0.03679839 -0.08689527 -0.0489466
000110 df c0 3b 3d 14 53 2e bd 78 2d 4c bd a8 65 06 3e
       0.045838233 -0.0425597 -0.04984805 0.13124716
000120 af c8 e2 bc 34 2c c7 bc d3 7f d3 bc d2 f1 d6 3c
       -0.027683584 -0.02431307 -0.025817787 0.026238356
000130 7c 7e d1 3d b3 ee 64 3d dc 3a 18 3c 5f 29 da 3c
       0.10229203 0.055891704 0.009291377 0.026631055
000140 73 07 ce bd 93 5c e2 3b f0 ca 7f bb 58 10 85 3d
       -0.100600146 0.0069080084 -0.0039030872 0.06497258
000150 d9 d6 76 3c 6e 7e 92 bd b6 db 4a bd 0f 49 cb bd
       0.015065872 -0.07153021 -0.04952594 -0.09926044
000160 fc 63 68 3d 35 4e a6 bd 39 f7 8a 3d 8c 6b 62 bd
       0.056735978 -0.081203856 0.06785435 -0.055278346
000170 c0 ee 1b 3e 68 1e e7 3d 76 1c 1f be d9 43 05 be
       0.15227795 0.112850964 -0.155382 -0.13014163
000180 4e 31 d5 bd b1 1e e0 3d bc 35 11 be f0 03 3c 3b
       -0.10409795 0.10943354 -0.14180654 0.002868887
000190 12 ad 53 bc 58 b0 0c 3c 8e 03 30 3e 03 6e bd 3c
       -0.012919681 0.0085869655 0.17188856 0.023123747
0001a0 b1 fe e2 3d 06 55 02 be a2 2b 45 3d 3e f2 42 bd
       0.11083735 -0.12727746 0.048137315 -0.0475943
0001b0 0d b4 b2 3c ca 54 2a bb ab 67 0a be 90 55 b0 bd
       0.02181437 -0.002599048 -0.13516109 -0.0861007
0001c0 91 36 21 3d 34 2f 6b bd 0d 2a 10 3e 87 62 07 3e
       0.03935868 -0.057418063 0.14078541 0.13221179
0001d0 df 9a cf bd bc 96 8d bd 03 f1 64 3b 07 2a f5 bb
       -0.10136961 -0.06913516 0.0034933693 -0.0074818167
0001e0 aa 83 72 3d 76 1c 8b bd 4f 6a c3 3d bb 2e 76 3d
       0.059207596 -0.06792538 0.09541761 0.06010316
0001f0 c2 06 b7 3d 69 9d f2 3c 80 ce bb bd 08 01 08 3e
       0.08936836 0.029616075 -0.09170246 0.13281643
000200 53 be 6a 3d f5 ae a6 bd ce 28 0e 3d f4 2b 5a 3d
       0.057310414 -0.08138839 0.034706883 0.053264573
000210 1f 01 ee bd 43 e6 20 3c 17 d2 30 bc 2e e6 05 3e
       -0.116213076 0.009820524 -0.010792277 0.13076088
000220 d9 f3 85 3d 5b 5d 8b 3d 46 7c 64 bd 38 5c 06 be
       0.06540651 0.068049155 -0.05578258 -0.13121116
000230 7e 0f ac bd 68 17 a7 bd a4 8e 8c bd 57 a5 63 3d
       -0.084013924 -0.08158761 -0.06863144 0.055577602
000240 a5 b6 d4 bd c2 5a d8 3d 32 4c 8a bd d7 38 09 3d
       -0.10386399 0.10564186 -0.06752814 0.033501472
000250 34 9d dd bd a0 12 d5 bd e9 3e 2a bd ba a3 f7 bd
       -0.10821 -0.10403943 -0.041563902 -0.12091775
000260 79 f6 85 bd 37 11 b8 bd e5 8b 97 bc 51 93 a8 bd
       -0.065411516 -0.089876585 -0.018499324 -0.082312234
000270 14 60 6a bc 50 59 b5 3d f8 96 26 3d 7b d6 fd bd
       -0.014305133 0.08854926 0.04067132 -0.123944245
000280 a6 f1 c1 bd 8f 33 50 3d fb 32 47 3d f7 9c c2 3b
       -0.09469919 0.05083042 0.048632603 0.005939122
000290 3f 00 cc bb c5 09 ca bc 46 a9 b9 bd 34 18 9f 3d
       -0.0062256153 -0.024662862 -0.090654895 0.07768288
0002a0 17 4a 85 3d a4 18 8b bd 7c 6c 3f 3b 2f 79 bf 3d
       0.06508272 -0.06791809 0.0029208949 0.09349286
0002b0 77 cf 63 3c fa 0d 92 bd d7 14 0f be ba ad 2d bc
       0.013904444 -0.07131572 -0.13972794 -0.010600502
0002c0 e3 c9 b0 3d 8e d5 98 bd 7f 2d c9 3c b0 71 9a 3b
       0.08632257 -0.07462607 0.024557827 0.0047132596
0002d0 5d fd 91 3d 63 e3 6d bc 82 7a 8d 3d c1 ae de 3d
       0.07128403 -0.014519545 0.06908132 0.108731754
0002e0 40 bf 18 bb 51 58 c9 3d ad 0d 1e bd be 67 dc 3d
       -0.0023307353 0.09831298 -0.03858726 0.10761975
0002f0 aa c3 aa bd bf a3 ee 3d 66 86 80 bc 0a 73 c6 3d
       -0.08338101 0.11652326 -0.015689086 0.09689911
000300 21 24 28 bd 06 e6 32 3d 37 54 83 bc 95 ad 28 be
       -0.04105008 0.0436764 -0.016031368 -0.16472466
000310 08 46 ef 39 f8 d1 46 bd e8 29 65 3c bb 04 b6 bc
       0.0004563781 -0.048540086 0.013987042 -0.022219053
000320 78 e6 f2 bd d8 63 16 3e c1 ea 40 bd 0b fc a5 bd
       -0.11860365 0.14686525 -0.04709888 -0.08104714
000330 1c 37 7c bd b7 88 45 3d d8 1c 86 bd bc 12 c7 3d
       -0.061575994 0.048226085 -0.0654847 0.0972037
000340 3f 76 88 3d af 7a 5a bd fb 7d bb 3c 65 77 1a 3e
       0.06663179 -0.053339656 0.02288722 0.15084608
000350 36 e5 a1 bd 27 e4 b0 3d 85 7b 8b bd 76 b3 10 be
       -0.07905047 0.086372666 -0.06810669 -0.14130959
000360 81 48 b1 bb 69 01 55 bb 1a 5c 05 3e 99 4b 96 bd
       -0.0054102545 -0.0032502061 0.13023415 -0.07338638
000370 42 d3 c2 3d 0e 16 c7 3d ea 28 1c bd b0 fa 1b be
       0.095129505 0.097210035 -0.038124956 -0.15232348
000380 28 bc c6 bd d5 99 e6 bd c4 c8 c7 bd a2 27 af 3d
       -0.09703857 -0.1125981 -0.0975509 0.08552481
000390 f5 71 a6 3d c1 53 f4 bc e0 06 a6 bd 5c ba 0d be
       0.08127204 -0.029825093 -0.0810678 -0.13840622
0003a0 e0 ad b0 3d 6c 48 58 3d f2 33 e1 3d e1 7d 09 3e
       0.08626914 0.052803442 0.10996236 0.13426925
0003b0 a8 2e fe 3d e5 8c 47 3d ea 57 c0 bd b5 c0 9c bd
       0.12411243 0.048718352 -0.09391768 -0.076539434
0003c0 58 26 fe bc 66 28 00 3d 86 dd 6e bc 28 ae 67 bd
       -0.031024143 0.031288527 -0.0145791825 -0.056562573
0003d0 7f 64 cd bd 15 0b a1 bd 72 65 0d 3e b0 44 83 bd
       -0.10028934 -0.07863442 0.1380823 -0.064095855
0003e0 45 dd 45 3b 1a 12 30 bd 17 15 9e 3d 61 ff 34 3c
       0.0030191701 -0.042986013 0.07718866 0.011047215
0003f0 f2 9e be 3c bc c8 c0 3d af e7 99 bc b2 d6 ae bd
       0.02326915 0.09413287 -0.018787233 -0.08537044

lstm.bias_ih_l0 f4 [256]
000000 46 80 a6 3d 3e da d9 bc 98 f3 97 3d 86 8a ce bd
       0.08129935 -0.026593324 0.07419509 -0.10085015
000010 03 8c 38 bd 5a d4 b7 bd b2 51 72 3d d3 02 53 3e
       -0.0450554 -0.0897605 0.059159942 0.20606546
000020 19 ef f6 3d 0f 97 46 bc ac 21 78 bc 10 2c a4 3d
       0.12057323 -0.012120976 -0.015144747 0.08016217
000030 b2 c8 dc 3d 51 32 bb bd 0a 72 91 bd 4c 7c 90 bd
       0.10780467 -0.091404565 -0.07101829 -0.07054958
000040 e7 a6 a7 3c ee bc 4c 3d 94 54 84 bd 07 3a 4d 3d
       0.020465327 0.049984865 -0.064614445 0.050104167
000050 03 d7 b9 3d fc 35 c4 3d 4f 78 ed 3d 23 37 84 3c
       0.09074213 0.09580609 0.11595213 0.016139572
000060 39 66 9f bd 01 5a 61 bd 60 61 e5 3d d5 19 d6 bd
       -0.07783169 -0.055017475 0.112002134 -0.10454146
000070 bd e1 d9 bc ad 68 4a bd 73 c7 99 3d b8 ff 7a 3c
       -0.026596898 -0.049416233 0.07508745 0.015319757
000080 98 8f ac 3d 5c 27 80 3d 10 5e 06 3e 55 16 03 3c
       0.08425826 0.06257507 0.1312182 0.00800093
000090 63 0c 09 3e 0d be 2d b7 06 01 0b 3e 6b 3f be bb
       0.13383631 -1.0355853e-05 0.13574609 -0.0058059
0000a0 25 34 e7 3d 9a ec 1c 3b b4 2c 91 bd de 84 f9 3c
       0.11289243 0.0023944736 -0.070886046 0.030458864
0000b0 25 77 0c 3e 1f ae 78 bd 02 1c 4d bc c2 3c aa 3d
       0.13717325 -0.06071293 -0.012518885 0.0831237
0000c0 78 f0 48 3d 2e e3 70 3d 5c aa 4c bc 51 04 33 3e
       0.049057454 0.058810405 -0.012491789 0.17482115
0000d0 e7 7a 1b bd ae a6 66 3d e3 bc b9 39 bf 4c 82 3d
       -0.037959006 0.056311302 0.0003542668 0.063622944
0000e0 f2 97 18 3e 9c d0 53 bd b9 f5 f9 3d 6a 61 87 3d
       0.14901713 -0.051712617 0.12205071 0.06610377
0000f0 04 0f 2c 3d 72 da c0 bd 05 46 28 3d 4b d9 fc 3d
       0.042006508 -0.09416665 0.0410824 0.12346133
000100 d3 28 49 bd 29 bd a6 bd bb b3 17 3e d9 79 c0 3d
       -0.0491112 -0.08141548 0.14814655 0.093982406
000110 9f e1 01 3e 4f be 38 bd 4e 22 68 bc 4e 86 06 bd
       0.12683724 -0.045103367 -0.014168335 -0.032842927
000120 24 c6 8c 3d b6 69 ca 3d 01 f3 ab 3d af e5 9a bd
       0.0687373 0.09883444 0.08395959 -0.0756334
000130 56 2a dc 3d 75 58 f6 3c 2e dd 01 3e dd e7 e9 3a
       0.107502624 0.030071476 0.1268203 0.001784559
000140 a0 c6 fa 3b 47 74 bb 3d 69 ed 7b bd fc bb 48 3d
       0.0076530725 0.091530375 -0.06150571 0.0490074
000150 4e 6b 87 3c 34 2a 87 bd 69 23 18 3c 2f ee 08 bd
       0.016530659 -0.065998465 0.009285786 -0.033430275
000160 fb 7b 4f 3d 9f fc 8c bd 85 dd ba bd 52 de 99 bc
       0.050655346 -0.06884121 -0.09124283 -0.018782768
000170 a5 e5 a8 3d 66 00 cb bd 7c 7b c3 bd 5d 1a e1 3d
       0.08246926 -0.09912185 -0.09545037 0.109913565
000180 db 19 ca 3d 71 9a 1c 3e b9 ed 6d 3d 22 64 2a 3d
       0.09868213 0.1529329 0.058088038 0.0415994
000190 9f 91 0c 3d 27 be b9 3d 53 d1 6f bd 39 b9 1d bd
       0.034318563 0.09069472 -0.058549237 -0.03850672
0001a0 3d 60 80 bc 55 7a 19 3e 7d 22 0a 3e 0b d1 9f 3d
       -0.01567089 0.14988072 0.13489719 0.07803544
0001b0 cc 86 20 3d 81 72 b3 3c 2e 16 08 3e 80 95 b0 3d
       0.039191052 0.021905186 0.13289711 0.08622265
0001c0 5f ad 91 3c 03 25 86 3d 3d 4c ab 3d db db 76 bb
       0.017782865 0.06550028 0.08364151 -0.0037667665
0001d0 05 35 1f 3c ab 6d dc 3d 01 ea fd 3d 74 98 9f bd
       0.009717231 0.10763105 0.12398148 -0.0779275
0001e0 f9 96 b0 3c ce f3 3f bc a1 54 37 3d 3a 5b 10 3e
       0.021556364 -0.011715842 0.044758443 0.140973
0001f0 d5 e5 7e bd d2 de 9b 3c 30 5e 11 3d 22 72 24 bd
       -0.062230904 0.019027147 0.035490215 -0.040147908
000200 98 7a 70 bd 0a 53 b6 3d 96 d9 6c 3d 64 08 07 3d
       -0.058710665 0.08902557 0.057824694 0.032966986
000210 8a f6 3a bc a0 30 05 be 4a 14 e2 bc db 1b a8 bc
       -0.011411319 -0.1300683 -0.027597565 -0.020521095
000220 e6 a3 8f 3d 9f 80 7e 3d 0d f9 a0 bd b5 7b d0 3d
       0.07013683 0.06213438 -0.07860003 0.10179845
000230 90 26 af 3d 84 72 c9 bc 81 29 f5 3c ed 91 ef bd
       0.08552277 -0.024590738 0.029927017 -0.11697755
000240 96 8f b6 3c 03 ae e1 3c 61 ec a1 3d d9 dc aa bc
       0.022285264 0.027548796 0.07906414 -0.020857261
000250 c1 2c 97 bb 03 31 b7 3d a7 bf d9 bd 79 fd a7 bd
       -0.0046134894 0.08944895 -0.10632258 -0.08202643
000260 9a 7b 0c 3d 44 74 c5 bd b5 6e 59 bc 3b 41 d0 3c
       0.034297563 -0.096413165 -0.0132710235 0.02542173
000270 e3 52 09 3e ec 19 b5 3c 0b e5 5e bc aa 2c 1e 3d
       0.13410525 0.022107087 -0.013604413 0.038616814
000280 6d 1b d3 bd 73 74 2e bd fd e5 aa bc 9e 3f 9e bd
       -0.103079654 -0.042591523 -0.02086162 -0.07726978
000290 16 88 ad 3c 30 cd c1 bd 5b 2c e8 ba 28 a3 d8 bd
       0.021183055 -0.094629645 -0.0017713414 -0.105779946
0002a0 3d 59 6e 3d 01 1c a5 bd 6e 26 85 3d 91 03 28 3c
       0.058190573 -0.08061982 0.065014705 0.010254757
0002b0 83 7c e8 bb 92 05 0a 3d 1c 36 91 3d aa fa a8 3d
       -0.007094921 0.03369672 0.07090399 0.082509354
0002c0 95 02 99 bd c3 13 27 3b 26 2d 84 bc 0f 47 a9 3d
       -0.074711956 0.0025493957 -0.01613481 0.082655065
0002d0 f0 fa 9b bd 06 29 dd 3d 3d be be 3d 36 44 ce bd
       -0.07616222 0.1079884 0.09313629 -0.10071604
0002e0 f2 79 6a bd b6 b4 dd 3c 53 14 b5 bd 3b 48 ab 3c
       -0.057245202 0.027063709 -0.08841767 0.020908466
0002f0 4f 6e b2 3c a7 29 82 bd e5 fa dd bd af 49 f6 3d
       0.021781115 -0.06355601 -0.1083887 0.12025773
000300 a4 f8 ca bd b1 e1 61 3c bc 7c 9c 3c 3f a5 41 3a
       -0.09910706 0.013786719 0.019102447 0.00073869893
000310 1c ff 12 3e e5 80 a3 bd d2 3c b3 bd b1 fe e8 3d
       0.14355129 -0.07983569 -0.08751835 0.113767035
000320 f1 aa cb 3d d8 0f ca 39 9d 8f 70 bd b0 22 8f bc
       0.09944714 0.00038540247 -0.05873071 -0.017472595
000330 3a 5d 24 3d ba 90 8d bd 29 f3 c4 3d a1 82 42 bd
       0.04012797 -0.0691237 0.096166916 -0.04748786
000340 d7 ee 0a 3e 16 78 3e 3b 8e 43 a3 3d 08 2a 21 3d
       0.13567673 0.0029063276 0.079718694 0.039346725
000350 2d 4d 12 3e bd 27 0a bb e4 48 1d bd ab 3e cf 3d
       0.14287253 -0.0021080815 -0.038399592 0.10119375
000360 1d ad 08 3e 53 68 ee 3d 87 2d fb 3c 10 26 19 3e
       0.13347287 0.11640992 0.030661358 0.14955926
000370 4e 34 e6 3d dc 10 d9 3d c0 03 7c 3d 5c 36 d6 39
       0.11240445 0.10598919 0.061527014 0.00040857762
000380 24 e2 68 3d 71 db 6f 3d 20 4b 0a 3e 71 c8 18 bd
       0.05685629 0.058558885 0.1350522 -0.03730053
000390 ff cf 5c 3d ec c1 2e bd 89 92 1a 3e b2 64 b5 3c
       0.053909298 -0.042665407 0.15094961 0.022142742
0003a0 35 ee 01 3e 7e 34 d4 3d f1 c9 84 bd 67 c4 8f bd
       0.12688525 0.103615746 -0.0648383 -0.07019883
0003b0 33 ab e2 3d 62 7f a0 bc c2 5c 10 3e 28 e3 fb 3d
       0.1106781 -0.01959199 0.14097884 0.12299186
0003c0 70 42 7b 3d e6 c5 d1 3d d7 d9 08 3e 56 b5 f0 3d
       0.061342657 0.10242824 0.1336435 0.11753337
0003d0 ff 09 35 3d 74 1d 78 3d ff 65 ce bd 93 b3 13 bd
       0.044198986 0.060574964 -0.10078048 -0.036059927
0003e0 50 93 6e 3d 44 fd e2 3c 6a 22 55 bd 25 ef bc bd
       0.058245957 0.027708657 -0.052034773 -0.09225301
0003f0 28 84 6a 3c 78 be 3f 3d 1c cb fe bb 22 54 05 3e
       0.014313735 0.046812505 -0.0077756774 0.13020375

lstm.bias_hh_l0 f4 [256]
000000 37 4d 88 3d 53 dc b0 3d f5 c2 ad bd 0e 95 12 3e
       0.066553526 0.086357735 -0.08484451 0.14314672
000010 8a a2 c8 3d a5 dd 0d 3e bd e1 1a 3b 1d d3 69 3e
       0.09796627 0.13854082 0.0023633086 0.2283444
000020 21 12 01 bd 83 d5 f9 3d e9 6e d8 3c 8f 3a f0 3d
       -0.03151143 0.12198927 0.026420074 0.11729919
000030 f5 97 f6 bc a1 ae a2 bc 59 6b d1 3d e0 28 fc 3d
       -0.030101756 -0.01985866 0.10225553 0.12312484
000040 54 c3 f4 3d 56 5c cb 3c ab 8c bf bc 3e 99 f2 3d
       0.119513184 0.024824303 -0.023382505 0.11845635
000050 2c 99 98 3d 07 6d c9 3d 0b 7f d9 3d a9 f2 a4 3d
       0.0745109 0.098352484 0.10619935 0.08054096
000060 73 f3 fe 3c d9 42 94 bd 8a ca f5 3d 0d 03 00 3e
       0.031121945 -0.07239313 0.12001522 0.12501164
000070 dd a8 ab 3d 0d cf a7 bd 12 cc 2c bc 58 7a b8 3d
       0.083818175 -0.08193789 -0.010546701 0.0900771
000080 78 85 96 bd 56 8e 8a bd f4 33 44 ba 22 ab 78 bd
       -0.07349676 -0.0676543 -0.0007484548 -0.06071008
000090 c1 67 c6 3d f8 cf a2 3c 30 e8 93 3d 82 c5 c4 bb
       0.09687758 0.019874558 0.072220206 -0.00600499
0000a0 cc e9 87 3d cb ba 8b 3d 7e d5 ea 3d 14 9b 14 3d
       0.0663639 0.06822737 0.11466502 0.036280707
0000b0 87 08 9f 3d fd 5e 24 bc f9 44 20 bd 13 b1 2a 3e
       0.07765298 -0.010032413 -0.039128277 0.16669111
0000c0 5c 7c a2 bd bd cd 57 bd 52 d6 ba 3d ff 5e c1 3d
       -0.07933876 -0.05268644 0.091229096 0.09441947
0000d0 30 d5 a0 3c 97 7a 4b ba 3a de fc 3d 8a 10 88 3d
       0.019632906 -0.0007762103 0.12347074 0.066437796
0000e0 79 91 3d bd 19 ea a9 bc cd ee d7 3d 6c 67 68 bc
       -0.04628131 -0.02074151 0.105435945 -0.014184814
0000f0 76 f4 d5 3c a8 91 92 bd a0 ab 85 3d 97 87 9d 3c
       0.026117545 -0.07156688 0.065268755 0.019229693
000100 18 60 07 bd 0d 7b 9b bd c3 74 b4 bd 2f 02 af bb
       -0.033050627 -0.075918294 -0.08811333 -0.0053408365
000110 50 60 10 3c 5a 2e 05 3e e6 78 06 bc 06 38 2f 3e
       0.008812025 0.13005963 -0.008207535 0.17111215
000120 80 cd 98 3c c2 fd b8 3d 9e 9b 6f bd 63 4a d9 3d
       0.018652678 0.090327755 -0.058498017 0.10609891
000130 ff 22 96 bc b3 75 08 bd f9 90 8a 3c 7b 89 96 3c
       -0.018327234 -0.03331537 0.016914831 0.018376103
000140 21 82 fe 3d 25 40 f7 3d 23 25 12 3e 58 c1 4b 3d
       0.12427164 0.120727815 0.14271979 0.049744934
000150 b2 a1 62 bc 9e be d7 3d 43 aa 87 bd ad 28 2a 3d
       -0.0138324965 0.10534404 -0.06624272 0.041542698
000160 8c c4 db 3c 86 82 8c bd ae c8 72 bc a7 42 d1 3d
       0.02682712 -0.06860833 -0.014818354 0.10217791
000170 4b e4 c7 3d 46 02 04 3e b0 e3 ec bd 60 19 06 bd
       0.0976034 0.12891492 -0.115668654 -0.032739043
000180 7d ea d4 3d 3a 65 84 3c ab d9 ae 3c 41 f1 84 bc
       0.103962876 0.01616155 0.021344027 -0.01622832
000190 f2 64 da 3d 4c c3 f1 3d b6 52 ce 3d 4c fb db bc
       0.10663785 0.11804828 0.100743696 -0.026853226
0001a0 cf a5 16 bd d5 57 ca 3d 18 73 a4 3d c7 73 c6 3d
       -0.03677922 0.09880034 0.08029765 0.096900515
0001b0 f0 3e 31 3d 2d 92 36 3d 61 cb 86 bc 00 23 04 3e
       0.043272913 0.044572998 -0.0164544 0.12903976
0001c0 85 dd a3 3d 33 4c ba bd 40 41 a2 bc 2b 3f ca bc
       0.08001236 -0.09096565 -0.019806504 -0.024688324
0001d0 fc 7c 91 bd 51 c4 a3 3d 90 e8 9b bd a4 0d c6 3d
       -0.07103917 0.07996429 -0.07612717 0.096705705
0001e0 47 48 f8 3d a0 98 4a bd 3c dd 74 3d 3c 3d 6f 3d
       0.12123161 -0.04946196 0.059781298 0.058408007
0001f0 9a bd 3d 3d 80 67 cb 3d 7d 59 c4 3d ce f5 0a 3e
       0.046323396 0.099318504 0.09587381 0.1357033
000200 8f d1 db 3c 35 ec e7 3b 14 3b 19 bd 35 48 e6 bc
       0.026833324 0.0070777186 -0.037409857 -0.028110603
000210 1c 75 33 bd fc 74 15 bd c1 a8 35 3c 6a a8 85 3d
       -0.043812856 -0.036488518 0.011087597 0.06526263
000220 1d 53 4c bc 43 61 3d bd a3 ef 57 bb 1f 00 cb 3d
       -0.012470988 -0.046235334 -0.003294923 0.099121325
000230 00 d6 c4 bd ff 5c 0c 3d 75 2c a3 3c 64 01 8b bd
       -0.0961113 0.034268375 0.01991866 -0.067873746
000240 bf a0 65 bd 94 9e e0 3d 7b 89 4d bd fd 88 aa 3d
       -0.056061503 0.109677464 -0.05017994 0.0832691
000250 e9 5e 1b 3c 84 e9 af bc 11 45 30 bd e7 5c b6 3d
       0.009483078 -0.021473654 -0.043034617 0.089044385
000260 7d 54 b2 3d 44 ae b2 3d 8f ee 1d bd af 1d 48 3d
       0.08707521 0.08724645 -0.038557585 0.048856433
000270 29 14 a9 bd bc 9a 84 3c cd 7e d8 bd 79 84 8a 3d
       -0.08255798 0.016187064 -0.1057106 0.067635484
000280 e7 96 e9 bd b6 c3 4b bb d5 6d cc 3d 4e 4c ed bd
       -0.114057355 -0.0031091995 0.09981886 -0.115868196
000290 be e1 a3 3d 2e 62 dd 3d b1 4d 82 3d 7e 29 56 bd
       0.08002041 0.10809742 0.06362475 -0.052285664
0002a0 5c ad 9d 3d a4 68 59 bd 9d 85 d7 3d 4b 8a a2 3c
       0.07699081 -0.05307831 0.105235316 0.019841334
0002b0 29 13 f7 bc c5 5e 6d 3c 2c fb dc bd b4 a1 01 bd
       -0.030160503 0.014487927 -0.10790095 -0.031648353
0002c0 ce b4 7c 3b f0 58 29 3d 5e 2f 43 3c 75 2c 4a 3d
       0.0038559916 0.041344583 0.011913149 0.049358804
0002d0 0b c2 fa bd d6 0a ad bd e3 58 7a bc d2 33 dd 3d
       -0.12244042 -0.084493324 -0.015279981 0.108008996
0002e0 fc c9 86 3c bc 74 23 3d 09 ba f6 bd 16 5a fc 3c
       0.016453736 0.03990625 -0.12047202 0.030804675
0002f0 73 9a d1 3c 6f d5 c7 bc a7 1d b2 3d c5 7c 35 bd
       0.025586342 -0.024393765 0.08697062 -0.044308443
000300 9a e5 a4 3d 6c eb 9f 3d 9b b5 bb bd f6 78 88 bd
       0.080516055 0.07808575 -0.09165498 -0.066636965
000310 86 c9 36 bd 93 de 10 3e 4f de 79 bc f5 66 77 3e
       -0.04462578 0.14147405 -0.015250756 0.24160369
000320 31 a9 87 bd 02 47 86 3d fd ba f6 3d 90 c9 2e 3e
       -0.066240676 0.065565124 0.12047384 0.17069077
000330 7a 3d 9b bc 3b b4 0a 3c 5b b7 a3 3d 55 d3 9f bd
       -0.018950213 0.008465822 0.07993957 -0.0780398
000340 16 36 97 3d be e0 11 bd ee e8 fc bc 3b 85 03 3d
       0.07383363 -0.03561472 -0.030872788 0.03210948
000350 01 a1 86 bd fc bf 0b 3e f9 33 5d 3d 93 1f 27 3e
       -0.06573678 0.13647455 0.054004643 0.16320638
000360 a3 32 54 3c ef 62 81 3d 48 35 eb 3c 2f 1b 5c bd
       0.012951526 0.06317698 0.02871193 -0.05373686
000370 91 a5 5b bd 6f 48 14 3e 8d 0d d2 bd b8 86 9a bd
       -0.053624693 0.14480756 -0.10256491 -0.07545227
000380 9f 67 60 3c d9 ee f6 3d 3f 80 86 3d e2 38 ef 3d
       0.01369658 0.12057275 0.0656743 0.116807714
000390 45 b3 74 3c 50 90 7a bc cf 0a e7 3d 18 2f 2f 3d
       0.014935319 -0.015293196 0.112813585 0.04276952
0003a0 31 46 10 3e 01 59 8a 3d 51 e6 de 3b 4a 25 05 3e
       0.14089276 0.067552574 0.006802358 0.13002506
0003b0 85 8a e2 3d b3 eb b0 3d 83 7f 65 3d b7 5e 1e 3e
       0.11061577 0.08638706 0.056029808 0.15465818
0003c0 65 70 5a bc 86 55 5a 3d d7 84 bc bd 26 51 89 3d
       -0.013332461 0.053304218 -0.09205025 0.06704931
0003d0 b3 f9 a0 3d 24 9f f2 3d 07 3b ea ba d5 19 48 3d
       0.07860126 0.1184676 -0.0017870375 0.04885276
0003e0 63 19 0c 3e fd 60 25 bd 93 79 05 3e f6 0e 10 bd
       0.1368156 -0.0403757 0.13034658 -0.035170518
0003f0 3c 30 26 3d ba 88 09 3e 92 e3 f8 3d 8a ba bd bd
       0.040573344 0.13431063 0.121527806 -0.09264095

lstm.weight_ih_l1 f4 [256, 64]
000000 7c 0f a7 bc 51 fb 3c be 0a 2e fc bd 00 dc b3 bd
       -0.020393126 -0.18455245 -0.12313469 -0.08782196
000010 f9 8d 0a be 48 68 28 be bd 3a f8 bd 67 e3 6a 3e
       -0.13530721 -0.1644603 -0.121205784 0.2293831
000020 aa a5 4e be a0 56 07 be 8a 8d a7 3d 38 48 1c be
       -0.20180383 -0.13216639 0.08181293 -0.15261924
000030 3f 8a d1 3d 4a 26 16 bc 5e 12 0e 3e 30 d2 93 bd
       0.102314465 -0.009164402 0.13874194 -0.072178245
000040 1f 8a c5 3d 40 ff e5 3d f3 fe 2c 3e 17 0f 30 3e
       0.09645485 0.11230326 0.1689413 0.17193256
000050 b9 bd b5 bd cc 24 bf bd f2 c4 c1 bd 05 25 01 3e
       -0.08874077 -0.0933319 -0.094613925 0.12611778
000060 3b 24 24 3d 7e dc af 3d f3 e3 0c 3e 13 fc c5 bd
       0.040073615 0.085869774 0.1375883 -0.0966722
000070 39 0a 14 bd eb 26 ff 3d ad 87 b1 bd c7 19 12 3c
       -0.03614256 0.12458595 -0.08668456 0.008917279
000080 eb c5 2f 3d 2f 26 00 3e 2d 85 23 be f5 6a 1f 3d
       0.04291336 0.12514566 -0.15968771 0.03892036
000090 31 db 7f bc 50 3a 02 be 97 02 9f 3d 9f 3b ef 3c
       -0.015616224 -0.12717557 0.07764166 0.029203234
0000a0 8e ac cb 3d d1 88 10 bd 3c 4c 45 bd a6 a9 3c 3e
       0.099450216 -0.03528673 -0.048168406 0.1842409
0000b0 79 d7 1b 3e e2 4f 45 3d 91 94 e1 bd 48 c7 8c bd
       0.15218915 0.048171885 -0.11014665 -0.068739474
0000c0 32 e0 0e be f4 2f 86 bd 12 47 0d 3e a4 b8 97 bc
       -0.13952711 -0.06552115 0.13796642 -0.01852066
0000d0 2a a7 c6 bd 02 0b 57 3e 4d 24 31 3e dd 56 22 bd
       -0.09699853 0.21000293 0.17299004 -0.03963362
0000e0 ca cd 13 3e dc 86 01 3e 7d f7 31 be 82 89 7c bc
       0.14433971 0.12649101 -0.17379566 -0.015413644
0000f0 bc a9 d6 bb 9a bb 8d bd cd de 13 3d 52 8c 92 3d
       -0.0065509956 -0.06920548 0.03610115 0.0715567
000100 f5 89 04 3d 3e 72 33 bd a7 fe 84 3c 75 52 f6 bd
       0.03235813 -0.04381012 0.016234709 -0.12027446
000110 51 3e ed bd 1b dc f9 bd 65 bc d9 bd aa ab 8b 3c
       -0.115841515 -0.12200185 -0.106316365 0.01704963
000120 e3 e5 ac bd c2 48 c2 3d 78 0a 8b 3d c7 c9 4b 3d
       -0.08442285 0.09486534 0.06789106 0.049752977
000130 5e 38 5c 3d f0 15 44 3d 2c b2 80 bd 76 04 3c 3d
       0.053764693 0.047872484 -0.062839836 0.04590269
000140 4f 82 6f bd 40 a9 ef bc da 0d b5 3d be 59 63 bd
       -0.05847388 -0.02925551 0.088405326 -0.055505507
000150 79 d6 bb bd 32 46 a4 3d 84 f2 61 bd f1 71 91 3d
       -0.09171767 0.08021201 -0.05516292 0.07101811
000160 91 aa 39 3d 3f 5c fc 3d d0 4e ab bd b7 c6 b5 bc
       0.04532868 0.12322282 -0.08364642 -0.022189481
000170 26 61 07 3e e0 19 04 3e b9 c2 39 bd 5b f1 c0 3c
       0.13220653 0.12900496 -0.045351718 0.023552587
000180 df 18 b4 3d f2 23 5c 3d 5f 64 92 3d 1c 21 c5 3d
       0.08793806 0.053745218 0.071480505 0.09625456
000190 b6 54 0b be 03 02 f3 bd e9 be 0a 3e 13 e1 b1 3c
       -0.13606533 -0.11865618 0.13549389 0.021713769
0001a0 6c 72 10 3e 49 13 7d bd 54 b0 35 3c aa 1b 00 bd
       0.14106148 -0.06178597 0.011089403 -0.031276383
0001b0 12 08 b4 bc b1 f6 96 3d c7 25 a3 3d ce 37 81 3d
       -0.021976504 0.073712714 0.0796619 0.06309472
0001c0 ab 13 a3 3c ac 13 32 bd 5a a6 00 bd d6 9f 84 3d
       0.01990684 -0.04347579 -0.031408645 0.06475799
0001d0 61 33 c9 bd 04 1b ed bc c1 b6 b5 3d 73 b7 8b bd
       -0.09824253 -0.028943546 0.08872748 -0.068220995
0001e0 3b 58 c4 3d 98 e4 c3 3d 70 ea 7f 3d 1c a4 d7 3d
       0.09587141 0.09565085 0.062479436 0.10529348
0001f0 60 ff 77 bd db 92 77 3c 30 01 86 3d 27 5a 5f bd
       -0.06054628 0.015110697 0.06543195 -0.054529335
000200 3b 57 32 3d 12 ef 8c bd 93 08 26 be 76 fe 1a bc
       0.04354022 -0.068815365 -0.16214208 -0.009460082
000210 9e d1 29 bd 24 d3 10 be 13 52 f5 3c 4b 34 14 3d
       -0.041459672 -0.14143044 0.029946363 0.036182683
000220 0e 70 ef bd dc db 19 bd df 5e ad bd 99 fe d9 bb
       -0.116912946 -0.03756319 -0.08465361 -0.006652665
000230 14 98 88 bd 04 2f 4a 3c 0c 30 be bd 79 2c 8d bd
       -0.066696316 0.012340311 -0.09286508 -0.06893248
000240 4d ee 7a bd 84 a7 84 bd 65 e1 d9 bd 07 8c 36 bd
       -0.061262418 -0.064772636 -0.10638694 -0.044567134
000250 61 a8 6d bd c9 68 e3 bd 54 a8 f5 bc 06 b3 d0 bd
       -0.058021907 -0.111039706 -0.029987492 -0.10190396
000260 74 6b 07 bd f9 4d 05 3d a1 ee 09 bb 86 54 35 3d
       -0.03306146 0.032545064 -0.0021046775 0.04427006
000270 74 6e 3d bd 0e fc 3a 3a f0 53 f3 bd d6 c3 98 bc
       -0.046247914 0.0007132896 -0.11881244 -0.01864807
000280 73 2f 94 bd 55 8c d5 3c 58 88 19 bd cd 5a d7 3d
       -0.07235613 0.026067892 -0.037483543 0.10515366
000290 e2 64 f3 bd 03 a0 f7 bd 11 61 73 bd 22 19 2c bd
       -0.11884476 -0.12091067 -0.05941874 -0.042016156
0002a0 d6 c7 81 3d f7 a7 01 be eb 59 69 3a 5a 52 cf 3d
       0.06336944 -0.1266173 0.00089016435 0.10123129
0002b0 0e e2 c6 3d d3 b4 5d 3b 1c 2f a4 3d c2 c7 11 be
       0.09711085 0.0033829703 0.08016798 -0.14236358
0002c0 c3 1d b8 3c 9a 44 7f 3b 13 03 7c 3d 5b a7 6c bd
       0.022475129 0.0038950802 0.06152637 -0.05777679
0002d0 81 72 98 3d db 98 67 3d 0e c8 b8 bd c9 7c b9 bc
       0.07443715 0.05654226 -0.090225324 -0.02264251
0002e0 3c 90 95 bd 86 d4 95 3c 2c 77 b2 bd ff d2 9e 3d
       -0.07302901 0.018289816 -0.087141365 0.07755088
0002f0 22 17 bb 3d 6b 92 2e 3d a4 af 92 bd 5f 1f 66 3d
       0.091352716 0.042620104 -0.07162407 0.05618226
000300 44 0f cc bd 82 b0 8b bd cd c2 0b 3d ca cb 00 be
       -0.09963849 -0.068207756 0.034121323 -0.1257774
000310 22 4b b0 bd 76 72 10 be c9 48 a7 bb e1 13 ae bd
       -0.086080804 -0.14106163 -0.005105112 -0.08499885
000320 51 f9 95 bd a0 b5 1f be 28 01 57 3e 96 34 d0 3d
       -0.07322944 -0.15596628 0.20996535 0.1016628
000330 54 5a 1c 3e 8e 66 85 3d 39 27 aa bd e7 08 f6 bd
       0.15268832 0.065137014 -0.083082624 -0.12013417
000340 c9 2b 69 3a 94 3e 5e bd fa 29 db 3c 8a 8f 33 3e
       0.0008894769 -0.054258898 0.026753414 0.17535225
000350 ef 15 d9 bd b5 aa 77 bd d9 58 99 3d 51 a8 1f bc
       -0.105998866 -0.060465533 0.074876495 -0.00974472
000360 da be c8 3d 58 5d 7c 3c 40 b5 cc 3d 56 c0 1e bd
       0.09802027 0.015403114 0.09995508 -0.038757645
000370 11 fe 6d bd a4 29 9e bd de 97 70 3c 7c d2 13 be
       -0.058103625 -0.07722786 0.014684645 -0.14435762
000380 a3 82 35 be 63 31 d9 bd 1c 8d 82 bd 80 79 26 3b
       -0.17725615 -0.10605123 -0.06374571 0.002540201
000390 6f e2 0d 3c ba be a5 bd 0c 9b 9b bd bc 43 92 bd
       0.008659943 -0.08093019 -0.07597932 -0.071418256
0003a0 ce a5 df bd 33 3d e7 bb 0b e7 39 3d ea d8 e6 3d
       -0.109202966 -0.007056856 0.045386355 0.11271842
0003b0 b2 cb 03 3b 0b cd b0 3d bf 66 a1 bd 3d 1b a0 3b
       0.0020110426 0.08632859 -0.078809254 0.0048860596
0003c0 46 0d 35 3d e4 ac d7 3d 14 44 b4 3d 95 86 80 bd
       0.04420211 0.10531023 0.08802047 -0.062756695
0003d0 61 6a 62 bc 89 e0 fa 3b 4e 51 d1 3c f9 09 54 3d
       -0.013819308 0.007656161 0.025551464 0.051767323
0003e0 4d 1d 5f bd 39 20 80 bd af 81 cd bd 08 59 a5 3d
       -0.054471303 -0.06256146 -0.10034501 0.08073622
0003f0 6f 6b e4 3c d5 0c 96 3d 5e eb 72 3a 09 50 84 ba
       0.02788326 0.07326666 0.000926664 -0.0010094653

lstm.weight_hh_l1 f4 [256, 64]
000000 02 39 96 3d c0 7d 6a 3d 1d 42 32 be 55 a0 16 3e
       0.07335092 0.05724883 -0.17408033 0.147096
000010 35 51 d3 3d 84 6b 3e 3d 86 8a c3 bd 3a 1b c3 bd
       0.103182234 0.046489254 -0.095479056 -0.095266774
000020 7a ce a7 b8 04 79 d3 3c dd 76 92 3d 7a 7f a8 bd
       -8.00164e-05 0.02581454 0.071515776 -0.08227439
000030 6f 5f 18 3d 8e a4 37 bc 33 ea 0f 3d 9e 0d 0b bc
       0.037200388 -0.0112086665 0.03513546 -0.008487133
000040 e1 47 05 3e cf f6 1c be f8 b6 44 bc d7 67 4c 3d
       0.13015701 -0.15328525 -0.012006514 0.049903717
000050 ba d4 ff bd 2d 2e a7 3d d4 45 62 3d 10 d8 bf bc
       -0.12491746 0.08163104 0.055242375 -0.023418456
000060 ce 4a 55 bc 65 b8 13 bd f5 9a 2e be 83 40 06 3d
       -0.013018323 -0.036064524 -0.17051299 0.032776367
000070 6a 09 18 3d 88 7e 59 bd be 11 12 be f1 b7 5d 3b
       0.037118353 -0.053099185 -0.1426458 0.0033831561
000080 7c ea 32 bc 83 83 78 3d a7 e7 a4 bd b7 86 34 bd
       -0.010920163 0.060672294 -0.08051997 -0.044073787
000090 0a 7c 4b bd 6a cd 82 3b 92 18 9f 3d b1 77 3b 3c
       -0.04967884 0.0039917724 0.07768358 0.011442111
0000a0 71 09 cd bc f8 05 ec bd 1b 26 d4 bd 15 f0 6d 3c
       -0.025028916 -0.11524576 -0.103588305 0.014522572
0000b0 75 fa 40 bd af 66 60 bd 31 b7 22 bd ba ae 24 3e
       -0.047113854 -0.054785427 -0.039725486 0.16082278
0000c0 b3 46 91 3c 75 5a a6 bd fa 50 d5 3d 19 9d f3 3d
       0.017733907 -0.08122722 0.10415836 0.118951984
0000d0 4c fa f2 3c 4c c9 91 3d c2 9e 82 bd e0 98 82 3d
       0.029660366 0.071184725 -0.06377937 0.06376815
0000e0 27 61 20 bd 54 3c dd bc 2e e4 1c bd 82 a2 a2 bc
       -0.03915515 -0.027006306 -0.038303547 -0.01985288
0000f0 48 e9 19 bc 97 33 01 bc df c0 1b bd 5e 7f 2c 3d
       -0.0093939975 -0.007885835 -0.038025733 0.042113654
000100 12 be 89 3c 1a 15 d7 3d 36 fb 03 3c 0a 74 10 39
       0.016814265 0.10502072 0.008055499 0.00013776138
000110 d9 11 9c 3d 35 83 5d 3d f0 12 f6 bd 61 d2 63 bd
       0.07620592 0.054080207 -0.12015331 -0.055620555
000120 02 37 1b bd f2 b0 0f 3e b2 e7 98 3b e9 e9 a1 3d
       -0.037894256 0.14032343 0.004666292 0.07905943
000130 6d 3e 18 3e 4e 8a 01 3e 60 8e 92 3c 46 e5 fe 3c
       0.14867564 0.12650415 0.017890155 0.031115185
000140 4c e4 b2 bd 8e 5f 07 be 9e e9 5b bd 68 c1 97 3d
       -0.087349504 -0.13220045 -0.05368959 0.07409936
000150 6e 67 0c be 03 ff 8e 3d dc d6 ae bd 2f 7b 0f 3e
       -0.1371133 0.069822334 -0.08537075 0.14011835
000160 44 68 a6 bd 8c ce 19 3e af 85 cb bd 53 20 22 bd
       -0.08125356 0.15020198 -0.099376075 -0.039581608
000170 25 4a c3 bc 43 cd 16 be ef f7 a8 3d 52 29 79 3d
       -0.023839066 -0.14726739 0.082504146 0.06083042
000180 9c 79 9b 3c 3e 2a e4 bc 51 03 ac bc bb b7 4b 3d
       0.018978886 -0.027852174 -0.020997675 0.049735766
000190 2c ce 0c be eb bd 55 3c 33 6b 1b 3e bc cd 16 3c
       -0.13750523 0.013045768 0.15177612 0.009204324
0001a0 df 05 20 3e 95 a1 b1 3d 8d d3 5e bc 87 e8 0d be
       0.1562724 0.086733975 -0.013600242 -0.13858233
0001b0 52 46 a1 3d 9f 35 d3 3d c8 36 67 bd 33 44 63 3d
       0.07874741 0.10312962 -0.056448728 0.05548496
0001c0 2f 06 3b bd 2d 6d 3f 3d 52 2d c5 3d 16 23 99 3c
       -0.045660194 0.046734978 0.09627785 0.018693488
0001d0 5e c1 07 3e b3 7e 59 bc e3 eb 82 bd 40 72 85 3c
       0.13257357 -0.013274836 -0.06392648 0.01628983
0001e0 48 cc db 3d 56 a7 85 bd ec 2c fa bd 5f 30 df bd
       0.10732323 -0.065260574 -0.122155994 -0.10897898
0001f0 a8 2f 82 bd 96 cd 8f 3b 3f f9 14 bd 0b a8 4a 3d
       -0.06356746 0.0043885214 -0.036370512 0.049476665
000200 16 33 6c bd 4d 6b a2 bd 27 f0 b2 3d 9a 9b 81 3d
       -0.057665907 -0.07930622 0.08737212 0.06328507
000210 d9 55 8e bd fa b5 d8 3c fb c5 ae bd ad 59 c1 bd
       -0.06949968 0.02645396 -0.085338555 -0.094409324
000220 7b d5 9c bb 41 18 06 3e c5 19 cb 3b 72 f8 8f bd
       -0.004786191 0.1309519 0.0061981403 -0.07029809
000230 54 e7 88 bd 0c 0f 4b 3e 3c 52 be 3d a0 42 e3 bd
       -0.06684747 0.19829959 0.09293029 -0.11096692
000240 f5 f6 f8 3d 93 a1 2f bd 10 78 0d be de c2 03 3e
       0.12156478 -0.0428787 -0.13815331 0.12867305
000250 50 f8 61 3c b6 f1 5e 3b 26 b3 c6 3d 87 3c 8e bd
       0.0137921125 0.0034018583 0.097021386 -0.069451384
000260 cf f8 b4 bd 3e e2 61 3d 8a 0d f8 bc 90 0b ba bd
       -0.08836519 0.055147402 -0.030279893 -0.090842366
000270 e6 f5 87 3d 0e 61 67 3d f3 78 68 3d cd b7 e1 bd
       0.06638698 0.056489043 0.05675597 -0.11021385
000280 58 6b a4 3b eb 8a e1 bd f1 00 87 3d 1b 68 16 be
       0.005017679 -0.110128246 0.065919764 -0.1468815
000290 1d 20 4a 3b ef 54 10 3e 4a fd d8 3d eb 5e a4 bd
       0.0030841895 0.140949 0.10595186 -0.08025917
0002a0 07 c0 ad 3d f4 11 fc bc c0 dd 11 be 04 aa 86 bc
       0.08483892 -0.03077028 -0.14244747 -0.016438492
0002b0 33 ab 35 3d f4 06 65 3d 12 e4 9d 3b a2 d4 94 3b
       0.04435272 0.055914834 0.004818448 0.0045419494
0002c0 56 72 62 3d 7d 6e 23 bd 99 33 ee bd 69 d9 02 bd
       0.05528482 -0.03990029 -0.11630935 -0.03194562
0002d0 c3 1c c5 3d 8d 6a 45 3d 71 94 f1 bb 14 b5 12 3b
       0.096246265 0.048197318 -0.007372432 0.0022385763
0002e0 e7 9b b8 3d e5 c4 8d 3d fd 79 8b bc e1 39 0b 3e
       0.09014111 0.0692232 -0.017025942 0.13596298
0002f0 52 cb ee 3b c3 27 49 3d 88 99 d7 3c 9e 83 66 bd
       0.0072874213 0.049110185 0.026318327 -0.056277864
000300 73 1b 8b bd ff cf 63 bd ee 54 85 bd ce 52 33 3e
       -0.06792345 -0.055618282 -0.0651034 0.17512056
000310 55 fb ee 3c 3d 95 ec 3d 6c 4a e2 bc 9e ac 14 be
       0.029172579 0.115519024 -0.027623378 -0.14518973
000320 e0 ff 00 be df 4f 02 3e 75 63 89 3d 61 d7 4a be
       -0.12597609 0.12725781 0.06708423 -0.19808723
000330 ed c6 0a bc ee cb ea 3d 20 44 43 3d 5a 2e 00 3d
       -0.008470279 0.11464678 0.04767239 0.031294204
000340 62 20 48 3e 0b 38 23 be 10 bc c1 bd 0c 35 cb 3d
       0.19543603 -0.15939347 -0.09459698 0.09922227
000350 40 da 7e 3d 66 14 c9 3d 96 de 93 bc 60 f4 1a 3c
       0.06221986 0.09818344 -0.018050473 0.009457678
000360 2b c5 91 3d 49 88 84 3d 45 b0 c2 3c fe 0a 57 bd
       0.07117685 0.06471307 0.023765692 -0.052500717
000370 95 b8 2c 3d bb 53 3e 3d 2e 83 23 3c 5e f8 99 3d
       0.04216822 0.04646657 0.009980006 0.075180754
000380 2c b9 43 3d 0c 38 78 bc a5 97 f6 3d f6 a8 58 3d
       0.047784016 -0.015150081 0.12040643 0.05289551
000390 b7 e8 d9 bb 51 74 c9 bc 9e 9c 74 3d 87 32 aa 3c
       -0.006650056 -0.024591597 0.059719674 0.020776046
0003a0 df b3 34 3e d3 f7 3d 3d 2a 51 7a bd 80 67 f5 bd
       0.1764674 0.04637892 -0.06111256 -0.11982632
0003b0 7f 91 7b bc af 9a 16 3d 5c 2a 3c bd fc 9b 23 3e
       -0.015354513 0.03676861 -0.045938835 0.15977472
0003c0 2d 10 24 3e 78 10 86 bd 64 91 1c 3e 65 9b 90 bc
       0.16021796 -0.0654611 0.15289837 -0.017652223
0003d0 9a c1 b8 3d 6e 4a 2e be 24 8c 9f bd 80 30 31 3e
       0.090213016 -0.1702058 -0.077904016 0.17303658
0003e0 65 0a 03 3e df f2 3e 3d 84 84 79 3d e5 40 83 3c
       0.12796934 0.04661834 0.060917392 0.016022155
0003f0 67 ef 1f 3e be a1 8f 3a 55 d1 79 3d c2 31 ff 3d
       0.15618668 0.0010958237 0.06099065 0.124606624

lstm.bias_ih_l1 f4 [256]
000000 5b 12 96 bc 84 f5 cf 3d 2a 9b 8c 3d 0b 4a 4f bd
       -0.0183193 0.1015425 0.06865533 -0.050607722
000010 90 88 11 3e 48 44 98 3d dc 04 4a bd 41 12 68 3e
       0.1421225 0.074348986 -0.04932104 0.22663213
000020 46 01 5a bd 5f f5 41 3e 57 74 22 3e 29 7c 35 3d
       -0.05322387 0.18941258 0.15864693 0.04430786
000030 69 9c 12 3e 96 ac fa 3d 16 fc 26 3e 59 40 29 3d
       0.14317478 0.122399494 0.163071 0.041321132
000040 91 1c 15 3e 28 60 2f bd db 54 a1 bd 5c ad 3c 3e
       0.14561678 -0.04281631 -0.07877513 0.18425506
000050 ad ab f3 bc 89 33 fb bc 93 38 bd 3b e6 10 8f bd
       -0.029744947 -0.030664222 0.0057745664 -0.06985645
000060 d3 9a ce 3c 1c 22 9a 3d 26 a2 b8 3d 1f 32 27 3e
       0.02522031 0.07526037 0.09015302 0.16327713
000070 5f 84 89 3d eb bb e4 bc 5b 10 4c 3e ed f6 90 3d
       0.06714701 -0.027921638 0.19928114 0.07078347
000080 4f 7b c9 3d 99 c9 00 3e d3 5c 96 bd 7e c1 21 3e
       0.098379724 0.12576903 -0.073419236 0.15796468
000090 66 6f 48 3e ee 40 16 bd cf 29 4d 3d 13 cf 26 3d
       0.19573745 -0.036683016 0.0500887 0.040724825
0000a0 6a 51 16 3e 27 6f 19 3e 99 78 96 bd 32 2a 88 3d
       0.14679495 0.14983808 -0.07347221 0.06648673
0000b0 78 7b 54 3d b5 91 c9 bd e6 a0 51 3c ac 64 eb bc
       0.05187556 -0.098422445 0.012794709 -0.028734528
0000c0 36 61 1a 3e e5 d3 bb 3c 34 95 2c 3e 7f 2a bc bc
       0.15076146 0.022928188 0.16853791 -0.022969482
0000d0 c9 47 80 3d ab 23 bd bd f2 15 77 3d 14 68 de 3d
       0.06263692 -0.09235319 0.060323663 0.10859695
0000e0 ec 23 9a 3d 88 14 67 bc 21 2a 3a 3e fb bf 01 3e
       0.07526383 -0.014104016 0.18180133 0.12670891
0000f0 1d 4e 00 3e 5b 38 2b 3d 71 7a 46 bd c9 95 f6 bc
       0.12529798 0.04180179 -0.048456613 -0.03010072
000100 d0 dd df 3d 1e b7 d4 3d 21 34 14 bd 28 73 bb bd
       0.10930979 0.10386489 -0.036182526 -0.09152824
000110 17 1f 4d 3d b8 20 72 bd 81 b9 cd 3c 51 b0 88 3d
       0.050078478 -0.059113234 0.02511287 0.06674255
000120 f4 56 db 3b db 96 4b bd 8e bb f8 3d ce 47 03 3d
       0.006693715 -0.049704414 0.12145148 0.0320509
000130 09 57 2f bc f9 cf b8 bc 20 7f 35 3d e0 e4 01 3d
       -0.010701903 -0.022560107 0.04431069 0.031712413
000140 53 b7 8b 3d b1 33 a4 bd 5c 69 2e 3c 4a b1 01 bd
       0.06822076 -0.08017672 0.010645237 -0.031663217
000150 1e dc 8d 3c a0 6c 01 3e 63 3d c3 3d 88 66 a1 3c
       0.017316874 0.12639093 0.09533193 0.019702211
000160 66 af 93 3d 0d a5 9c bc 9f f5 57 3d 28 c8 9f 3b
       0.07211189 -0.019121671 0.052724477 0.0048761554
000170 a4 61 b7 bd ad c6 95 bc 0c 32 b7 bc 87 ef 0b bd
       -0.0895417 -0.018283213 -0.022362731 -0.034163978
000180 89 42 89 3d 89 8b 12 bd fa 12 83 3c 57 17 b5 3c
       0.06702144 -0.035777602 0.01600026 0.022105856
000190 e0 4d ba bd 07 81 a9 3b 67 25 4b 3c e7 5f ca bc
       -0.09096885 0.005172852 0.012399054 -0.024703933
0001a0 24 a6 12 bd 34 26 09 3e 2e 06 d2 3d 8c 62 6d bc
       -0.035802975 0.1339348 0.10255085 -0.014488827
0001b0 07 e2 cc 3d 36 47 67 bd 66 0f 1d 3e ee 84 93 bc
       0.10004049 -0.056464396 0.15337905 -0.018007722
0001c0 b1 f0 b0 3c 79 f3 59 3e 53 42 7f 3d 45 d7 02 3e
       0.021599146 0.21284284 0.06231911 0.12777431
0001d0 9f 77 be 3d 1f 1a 74 bd 8a 54 a6 3d f6 3c 54 3c
       0.0930016 -0.059595224 0.08121593 0.012953987
0001e0 2a c7 9e bd 3a 6a 04 bd e4 2c c3 3d 41 b1 98 3c
       -0.07752831 -0.032327868 0.095300466 0.018639209
0001f0 70 bf f2 bc 0a 3d 0a 3c ad 41 fc 3b 8a 48 cf 3c
       -0.0296323 0.008437404 0.007698259 0.025303144
000200 50 c2 b4 ba df 01 85 3d a4 15 3b bd bd f2 b9 b9
       -0.001379082 0.064944975 -0.045674935 -0.00035466804
000210 6f 93 8d 3d e9 a5 85 3d fe f2 d3 bc 0f 17 cd 3d
       0.06912886 0.065257855 -0.025872704 0.10014164
000220 f5 da 12 bd da 1e 63 3d cd b8 fc bc a3 c1 e2 bd
       -0.035853345 0.055449344 -0.030849839 -0.110720895
000230 fe 79 c0 bd f1 8b 54 bd 58 1e 23 3d 01 dd 95 bb
       -0.09398268 -0.05189127 0.03982386 -0.004573465
000240 5d 20 ae 3d b2 d6 e4 bd 6a 54 26 bd 58 ec 94 bd
       0.085022666 -0.111737624 -0.040607847 -0.072716415
000250 cd 14 ac bd 7f ca b3 bd c6 f6 b7 3d 96 83 c0 3d
       -0.08402405 -0.087788574 0.08982615 0.09400098
000260 21 1e b4 3d ee 23 b4 3d 38 ce 69 bd 8a b2 17 bc
       0.08794809 0.087959155 -0.05708143 -0.009258876
000270 ae bc 4c bd f8 2c ca bd 77 07 13 bc 36 4e ac 3d
       -0.049984626 -0.09871858 -0.008973948 0.08413355
000280 c6 5e bd 3d f3 10 ae 3a ec 1e 0a 3c 12 cd b2 bd
       0.09246592 0.0013280198 0.008430224 -0.0873052
000290 f1 02 8d bb b9 16 4b 3d d4 a0 f5 3d c8 6c b7 bd
       -0.004303329 0.049582217 0.11993566 -0.08956295
0002a0 2d 21 ae 3d 0f b7 38 3d 24 9f 47 bc 0c 94 43 3d
       0.085024215 0.045096453 -0.012183938 0.04774861
0002b0 be 4d 93 bc 33 6b f1 bd d8 2d 81 bd 63 b3 02 3e
       -0.017981406 -0.11788025 -0.06307572 0.12763743
0002c0 e1 5d 05 3e f7 c2 1b bd 2e 60 7a 3d dc a0 ba 3d
       0.13024093 -0.03802773 0.06112688 0.09112713
0002d0 20 7b 17 bd 38 3a 41 bc 76 1a ee bd 8a 28 5b bd
       -0.036982656 -0.011793666 -0.11626141 -0.053505458
0002e0 84 4b 57 3c 8c 7d 94 3d c9 20 72 3d a3 8f c1 3d
       0.013140563 0.07250509 0.059113298 0.09451225
0002f0 9f 30 2a bd 09 9a 13 3d c7 03 19 bb 26 41 c1 bd
       -0.041550275 0.03603557 -0.0023348199 -0.09436254
000300 b8 fe 42 3e d2 37 c7 bc 6c 54 5d 3d 62 2f 26 3e
       0.1904248 -0.02431861 0.05403559 0.16229013
000310 42 bc 8c 3d aa f5 1d bd 6b 97 28 3e cf d0 90 bc
       0.06871845 -0.03856436 0.16464011 -0.017677693
000320 ad f4 91 bc 58 e1 ea 3d 57 bd 31 3e 1e 98 27 3d
       -0.017816866 0.11468762 0.17357384 0.040916555
000330 67 55 08 3e a4 17 94 bc 28 c3 1e 3e d5 e8 18 3e
       0.13313828 -0.018077679 0.15504134 0.14932568
000340 6c c9 a2 bc 24 40 ee 3d de f4 a4 3d 52 a2 f7 3c
       -0.019871436 0.116333276 0.08054517 0.030228768
000350 62 45 ac bc 3e ea 70 bd c4 6a 22 bd b7 d6 81 bd
       -0.021029178 -0.05881714 -0.0396526 -0.06339782
000360 15 41 e2 ba ae 9f 1b 3e b6 ce 1e bd 9b 2c 7c 3e
       -0.0017261828 0.15197632 -0.038771354 0.2462639
000370 ff f1 69 bb e4 3f 3c 3d 33 46 3c 3d 06 42 21 3e
       -0.003569722 0.04595937 0.045965385 0.15747842
000380 8d b4 4f 3e 2f fb 8d 3d 51 13 62 bc 8e 43 27 bd
       0.20283718 0.06932675 -0.013798551 -0.04083591
000390 31 52 66 3c 57 50 58 bc 55 5b 1a 3e 6b 48 bc 3d
       0.014057682 -0.013202748 0.15073903 0.091935
0003a0 e5 82 0d 3e ad 30 07 3d 94 40 86 3d 2f 2e 1a 3e
       0.13819464 0.033005405 0.06555286 0.1505668
0003b0 b2 5b 5b 3e 20 e7 4f 3d ae 76 a6 3d da 08 5c bc
       0.21421698 0.050757527 0.08128105 -0.013429845
0003c0 7c b7 48 3d 9f 35 18 3e b0 5c cc 3d 28 42 09 bd
       0.04900311 0.14864205 0.09978616 -0.033510357
0003d0 46 6b 1e 3c 42 89 00 3d 8c 65 27 3d 3b 08 38 bc
       0.009669131 0.0313809 0.040868327 -0.011232431
0003e0 c1 92 b6 bc 02 b7 96 3c 39 3f 4c bd 22 25 43 bd
       -0.022286775 0.018397812 -0.04986498 -0.047642834
0003f0 c5 48 aa 3c d6 89 aa 3d 4f 36 2b 3e 3c bd 21 3e
       0.020786652 0.08327071 0.16719936 0.15794843
