model/save/v8.6_2022-09-03_00-34/model.pt (torch, 613531 bytes, 8 tensors)

lstm.weight_ih_l0 f4 [256, 512]
00000000: 96c6 41bd ab57 9fbc 31cd 63bd a972 783d
00000010: 9a43 01bb 491b b53c 8bca b7bc 8c17 a83d
00000020: b576 1abd df63 e7bc 465f 07bd 692e 4b3d
00000030: a595 7f3d 8484 b3bd adaf e7bd c1fb 133e
00000040: dae9 eb3d 7e08 3abd 8678 85bd 4efe e4bd
00000050: 9740 0a3d 6384 0cbd ebdb f53d ced8 8c3d
00000060: d8eb 85bd 6cf0 9cbd 4002 1b3e fada 9b3d
00000070: f8df a7bd 1a1c 373c e51a 1dbd ead3 ab3d
00000080: 5977 4bbd 0807 93bd c0f7 b5bd 06c2 0f3d
00000090: b516 bcbc 9de2 57bd 2715 babc 9008 92bc
000000a0: bfba 1dbd 1280 33bb 4883 ca3d ce0b 14bd
000000b0: 7a1b 6fbc d0e4 b63d 1bba db3c 3700 f53c
000000c0: 86e4 293d d328 113e 7c78 82bc 4298 e53d
000000d0: f50f 813b 360c 0abd c1f5 acbd 967d 183e
000000e0: 2c52 95bb b247 07bd 1199 023e 0f23 8abb
000000f0: acef 52bd b16a f5bd 9b05 71bc 338b 2dbd
00000100: 59b6 d23d 678e 74bd d9b9 453e 3345 d8bc
00000110: 3f82 14bd 8340 093e 13ab 003e 666b d13d
00000120: 8aa3 313e cde5 a93d 96d6 a23d 7574 d33c
00000130: 002b 59bd da85 143d e325 443d eb8f 1c3e
00000140: 56b6 a13d 83a8 f63d 4b66 94bd d561 c63d
00000150: fe4e 2e3d 00ba 193d 28cf 693d 38c5 973d
00000160: c115 923d b8da 163e b4f8 61bd 6c72 c43d
00000170: 6086 5ebd 9928 91bd afde a23d 2fbb ecbd
00000180: 6a5d 30bd b8ff 313d 9040 2f3e 6d82 68bd
00000190: c633 863d 9c6f 3f3d 351b d23d 9ded 383d
000001a0: c7db adbc 4036 2e3d 6a90 d3bd b732 71bd
000001b0: 9a8c 82bd 1e7d 973d 0fc1 373d ec44 c43b
000001c0: 9f99 29bd 3f7c 233c 76c6 27bd 550d 093d
000001d0: 9cff d23d 8e2a 2dbc b113 6fbd 5137 16bd
000001e0: fb16 673d ccb1 313d 00db 29bd f46c 8dbd
000001f0: 041f b63d 360b b8bd 6627 463d c94a c23d
00000200: 8f88 06bc 8ee4 4abc ad91 8d3b 281e 3fbd
00000210: 15d5 1d3a b155 1c3d 9445 043e 1864 a43c
00000220: 38ef 0b3e d296 81bd 5bce 873c 2a40 f83d
00000230: 5774 e23d 82cd b4bd d440 733d 4cd4 c0bd
00000240: 6ca8 b2bd 853f 16bd 1b78 593d 62e5 03bd
00000250: 3d52 84bd 6709 babd 78dd cf3d b089 9bbd
00000260: 0be3 1f3d c299 2f3c 07fe d7bd 25ca c73d
00000270: 4acb 6f3d 497e 4cbc 734e d93c 2f48 6a3d
00000280: 1c5a 883c 6b2a 9cbd a260 153e d83a d53d
00000290: 1454 efbd 463c a9bc 8b58 1dbd c01c 59bd
000002a0: c6f0 633d 9193 093e 7f23 82bd 3faf af3c
000002b0: 57e5 0abb cef8 22bd 49cd d1bd 085b 80bd
000002c0: 7fb4 c93c 2a3e d4bd dbbb ed3d a066 dabd
000002d0: afcb 0e3e 55d0 4b3d ebea 283d 11f1 073a
000002e0: 519b 6cbc 5dbd 003e 8661 cc3d c4d6 56bd
000002f0: b0a9 eabd 53a1 a83d cd57 24bd f625 9d3d
00000300: 16c4 ad3d 4449 103e 5c37 9bbd df05 033d
00000310: e767 15bd 9415 ad3d 5d6b 45bd 0e74 d23c
00000320: 4e5b c0bd 3568 a8bd 0381 da3d e84b 88bd
00000330: ace1 ef3d bdb9 2fbd 1435 e83d 0c05 003e
00000340: 2c57 d2bd 2f0e aebd 84cc ddbc 6490 a53c
00000350: 192b e83d 4f2a 0ebe a66a 84bd ca15 aebb
00000360: b7e7 e63d da50 0b3d a33b 9a3d 2a52 93bd
00000370: 2245 fa3d 754c 843c 831d 1ebc 2a14 b43c
00000380: ca8b 8b3d 8882 a5bc 04b9 4ebd 241a b5bd
00000390: 2d03 65bd 921b d53d 9fae a9bd 298e a23d
000003a0: 0725 c13d c2ee 63bd c52b 453d e47b e2bd
000003b0: bf36 b7bd d982 b43d 39b2 84bd 36ce f93c
000003c0: 50ad 503d dd54 95bb 26cb 03bd f1aa 233b
000003d0: 1c87 c1bd 5c6e 023e e619 3b3d 774a df3d
000003e0: 9e15 f8bc 4504 f8bd c4f5 b03d 963d 843b
000003f0: 3ce2 08bd d58f a83d 14d1 0abd 5929 35bd
-0.047308527 -0.019450983 -0.055615608 0.060656223 -0.0019724132 0.022107737 -0.022435447 0.08207616
-0.037710864 -0.028245864 -0.033049844 0.049604807 0.06239857 -0.0876551 -0.11312804 0.14451505
0.11519213 -0.045418255 -0.06517129 -0.11181317 0.033753004 -0.03430594 0.12004837 0.0687729
-0.06539124 -0.07663044 0.15137577 0.07610126 -0.081970155 0.0111761335 -0.038355727 0.08390029
-0.049674366 -0.071790755 -0.08885145 0.035097145 -0.022960046 -0.05270635 -0.022715164 -0.017826349
-0.038508173 -0.0027389568 0.09888321 -0.03614407 -0.014593953 0.08930361 0.02682214 0.029907329
0.041477703 0.1417573 -0.015926592 0.112106815 0.00393867 -0.03370305 -0.08445311 0.14891657
-0.004556915 -0.03302736 0.12753703 -0.004215605 -0.0514981 -0.119832404 -0.014710809 -0.04236908
0.10288686 -0.059706118 0.19309177 -0.026400184 -0.036257025 0.13403516 0.1256526 0.10225563
0.17347541 0.08295784 0.07951085 0.025812367 -0.053019524 0.036260463 0.047887694 0.15289275
0.07896106 0.1204386 -0.07246073 0.09686629 0.0425558 0.0375309 0.057082325 0.07410663
0.071330555 0.14731872 -0.055168822 0.09592137 -0.05432737 -0.070878215 0.0795263 -0.1155914
-0.043057837 0.043456763 0.17114472 -0.05676501 0.06552844 0.0467373 0.102590956 0.04514848
-0.021222962 0.042532206 -0.10330279 -0.058886256 -0.06374474 0.07396911 0.04486185 0.0059896614
-0.04140627 0.009978353 -0.04096075 0.03345998 0.1030266 -0.010569228 -0.05836839 -0.036673848
0.0564184 0.04338245 -0.04146862 -0.06905547 0.088926345 -0.08986513 0.048377417 0.094869204
-0.008211269 -0.012383593 0.0043203444 -0.04665962 0.00060208264 0.03816766 0.12917167 0.02006726
0.13665473 -0.06327595 0.01657789 0.12121613 0.11057346 -0.0882826 0.059387997 -0.094154924
-0.0872353 -0.03668167 0.053093057 -0.03220118 -0.06460998 -0.090838246 0.10149664 -0.07594621
0.039034884 0.010717811 -0.10546499 0.09755353 0.05854348 -0.012481281 0.026526665 0.057197746
0.01664453 -0.07625278 0.14587644 0.10411614 -0.116859585 -0.020658623 -0.03841452 -0.053005934
0.05564954 0.13435198 -0.063544266 0.021445869 -0.0021193826 -0.03978806 -0.10244233 -0.06267363
0.0246222 -0.10363419 0.11608096 -0.106641054 0.13944887 0.049759228 0.04123966 0.0005185763
-0.014441327 0.12572236 0.099795386 -0.05245091 -0.114581466 0.08233895 -0.040122796 0.07673256
0.08484666 0.14090449 -0.07578918 0.03198802 -0.036476042 0.08451381 -0.048198093 0.025690105
-0.09392415 -0.08223001 0.10669138 -0.06655103 0.11712965 -0.042901743 0.11338249 0.12501925
-0.10270533 -0.08498799 -0.02707506 0.020210452 0.11336345 -0.13883327 -0.06465654 -0.005312656
0.11274665 0.034012653 0.07530906 -0.07193406 0.12220217 0.016149739 -0.009650591 0.021982271
0.06813772 -0.020203844 -0.050469413 -0.088428766 -0.05591123 0.10405649 -0.082852595 0.07937271
0.094308905 -0.05564762 0.048137445 -0.110587865 -0.08945989 0.0881402 -0.06479306 0.030493837
0.050946534 -0.0045572356 -0.03217616 0.0024973715 -0.09449598 0.12737411 0.045678996 0.10902875
-0.030283745 -0.12110189 0.08640626 0.004035662 -0.03341888 0.08230559 -0.0338908 -0.044228885

lstm.weight_hh_l0 f4 [256, 64]
00000000: 292b 9dbd b3b0 753c 2e30 fbba 6a2a 003e
00000010: d17d 84bd 1d4a e3bd 3e6c cd3d 8017 743c
00000020: b008 e13d 5e64 543b 9ca8 dfbc 0176 84bd
00000030: 95a1 e73c 48bf 7a3d 117c 79bd 7f89 48bd
00000040: da16 acbd 754e a33d 8367 aabc 4024 a73d
00000050: adb8 a3bd 636c afbd ac55 ed3d 264a 55bd
00000060: ebc2 d1bc 70a2 3bbd a860 cc3d 6d19 073d
00000070: bc79 e8bd 5fb2 7c3d b0d6 ef3d 9194 fb3b
00000080: 04ff 843c 891d 2b3d 4a4a dabd 34d0 cc3d
00000090: d5c5 40bc 9d39 103e dbed 06bd 136f 083b
000000a0: e7c3 c2bd 0eea c6bd 4bc7 4a3d af02 b7bd
000000b0: 3339 b0bd fc82 ce3b 248c 133d 4ff0 5bbd
000000c0: edf9 cd3d 82d7 2c3a 80c2 9c3d 1c87 a1bd
000000d0: 572a 923d 56a3 ad3d 16e3 e03a 69b5 cf3d
000000e0: 441c 0cbe 8af3 523c 64f5 96bc b640 f9ba
000000f0: 2fcb 163d 3837 0fbd 9b3a 073e 30aa 12bc
00000100: 2592 9ebc 8305 0a3d e1e3 1cbc 3f32 3e3d
00000110: 2fb8 0a3d 9cf0 13bd 3c23 4ebd 699e fe3d
00000120: 8a7e 17bd 93be 95bd 1a7c e1bd 2cb5 ae3c
00000130: 7535 a83d bdce c73b 3d84 f3bc 715d 853d
00000140: 35ca 07be c329 7d3b 856c 663c 0bdd 593d
00000150: 3334 3b3d ea25 2d3a 11de 0cbd 4703 62bd
00000160: 8dfb 293d c597 23bd 38a3 7fba ed80 0abd
00000170: b0d0 a93d 083e cb3d d417 bdbd 3dde 5fbd
00000180: 44f5 d5bd 569d e93d 0f36 05be 50ce fc3a
00000190: 2acf 383c e4cb 9c3d 3ede 1d3e b6a0 b43d
000001a0: 1931 853d c80e cbbd 516f 843d 4fff f6bd
000001b0: 7aa7 9c3c 1528 893c 77db 08be 7b94 c2bd
000001c0: 6dfb 4e3d 4a5d e0bd d78c 493d 0161 113e
000001d0: 25b8 e8bd f73c d2bd 2199 eabd 6d22 33bc
000001e0: f284 3b3b 53f9 91bd b64e bd3d d2d4 14bc
000001f0: 93cf a63d 1800 bf3d b9d3 bbbc a3e9 2e3d
00000200: fecc d33d d45b e2bc f0c5 ce3d a234 f13d
00000210: 01df 00be 7da8 383c 9350 45bc e60e c43d
00000220: 1926 883d e2df 34bc 2d86 cabd 9b9d f1bd
00000230: 4810 a6bd 9cc5 d3bd ac8d cfbd 6ee9 9a3d
00000240: 9037 21be 1660 e43d b870 99bd 73dd ce3b
00000250: 8d02 d5bd 2be9 a5bd 4521 03bd 8b6f 08bd
00000260: ff7a 8ebd 75d8 95bd b83a 83bd 25aa afbd
00000270: 71c9 7fbd ba03 a03d 02d8 ae3d 1b90 c9bd
00000280: f355 d5bd aef5 1dbc 552f 073d 8056 313b
00000290: 968a 0fbc 25e0 413d 4740 b7bd e896 e33d
000002a0: a35a b83c 739e 70bd b547 d73c 2c7d b63c
000002b0: 7d51 1f3c 8c18 85bd 9527 cbbd d1cb 6fbc
000002c0: bb0e 9c3d 6e75 afbd 3e0e cabc fd6c b3bc
000002d0: 9157 3b3d 9f71 1ebc 6953 dd3b 0d9f eb3d
000002e0: 926e 4abd 99bc bd3d 7050 58bd fcc7 813d
000002f0: d159 77bd 69e3 083e c26a b23c 952d 563d
00000300: 53ae 0a3c 71a9 f33d 9ecb 083d 156b a1bd
00000310: 3ece 06bc ef4f 68bd 020a 2fbb 62a2 32bc
00000320: 1f0e 00be f1fc 9b3d 452d ebbd 5f81 a2bd
00000330: 112d 63bd b7d7 bf3b 561f cabd 4250 053e
00000340: e503 373d 368c 2abd 61b9 3e3d 39ee 1c3e
00000350: 6a85 66bd 3d64 1c3e 3482 9dbd c7eb b7bd
00000360: 894e a13b 168a 9a3c 1568 863d a06c 90bd
00000370: 397c fa3c 588f da3d 3594 c03c 93e9 b4bd
00000380: b34f e2bd 098d aabd 65f0 e1bd 0f0b 833d
00000390: ce8b fa3d 0dc8 bebc c2d0 93bd 1de1 bebd
000003a0: 1185 423d c592 343d 79ee 1b3e 28c4 883d
000003b0: fdfb 063e f9a6 a23c 17f4 c2bd 63d1 cdbd
000003c0: 9980 2cbd 7b5a 86bc c194 bcbd 61b8 18bd
000003d0: bb6a fabd c11c 8fbd 58ee 8d3d d3d8 92bd
000003e0: 1bd8 84bd 80fa 04bd 93a0 553d cd2e 2abd
000003f0: 214c f13c 99eb 0b3e fb12 373d 85cb 0dbe
-0.07674248 0.014995742 -0.0019164139 0.1251618 -0.0646931 -0.1109812 0.10030411 0.014898181
0.10987985 0.0032408456 -0.027302079 -0.0646782 0.02827529 0.061217576 -0.060909335 -0.04895925
-0.08402796 0.07973949 -0.020801311 0.08161211 -0.079942085 -0.08565595 0.11588606 -0.052072667
-0.02560564 -0.04580921 0.09979373 0.032983232 -0.11351344 0.061693545 0.1171087 0.0076776226
0.016234882 0.041776214 -0.10658701 0.10000649 -0.011765917 0.14084478 -0.03294168 0.0020818159
-0.09510022 -0.09712611 0.049506467 -0.08936059 -0.0860466 0.0063022356 0.03602232 -0.053695973
0.10057435 0.00065933925 0.076542854 -0.07887098 0.07136982 0.084784195 0.0017157521 0.10142023
-0.13682657 0.012875447 -0.018427558 -0.0019016478 0.036814865 -0.03496477 0.1320595 -0.008951709
-0.019356797 0.033696663 -0.009575815 0.046434637 0.033867057 -0.036118135 -0.05032657 0.12432558
-0.03698591 -0.0731174 -0.110099986 0.021326624 0.08213321 0.006097643 -0.029726142 0.06511963
-0.1326073 0.0038629628 0.014063959 0.05318932 0.045704078 0.0006605076 -0.034391467 -0.055178907
0.041499663 -0.03993966 -0.00097517995 -0.03381436 0.08291757 0.09923941 -0.092330605 -0.054655302
-0.10447171 0.114069626 -0.13008903 0.001928756 0.0112798605 0.076560766 0.1541681 0.08819716
0.06503505 -0.09914929 0.064665444 -0.12060415 0.019122828 0.016742745 -0.13364969 -0.09500977
0.050532747 -0.109552935 0.04920658 0.1419716 -0.11363248 -0.10265534 -0.11454988 -0.010933501
0.0028613177 -0.07127633 0.092435285 -0.009083943 0.081450604 0.0932619 -0.022928106 0.042703282
0.103418335 -0.027631678 0.10096347 0.11777617 -0.12585069 0.0112706395 -0.012043136 0.09573154
0.066478916 -0.011039706 -0.09888873 -0.11797639 -0.08108574 -0.10340425 -0.10134444 0.075640544
-0.15743852 0.111511394 -0.074922025 0.00631302 -0.10400877 -0.08101114 -0.03201415 -0.0333095
-0.069570534 -0.073166765 -0.06407684 -0.08577374 -0.06244797 0.07813211 0.08537294 -0.09841939
-0.10416784 -0.009641094 0.033004124 0.0027059615 -0.008761069 0.0473329 -0.08947807 0.111127675
0.022504156 -0.05874486 0.02627931 0.022276483 0.009724018 -0.064988226 -0.09919659 -0.014635996
0.07619997 -0.0856732 -0.024664994 -0.021902556 0.045737807 -0.009670644 0.006754328 0.11504946
-0.049421854 0.09264488 -0.052811086 0.06336972 -0.06038839 0.13368 0.021779422 0.052289564
0.008464414 0.11897553 0.03339731 -0.078817524 -0.008227883 -0.056716856 -0.0026708846 -0.010902973
-0.12505387 0.07616604 -0.11483244 -0.07934832 -0.0554629 0.0058545726 -0.09869258 0.13018897
0.04468145 -0.04163762 0.04656351 0.1532525 -0.056279577 0.15272613 -0.0769085 -0.08980518
0.004922692 0.018864673 0.06562821 -0.070519686 0.030576812 0.10671872 0.02350817 -0.08833613
-0.11050358 -0.083276816 -0.1103218 0.06398594 0.12233697 -0.023288751 -0.07217552 -0.09320281
0.047490183 0.044085283 0.15227689 0.06678039 0.13182063 0.01985501 -0.09519213 -0.10049703
-0.042114828 -0.016400566 -0.0920806 -0.037285212 -0.122273885 -0.06987906 0.06930226 -0.07170262
-0.06486531 -0.032465458 0.05215509 -0.04154854 0.029455246 0.13664092 0.044695836 -0.13847168

lstm.bias_ih_l0 f4 [256]
00000000: 3b0d a93d d61a 1ebd cd5f a23d 9c23 c4bd
00000010: 5ccb 39bd 6662 a9bd 0f9c d83d 6bfe c13d
00000020: 1e12 e43d 32ea c43a 3422 ca3b c282 333c
00000030: f047 c53d 5a57 cebd 1c4c d0bd 8c93 5dbd
00000040: 5a03 5bbc 9e10 4a3d cb34 73bd d988 a73d
00000050: eb96 5d3d 40f5 ac3d eda3 013e d5f0 903c
00000060: 56a9 93bd 5a37 d0bc 9d4b bb3d 43c0 8bbd
00000070: b553 9ebc 1469 39bd b8be d63d cba1 433b
00000080: ef1a 933d d023 953d 9041 0e3e f72c 27bc
00000090: 96b8 083e 0df6 0c3d dda1 063e a6fc 183c
000000a0: 7f29 df3d 7c8f eebb 3531 66bd f514 323d
000000b0: caa5 153e 8fa1 88bd c67c 1b3c c7ca 373d
000000c0: e017 6b3d 374c 753d d068 74bc 7715 2d3e
000000d0: bde9 27bd 0c26 c93c b7ef 653d 4d39 8c3d
000000e0: 9d1a dd3d d437 31bd 46d5 033e 268d 8d3d
000000f0: d615 273d b180 a0bd fa62 d63c cc3a 0e3e
00000100: 190f 46bd 5ee7 a2bd a6d0 203e a883 de3d
00000110: 6222 ef3d 0956 e5bc 241e 823c d51f 5abd
00000120: f2d7 8b3d 269e c43d 614d d93d 46aa 99bd
00000130: 66ec 093e 1321 3b3d 0cde 053e 7614 e83c
00000140: d120 c5bc 5930 eb3d 421e adbd 9f42 9f3d
00000150: a29d 8b3c 380e 79bd f12a a03c 5021 52bd
00000160: dc40 713d 7ce6 4abd d427 96bd de8b da3c
00000170: c09c d43d fe87 90bd 5f16 7cbd 8c03 093e
00000180: e04d e33d acd4 0c3e 7721 8b3d 13c4 ee3c
00000190: b01d 613d ff29 e13d 82fc 46bd d288 0fbb
000001a0: 666b 1c3b dc85 fa3d 1dc0 153e 890a c23d
000001b0: d592 7a3d 8c1d da3c d7d7 283e 9fe3 d23d
000001c0: 7bf5 543d b55e 933d 95e2 c63d a9f6 69bc
000001d0: 69ee 263c 73ae b63d ec0b 393e 09ed 7abd
000001e0: 4a03 1a3d 730a d6ba 606a 563d 8d06 143e
000001f0: 0de6 3abd 752a 173d 832e 613d 2526 22bd
00000200: 3c0a 45bd 9d9d ba3d 9abf 8d3d 0e33 b83c
00000210: 0473 80bc 4d06 05be 80d7 77bd 71b3 d93b
00000220: e5a7 373d 1606 3c3d 34ab bbbd d4db 8f3d
00000230: c8b6 b93d 2047 0b3c e5a5 d03c 40cb d3bd
00000240: dc8e a13c 181c 8e3c 9470 b83d f8df b1ba
00000250: 22aa ab3b 9a6b fb3d 9703 1dbe fc8c c6bd
00000260: 2a1d 4d3d 250d c0bd d0f5 55bc 3eff fe3c
00000270: 181d ed3d 7b4c fd3c 1584 5dbc 41ed 233d
00000280: 1714 cabd fb69 05bd 6b3a 83bd 8917 d1bd
00000290: 0dab d83c abec bdbd 6b2c bf3b 62ce dfbd
000002a0: 29fa 713d caac c6bd 7641 d53d 794a 843b
000002b0: 793f ad3c 4b87 363d eec6 813d 0859 763d
000002c0: 489e fbbd 2b22 9ebc b979 babc 3c45 013e
000002d0: 05de 9abd 51a5 033e b391 dc3d 9244 d6bd
000002e0: 3dd1 5ebd c972 e63c c871 cabd 23e0 173c
000002f0: 1f2e fe3c 3d0d 54bd 6263 c8bd 272d ce3d
00000300: 59a4 90bd c123 883c c21b 823d 8273 003c
00000310: 24ba 1a3e 78ac 88bd cb52 1dbd c579 223d
00000320: 343b d63d 65fd 473c 4e6c bcbc a35a aabc
00000330: 1c0d 233d bc56 80bd 07a2 a83d b4da b0bc
00000340: ae89 e13d 1f51 f73c 67bf 8f3d 037c b03d
00000350: 7a38 fd3d 377c c23b f63d 10bd 7431 b53d
00000360: aaee 1f3e 7103 033e 16f1 193d 24be 363e
00000370: 9bf2 fa3d bb86 f03d 5893 cd3d c480 a93c
00000380: bf09 943d a24d 803d 54a7 1b3e 58fe 8fbd
00000390: fa83 853d d8e3 2fbd a4c9 283e d736 463d
000003a0: ecf3 fe3d c52b 9e3d 2dd5 a7bd dd5d 69bd
000003b0: 083d 073e e4a7 e0bc 09a3 423e 35ac b03d
000003c0: eef7 9c3d 04e8 c53d acad 103e 2507 ce3d
000003d0: 1f79 7d3d 0798 d83c eb8a 17bd 84be c4bc
000003e0: 208c 3b3d 38d5 703d 3e0b 26bd 3e8a 9bbd
000003f0: eea0 213d a621 683d 8fec 4f3c 100b 0e3e
0.08254477 -0.03859981 0.07928429 -0.095771044 -0.045359954 -0.08270721 0.10576641 0.094723545
0.11136268 0.0015023409 0.006168628 0.010956468 0.096328616 -0.10075255 -0.10170767 -0.05409579
-0.013367498 0.049332254 -0.05937652 0.081803985 0.054099005 0.08445215 0.12660189 0.017692963
-0.07210033 -0.025417019 0.091452815 -0.068237804 -0.019327024 -0.045266226 0.104855955 0.0029851075
0.071828716 0.07282221 0.13892198 -0.010203592 0.13351664 0.03441434 0.13147683 0.00933758
0.108965866 -0.0072802883 -0.05619927 0.043477017 0.14614025 -0.0667144 0.0094901975 0.044871118
0.057395816 0.059887137 -0.014917567 0.1690272 -0.040994395 0.024554275 0.056136813 0.06846867
0.10796092 -0.043266132 0.12874326 0.069116876 0.04079231 -0.07837046 0.026170243 0.13889617
-0.048354242 -0.07954286 0.15704593 0.10864955 0.1167648 -0.027995126 0.015883513 -0.053253014
0.06828298 0.09600477 0.10610462 -0.0750318 0.13469085 0.04568584 0.13072985 0.028330069
-0.0240635 0.11483831 -0.08453037 0.07776379 0.017042939 -0.060804576 0.019551726 -0.0513013
0.058899745 -0.049536213 -0.07331815 0.026678022 0.1038146 -0.070571885 -0.061544772 0.1338026
0.11098838 0.13753003 0.06793492 0.02914623 0.054959953 0.10994338 -0.048580654 -0.002190162
0.0023867725 0.12232563 0.14624067 0.09474666 0.061175186 0.026625417 0.16488586 0.102973215
0.05199192 0.07195798 0.09711186 -0.01428 0.010188677 0.08919992 0.18070954 -0.06126121
0.037600793 -0.0016330018 0.05234754 0.14455624 -0.04562955 0.036905725 0.054975998 -0.03958716
-0.048105463 0.091120936 0.06921311 0.022485282 -0.015679844 -0.12990685 -0.06050825 0.0066437055
0.04483785 0.04590424 -0.09163514 0.07024351 0.09068066 0.008500844 0.02546973 -0.10341501
0.019721441 0.01734738 0.090058476 -0.0013570776 0.0052387873 0.12276383 -0.153334 -0.096948594
0.05007664 -0.09377507 -0.013059095 0.031127568 0.11577815 0.030920258 -0.01352026 0.040021185
-0.09867113 -0.032571774 -0.06407627 -0.10209567 0.02644875 -0.092736565 0.0058341525 -0.10928036
0.059076462 -0.09700926 0.10412876 0.004037198 0.02114843 0.04456262 0.06336771 0.0601435
-0.12286049 -0.019303402 -0.02276312 0.12624067 -0.07561878 0.12856032 0.107699774 -0.104622975
-0.054398764 0.028130906 -0.09884983 0.009269747 0.031027852 -0.051770438 -0.09784581 0.10067206
-0.07062597 0.016618611 0.06352951 0.007840039 0.1511007 -0.06673521 -0.038409036 0.03966691
0.10460511 0.01220641 -0.023000862 -0.020795172 0.039807424 -0.06266543 0.08234029 -0.02158866
0.110125884 0.030190049 0.07018929 0.08617403 0.12364288 0.0059352177 -0.03521534 0.08847323
0.15618387 0.12794282 0.037583433 0.1784597 0.122533046 0.11744448 0.10037869 0.020691283
0.072284214 0.06264807 0.1520055 -0.07030934 0.06519313 -0.042941898 0.1648317 0.048392143
0.12448868 0.07723192 -0.08194957 -0.05697428 0.13206875 -0.027423806 0.19007505 0.08626596
0.07664476 0.09663394 0.1412875 0.100599565 0.06188309 0.02643968 -0.036997717 -0.024016626
0.04578793 0.05879709 -0.040538065 -0.07594727 0.039460115 0.056672715 0.012690677 0.13871408

lstm.bias_hh_l0 f4 [256]
00000000: 46da 8a3d 3245 983d bf56 a3bd 92c8 173e
00000010: be02 c83d 7e16 153e 8d94 483d e59e ef3d
00000020: 4acc 26bd 20de 0a3e 2484 433d ddfd 443d
00000030: 3f4d 2abd fe42 efbc 2691 923d b4ed 0e3e
00000040: 7279 af3d 7403 c63c 0aa4 94bc 75c2 193e
00000050: 0f1b 1b3d 4a2c b23d a14e ef3d f420 a83d
00000060: 38f3 163d a347 2fbd c6b4 cb3d f22f 253e
00000070: 4d8c ba3d 474f 9fbd 0477 9d3c 6f37 9f3d
00000080: 1bfa afbd 9023 6bbd 3ae7 e33b 0e9e a1bd
00000090: 24c0 c53d c768 5e3d 112a 8b3d 9cb9 153c
000000a0: adbe 7f3d 6bd4 6f3d bf74 043e 9bed 493d
000000b0: f965 b13d c059 83bc a73d 8cbc 6685 033e
000000c0: 9968 91bd d464 53bd 67de b53d 0f82 b53d
000000d0: 70f7 873c 5f41 05bd 698e 373e 27fd 913d
000000e0: 07de b2bd 0d71 49bc 72a3 e53d df08 37bc
000000f0: a701 cc3c bd6f 64bd 7442 4e3d f3fc 0d3d
00000100: 7746 04bd 42a5 97bd 303b a2bd 67cd 183c
00000110: c435 a5ba 6eb3 163e eaf2 b23c 8951 1a3e
00000120: ed14 953c 2a32 b33d 11e7 14bd cc85 da3d
00000130: 802e 113c 7f01 91bc c496 aa3c abff 373d
00000140: 8a8d bd3d 357e 133e 0a23 f53d 4fc5 a03d
00000150: 133d 5abc c261 e23d da47 65bd 5deb c13c
00000160: 03a7 0f3d 42f2 49bd 0592 4b3b 722e 173e
00000170: 669b f33d 853e 213e 5d73 a7bd 3e02 11bc
00000180: 821e ee3d 80d6 463a 6784 ff3c 5ff5 eabc
00000190: 6055 023e 9497 0c3e 0dbd e23d f40c 1b3c
000001a0: 975d 99bc 60e9 913d 05ae bb3d 45ad e83d
000001b0: 8ca5 853d e0e7 493d f984 7e3c 2b4a 153e
000001c0: 14ed e93d 7112 adbd 739b cfbb 932f 10bd
000001d0: b685 90bd 0f0a 7c3d cdeb 9ebc 912f e83d
000001e0: ed91 0c3e 204c 21bd 84f9 893d feea 7d3d
000001f0: b8de 803d 2905 f03d d141 ec3d 1c89 0b3e
00000200: 2e59 193d 304a 163c 032b d5bc e612 1ebd
00000210: e7f0 44bd becb 14bd 78c6 b2bc 944a bd3d
00000220: 96b4 1abd d7db 7fbd d1c6 85bc 3e60 8a3d
00000230: c845 babd 0af4 893d f850 7d3c a575 5ebd
00000240: 1c21 70bd 1cba cb3d af80 20bd a978 d23d
00000250: 1565 9e3c 6701 423c 516a b8bd 64cd 973d
00000260: 3fa5 d23d 6315 b83d 3810 1dbd b57c 5f3d
00000270: a29c cebd 51cd cc3c 8952 d8bd c364 8d3d
00000280: 918f e0bd 1f71 e23b 18da 673d 0912 10be
00000290: 79aa ae3d b342 e13d 26e1 913d 7b80 64bd
000002a0: d17d 9f3d 1c45 8ebd 41d0 133e 7836 5f3c
000002b0: 5947 fbba b3b2 cf3c 586a ecbd fa3d 5dbd
000002c0: b96b 35bd 26ad 9f3c 672d ad3b 9259 be3d
000002d0: 07a5 f9bd 6ce9 82bd 76b4 3bba 7633 d53d
000002e0: 251b 9e3c b1d3 273d d00b 06be 2a02 9d3c
000002f0: 33ad 0e3d d792 4ebc 14b5 c73d c7da 82bd
00000300: e339 df3d 44b8 a53d af71 41bd ccda 73bd
00000310: a6dd 17bd ed48 1e3e 49af 0a3d 2586 2b3e
00000320: fa31 7abd 767c 9e3d d9f3 1f3e 9a62 2b3e
00000330: 13dd 9dbc 7283 743c 4866 873d 9090 55bd
00000340: 51c4 453d 1c7f 08bc b37c 25bd aea9 a13d
00000350: fe02 aebd 6afc 133e eb3e 6a3d ea18 1a3e
00000360: b612 123d 5d01 993d 06f5 113d 9473 cbbc
00000370: b729 32bd 4603 203e 177c 82bd 57f9 61bd
00000380: 6e96 ee3c d14e ff3d b438 a93d bf9e ab3d
00000390: 9bc9 d63c b918 7fbc 5dbc 013e cd59 8d3d
000003a0: d9d1 0d3e f0a0 283d dbe5 28bc 08b0 123e
000003b0: b12c 073e 83e1 a03d 734c d73d 5086 f13d
000003c0: a312 013b 3a99 423d bfdd acbd 2b46 4d3d
000003d0: 6531 c53d 8db6 ac3d 1cef 7d3d 416e 793d
000003e0: 69af fe3d 5a2a 18bc 5d3f 113e 9489 9abc
000003f0: 0b98 863d 73a1 133e df66 113e 774c acbd
0.067799136 0.07435073 -0.0797553 0.14822605 0.09766148 0.14559361 0.048969794 0.117002286
-0.04072217 0.13561296 0.04773344 0.048093665 -0.041577574 -0.029206749 0.07156591 0.13957864
0.08568086 0.024171568 -0.018144626 0.15015586 0.037867602 0.08699854 0.11684919 0.0820941
0.036853045 -0.042792927 0.09946589 0.16131571 0.091087915 -0.07778793 0.01922179 0.07774245
-0.08592626 -0.057406962 0.0069550546 -0.07891475 0.096557885 0.054299142 0.06795133 0.009138491
0.062437702 0.058552187 0.1293516 0.049298864 0.08662028 -0.016034007 -0.017119242 0.12843856
-0.071000285 -0.05160983 0.088803105 0.08862697 0.01659748 -0.032533046 0.17925419 0.07128363
-0.087337546 -0.01229502 0.11212815 -0.011171549 0.024903132 -0.055770624 0.050356343 0.03466506
-0.032293763 -0.07404567 -0.07921445 0.0093263155 -0.0012604524 0.14716884 0.021844346 0.15070166
0.018198455 0.087498024 -0.036353175 0.10670051 0.008861184 -0.017700909 0.020823844 0.04492156
0.09255512 0.14403613 0.11969574 0.07850134 -0.013320225 0.11053802 -0.055976726 0.0236718
0.035071384 -0.0493033 0.0031062376 0.14763811 0.11894874 0.15746506 -0.08176301 -0.008850632
0.11626913 0.00075850636 0.031191064 -0.028681455 0.1272788 0.13729697 0.11071215 0.0094635375
-0.018721385 0.07124591 0.09164051 0.113611735 0.06525716 0.0492934 0.015534633 0.14579074
0.11422172 -0.08450783 -0.0063356697 -0.03520162 -0.07056753 0.06153303 -0.019399548 0.113371976
0.13727541 -0.03937924 0.067370445 0.061991684 0.0629248 0.11719734 0.11535991 0.13626522
0.037438564 0.009172961 -0.026021486 -0.03859224 -0.048081305 -0.036327116 -0.021823153 0.0924274
-0.037769876 -0.062465515 -0.016330155 0.06756638 -0.09095341 0.06736 0.015461199 -0.054311413
-0.058625326 0.09947607 -0.039185222 0.1027692 0.019335309 0.011841155 -0.09004653 0.07412222
0.102854244 0.08988454 -0.038345546 0.05456229 -0.10088469 0.025000246 -0.10562617 0.069039844
-0.10964883 0.0069104577 0.056604475 -0.1406938 0.08528609 0.1099905 0.07123022 -0.05578659
0.077876695 -0.06946775 0.14434911 0.013623826 -0.0019171044 0.025353765 -0.11543721 -0.054014184
-0.044292185 0.019491743 0.0052849534 0.09294428 -0.121896796 -0.06392178 -0.00071603747 0.10410206
0.019300053 0.04097337 -0.13090444 0.019166071 0.034833144 -0.012608252 0.09751335 -0.06389385
0.10899713 0.080917865 -0.047227558 -0.059534833 -0.037076615 0.15457506 0.03385857 0.16750391
-0.061082818 0.07738583 0.15620364 0.16736832 -0.019270455 0.014923917 0.066113055 -0.05213982
0.048282925 -0.0083310865 -0.040402126 0.07893692 -0.084966645 0.14451757 0.05718891 0.15048566
0.035662375 0.07470963 0.035634063 -0.024835385 -0.043496814 0.15626249 -0.063713245 -0.05516943
0.029124465 0.12466205 0.082627684 0.08379888 0.02621918 -0.015569859 0.12669511 0.06901894
0.13849582 0.041169107 -0.010308708 0.14324963 0.13200642 0.07855513 0.105126284 0.11793196
0.0019694946 0.04750941 -0.08440732 0.050115746 0.09628562 0.08433256 0.06199561 0.060896162
0.124358006 -0.009287441 0.14184327 -0.01886443 0.06571969 0.14417057 0.14199398 -0.08413022

fc1.weight f4 [64, 64]
00000000: aed4 f13d 1ea2 8dbd 4b46 31bd 9c6b 063c
00000010: 5c05 f4bd 02c6 2abe fd28 11be 3f6c 4e3e
00000020: fa6b 3fbe 5347 09be 8f02 efbc 24bf 2fbe
00000030: 15ed fd3d 515d 19be d798 4f3c b2ac 523d
00000040: 5d7e 9ebb e932 b23d e033 2d3e 56e7 543e
00000050: 7dda 9c3d 0132 03bc e27f 80bd f6b9 c13d
00000060: ba4b 1aba 98e1 9f3d 901f 9f3b 6390 e0bd
00000070: 7e5b 1fbe bb4a e23d 6761 173d 19e8 263e
00000080: e4c4 903c 8499 463e 3fb4 14be ab0a a1bd
00000090: d563 363e 80f7 233d 2e1c bb3d d7bb 133e
000000a0: c502 05bd 9d7f 94bc 7986 83bd 1c9a 803d
000000b0: bae9 f83d 9b50 973c bb76 09be 3e3d bfbd
000000c0: a74a d4bd 6c96 f8bd 93a8 d2bc 6008 cebb
000000d0: 7edd cbbd e7eb 2c3e 415d 683d e90e b7bd
000000e0: 0b93 043c f2d0 023e 533e 20be 7f8b 1cbe
000000f0: 824b 08bd 5811 663d 4ae9 363e 27b8 a4bd
00000100: aac8 c63d 8988 fa3c 32bd 023e 722d c7bc
00000110: e6a8 1cbe bf01 0cbe 0f76 d8bd a9cc 1bbd
00000120: db72 fabd 6797 113d fd69 4fbd c44d a33d
00000130: 1b1e 423c e15e ffbc d139 11be c316 0f3e
00000140: 2107 e6bd 89c5 fb3b 69e5 d63d 7235 b3bd
00000150: 32d1 7abc 602b 263e 50fe b0bd e4a9 e53d
00000160: 642b 4c3d fbfa 2e3e b420 34be 2cda 7abd
00000170: 3933 813d e3c0 193e 2c2f 133d 85ee 043e
00000180: 37a4 6c3d f4c1 e1bc 3b01 613d 4861 0d3d
00000190: bdb8 fbbd 0568 12be 3274 2c3e 35c1 c63d
000001a0: 550a 783d 953a 95bd e749 353d 787e fabd
000001b0: c298 3f3c dcce e43c 6a25 183e dc61 883d
000001c0: 8945 d5bb a41e ccbd 9fca f8bd 8b12 403c
000001d0: b3b4 03be ec89 f1bc 5429 cbbc 8f4c 99bd
000001e0: d757 aa3d d302 e63d 2988 133d 96fe 793c
000001f0: f4ca 33bd dff7 d03d 0002 273e 495a 1ebe
00000200: 5af8 ed3d 3540 003b e811 d8bd 07fc 573d
00000210: 591a 40bd 44a9 06be 180c 243e a0b9 f1bd
00000220: 93e7 c1bd 708c e1bd e329 f1bd 5bde 193e
00000230: 7b54 e9bc 6586 46bd 8aef 0fbe 3c9e 8ebc
00000240: 280c 03be 895b 9fbd b2c6 bdbd d139 42be
00000250: 6da0 babc 73f1 82bd 6ee3 a2bc 828a 08be
00000260: 8529 a8bd 272b 533d d61a 5dbd c1b8 453d
00000270: 8f47 8ebd 4406 0fbe c707 4dbd f014 c73c
00000280: 633e 74bd 7168 b93c b84e 413c c77a e23d
00000290: 2418 ffbd 3fae 04be 6c04 83bd 4663 a03c
000002a0: 4187 843c 6c75 c7bd d516 83bc eb9f f43c
000002b0: 50d8 9a3d 3b68 3bbd c6c2 fd3d a79d 83bd
000002c0: 639b 513d 3d1f 11bd be5f 0cbc 55e7 cabd
000002d0: 43e5 9c3d e41f 033b 109d 0abe bd80 5a3d
000002e0: 84fd d8bd 3fc7 df3b ed50 8dbd 07bf 583c
000002f0: b385 b93d c3dc b73d f88c 78bc 23e5 8c3c
00000300: 15cc a3bd 3ff0 04bd 4e40 b23d 922e 4bbd
00000310: 1475 c6bd d3a0 e7bd 900c 033b 9a93 35be
00000320: 2637 a1bd dad5 17be bc41 b73d d1b6 003e
00000330: 12c1 223e d2f6 1dbd ea61 09be f3e7 b2bd
00000340: 160b 44bd 6f5d e3bc 6d96 753d 7391 9f3d
00000350: d5ad afbd 8028 a03c 0325 893d 5281 11be
00000360: 14f1 c93d ad07 343d dbd8 833c c5d4 74bd
00000370: 14ef e8bd c648 3bbe 5eca c03d b28c 96bd
00000380: b346 1cbe b97b 33bd 64f9 3abd 5bc9 9dbc
00000390: 99c1 fa3a b88d 09be 0b3e 93bd 5417 7eba
000003a0: c926 16be a268 7f3c bc79 9f3d f6f5 323d
000003b0: 8e0e 353d 0eb8 133d dccd b9bd d5fe b13d
000003c0: ab52 983d be02 873c 33f4 313d dbd4 20bd
000003d0: 09fd 06bd c379 01bd 4ec3 77bc e4ac 793d
000003e0: cb21 19be 2455 48bd 7ec0 e2bd eb9f 7d3c
000003f0: 68c7 793d b21f 0d3e e2b5 a03d 832d 1ebd
0.118081436 -0.06915687 -0.043279927 0.008204367 -0.11915085 -0.16677096 -0.14175792 0.2015848
-0.18693534 -0.13406114 -0.029176025 -0.17162758 0.123987354 -0.14977004 0.012670717 0.051434226
-0.004836841 0.087011166 0.1691432 0.20791373 0.07658861 -0.008007527 -0.06274392 0.09459297
-0.0005885918 0.078067005 0.0048560575 -0.109650396 -0.15562245 0.1104941 0.036958124 0.16299476
0.01767201 0.19394499 -0.14521883 -0.07863363 0.1781152 0.040030956 0.09136234 0.14427124
-0.032473344 -0.018127257 -0.06422133 0.06279394 0.12153955 0.018471053 -0.13424198 -0.09337853
-0.10365801 -0.12138066 -0.025715148 -0.0062876195 -0.09954356 0.16886865 0.05672956 -0.08938391
0.008091698 0.12775019 -0.15648775 -0.15287589 -0.033275135 0.056168884 0.1786243 -0.08042937
0.097062424 0.030582683 0.12767485 -0.024313662 -0.15298805 -0.13672541 -0.10569393 -0.038036976
-0.12228938 0.03554478 -0.050638188 0.07973817 0.011847998 -0.031173171 -0.14182211 0.13973527
-0.112318285 0.00768346 0.10492975 -0.08750428 -0.015308665 0.16227484 -0.08642256 0.11214045
0.049846068 0.17087929 -0.175906 -0.06124322 0.06308598 0.15014987 0.03593366 0.12981613
0.057773795 -0.027558304 0.054932814 0.034516603 -0.122910954 -0.14297493 0.168412 0.0970482
0.06055673 -0.07286564 0.044259932 -0.12231153 0.011694135 0.02793067 0.14858022 0.0665929
-0.0065085334 -0.09966782 -0.12148022 0.011723171 -0.128619 -0.029484712 -0.02479998 -0.074853055
0.08317535 0.112310074 0.036018524 0.015258452 -0.043894723 0.10203528 0.16309357 -0.15464129
0.11619635 0.001956952 -0.1055029 0.052730586 -0.046900127 -0.13150507 0.16020238 -0.11802983
-0.094679974 -0.110131145 -0.117755674 0.15026228 -0.028482666 -0.048468012 -0.1405622 -0.017409436
-0.12797606 -0.07781131 -0.09266414 -0.18967368 -0.022781575 -0.06393709 -0.019883838 -0.13334087
-0.08211044 0.051554825 -0.05398067 0.0482719 -0.069472425 -0.13967234 -0.050056245 0.024301976
-0.05962981 0.02263281 0.011798553 0.11058574 -0.12455776 -0.12957095 -0.06397328 0.019578587
0.016177775 -0.09739193 -0.016002098 0.029861411 0.075607896 -0.0457537 0.12390666 -0.06426554
0.05117358 -0.03543018 -0.008567749 -0.09907404 0.07660916 0.0020008022 -0.13536477 0.05334543
-0.10595229 0.006829172 -0.06900201 0.013229138 0.09058704 0.08977654 -0.015170328 0.017199105
-0.0799791 -0.03245568 0.087036714 -0.04960496 -0.096903 -0.11309972 0.0019996502 -0.17732087
-0.07871847 -0.14827672 0.08948085 0.12569739 0.15893963 -0.038565464 -0.13416258 -0.08735647
-0.047862135 -0.027754514 0.05995791 0.07791414 -0.08578078 0.019550562 0.066965126 -0.14209488
0.09860435 0.043952633 0.016094616 -0.059773225 -0.113737255 -0.1828948 0.094135985 -0.07351054
-0.15261345 -0.043819163 -0.045647994 -0.019261053 0.0019131183 -0.13432968 -0.07189568 -0.0009692807
-0.14663233 0.015588911 0.07786891 0.043691598 0.044203334 0.0360642 -0.09072468 0.086911835
0.07437643 0.0164808 0.043445777 -0.039265495 -0.032956157 -0.03161026 -0.015122248 0.060955897
-0.14954297 -0.04890932 -0.11071871 0.015480022 0.060981184 0.13781622 0.078471914 -0.038617622

fc1.bias f4 [64]
00000000: e482 843d e02c 9b3d 0d43 bb3d 7fd8 463c
00000010: 1548 93bd 271f f03d 05b3 9abb 1ca7 023e
00000020: 17e4 893d 5f6c fbbc 1849 d93d 0a94 153e
00000030: f072 6c3c 0ec0 8ebd eb2d f03d aa46 213d
00000040: dcd6 b0bd e7d6 04bc f17a 74bd 7e14 b53d
00000050: 09f9 d43d 4bd8 d3bd abaa 57bb 44bd 9b3d
00000060: 18d9 733d 8277 ff3d 2078 e03d 52af c53d
00000070: 8c93 96bd 81f9 1bbd cae9 023d 8a5a b33b
00000080: 22c2 963d f89e afbd b792 e03d dc62 edbd
00000090: e13c d13c 6f03 273d 9534 e33c 6cb0 e3bd
000000a0: 119c 523c a4bb 2ebd c00f a33d b621 a2bd
000000b0: 5bb7 133e 707b da3d 482e cc3c 4772 0a3e
000000c0: 7bc5 053d fc82 f03d 1ddd f33d 164e 123e
000000d0: 2c10 373d 9422 4c3d 4db0 6dbd b182 e83c
000000e0: 451b d03d 498a 9dbd 1ed8 ca3d 0c26 02bd
000000f0: ea14 c73d 426f 933d 26dd 97bd 126c c73d
0.06470278 0.075769186 0.09143648 0.012136578 -0.07191483 0.11724692 -0.004721048 0.1275906
0.06732958 -0.030691324 0.10609645 0.14607254 0.0144317 -0.06970225 0.11727508 0.03937403
-0.08634731 -0.008107877 -0.05968756 0.08841799 0.10399062 -0.10343989 -0.0032908123 0.07604459
0.05953321 0.12473966 0.10960412 0.0965258 -0.07352361 -0.038079742 0.03196124 0.0054734396
0.07361247 -0.08575243 0.10965484 -0.115911216 0.025541725 0.04077476 0.027735034 -0.11117634
0.012854592 -0.042659417 0.079619884 -0.07916586 0.14425413 0.10668075 0.024924412 0.13520156
0.032659035 0.11743733 0.119074084 0.142876 0.044693157 0.049837664 -0.05802946 0.028382631
0.10161451 -0.076923914 0.09904502 -0.031774566 0.09720786 0.07198955 -0.074152276 0.0973741

fc3.weight f4 [12, 64]
00000000: fb57 053d 8e0d 2a3d 8fa6 54bc 1553 ccbc
00000010: 4647 573c d815 e83d be05 233e 634f df3d
00000020: 6a34 80bd 93a6 7abd 33b7 3abd b7c7 403c
00000030: c54f ec3d 1c9f 2fbd 3818 d03d 8126 3c3c
00000040: 3a49 37be 55ae bfbd bf20 8f3d 8953 aa3d
00000050: c04a b53d 51ba 373e 0972 5abd 5179 d23d
00000060: c26d 3f3d 61b1 4ebd da24 d13d bea2 dabd
00000070: d8e3 1dbe c958 d0bd 5d75 2ebe bc95 3cbc
00000080: ad9d 183d ecba 62bd 7d7d 73bd 0677 93bd
00000090: 1ebc 283d 516a 303e fffd 8c3c cc54 8d3b
000000a0: 8342 0cbd fd02 10be 2250 25bd 38ff aebd
000000b0: 7a4d 323e 3a58 30bd 9189 33bd e137 f0bd
000000c0: b99c 893d b935 33bd 239a 1ebd 7102 683c
000000d0: 134a 063e 88cd 15be a4a6 0c3e f2e5 023e
000000e0: 11b0 fb3d b516 a83d 6a88 7bbc b782 443d
000000f0: 2fd8 ca3c 2388 2b3d 60d5 2c3d d4fc 173e
00000100: ad67 2bbe c9e8 c23b d16f 293d 90a9 8ebd
00000110: 6854 0e3d ac95 00bc 3f31 cfbd d98b 313d
00000120: 0042 58bd d5e8 833d 4071 a63d 5e80 e7bd
00000130: 3f7d 2abe 58c5 bd3d f907 cc3c a781 18bd
00000140: 0237 353c 69fb 62bd fcbd 7e3b 3d61 87bd
00000150: 8988 a23d ceb4 e23c d9aa 92bd 0159 2cbe
00000160: d974 21be 938a 29be f9d0 a0bd 03c3 d9bd
00000170: 181d dfbc 4b86 6cbd fb16 973c e339 18be
00000180: 36b9 41bd 35bd 95bc 604a b7bc f060 d33d
00000190: 6c96 80bd 4cd7 783d bfff 9f3d 08bd debd
000001a0: 9cfe 0abe f2cc 92bd ba44 9b3d d437 8ebd
000001b0: a690 24bd 24de c33c 89f2 3c3d 5cd2 19be
000001c0: 156f 223d 5a3f 223d 7319 ebbc a1b0 c0bd
000001d0: 3417 8abd cf95 9fbc c0af c8bd 059a ffbd
000001e0: 7366 9d3c cba0 793d 2400 c2bc 31bf 8b3d
000001f0: 6f15 72bd 22aa 43bd b833 f83c 5917 4eba
00000200: 4cb0 1cbe 4c83 09ba 2b45 a23d 0c0b adbd
00000210: d783 1dbc 1ad1 8ebd 9b6a 82bd ba6d dabd
00000220: 166f 22be 1a86 b03d c116 e43d 79b0 213d
00000230: eb48 bcbd 1285 a4bd 61a9 f13b 331d fbbd
00000240: ace8 9c3d b352 0e3d 1b15 363d e69a cbbd
00000250: 50d8 febd 513e f9bd 8a6b 99bd 9983 abbd
00000260: 2a31 acbd 4204 25bc c743 97bd ed22 aa3d
00000270: 7511 e03d 38fd 933c 8929 483e 16c8 1abc
00000280: fe06 fdbd d122 923d 9759 cd3d 4072 993d
00000290: bf82 a1bd 85d7 24be 2e81 9c3d 2a46 6ebb
000002a0: 2f56 8d3d 1552 1d3e 5a80 5f3c f410 5c3d
000002b0: 4636 11be 2ebc c13d 5796 913c fc0f 8b3c
000002c0: 115c d83d f763 abbd f142 e5bd b084 e5bd
000002d0: 082e 713d 51da edba aec2 16be f13d 873b
000002e0: aa36 7d3d ade8 4fbd 5257 8f3d e6ae 753b
000002f0: 4083 a93d 02d5 debd 3eaa aebd e248 bebd
00000300: 481b 9bbb a799 823d 3cf7 b23b 62bf 0ebd
00000310: 1cbd 94bd 94b1 f5bd 3db9 30be fbe8 30bd
00000320: d847 febd 7bd5 983c 4a9a fbbd 2b37 d6bc
00000330: 56a9 0abe c824 d83d 45d0 113d 5255 9cbd
00000340: 8ebf 823d fbf8 23bb 1027 fdbc 6065 353d
00000350: c5ad 89bd 321d 91bb 4114 f5bd 8ec0 633d
00000360: 9edc bebd cd84 f5bd 9b7d f7bd d61c 60bb
00000370: 9b65 52bc 400b f13d a6e8 433c cd56 37bd
00000380: 836c 22be eba3 813d 1497 b93d 2a2f 93bd
00000390: 067f b1bd be71 05be 9a52 3fbd 6681 c53d
000003a0: b1fe 51bd 3716 c03d d457 a53d 688d a8bd
000003b0: 81a1 313d 295a 8b3b 86c7 a33d 911d 9c3c
000003c0: 39e1 d23d 632b 67bc ee3c 99bd c037 813c
000003d0: ff6b a5bd 0375 813c 55f1 2ebd 8de9 dcbd
000003e0: a56f 49bd 07d7 34bd aebb 05bc 879c b4bd
000003f0: e399 1dbe 5390 a4bd f01c bbbc ff4d 8c3d
0.032554608 0.041516833 -0.012979164 -0.02494196 0.0131395515 0.11332291 0.15920159 0.10903814
-0.06259997 -0.061194014 -0.04558487 0.011766366 0.11538652 -0.042876348 0.10160869 0.011483789
-0.17899027 -0.09359423 0.06988668 0.08316714 0.08852148 0.17942168 -0.05333141 0.102770455
0.046735533 -0.05046213 0.10212107 -0.10675572 -0.15418947 -0.101731844 -0.17036958 -0.011510309
0.037259746 -0.055354044 -0.059445847 -0.07200436 0.041195028 0.17228056 0.017210959 0.004313087
-0.034243118 -0.1406364 -0.040359624 -0.08544773 0.17412367 -0.04305289 -0.043832365 -0.11729408
0.067193456 -0.043752406 -0.038721215 0.014160738 0.13114195 -0.14629185 0.13735443 0.1278303
0.122894414 0.08207456 -0.015352348 0.047976222 0.024761287 0.041877877 0.042195678 0.1484254
-0.16738768 0.0059481603 0.041366402 -0.06965935 0.034748465 -0.007848185 -0.10116815 0.04334626
-0.052797318 0.064408936 0.081270695 -0.11303781 -0.1664934 0.09266156 0.024906145 -0.03723302
0.011060478 -0.055415545 0.0038870564 -0.066103436 0.07936198 0.027674105 -0.07161493 -0.16830827
-0.1576723 -0.16556768 -0.07852358 -0.10632899 -0.027235553 -0.05774526 0.018443575 -0.14865832
-0.04729577 -0.018278698 -0.022374332 0.10321224 -0.06278691 0.060752198 0.078124516 -0.108758986
-0.13573688 -0.071679965 0.07581468 -0.06944242 -0.04017701 0.023909636 0.046129737 -0.15021652
0.039656717 0.039611198 -0.028698659 -0.09408689 -0.06742707 -0.019480614 -0.09799147 -0.12480549
0.01921389 0.06094436 -0.023681708 0.06823576 -0.059102472 -0.047769673 0.030298099 -0.00078617554
-0.15301627 -0.00052457 0.07923349 -0.08449373 -0.009613953 -0.06973477 -0.0636799 -0.1066546
-0.15862688 0.08619328 0.111371525 0.039474938 -0.091935955 -0.08033194 0.007374928 -0.12261429
0.07661566 0.034746837 0.04445372 -0.09941654 -0.12443602 -0.12170089 -0.074912146 -0.0837471
-0.08407815 -0.010071816 -0.073859744 0.08307443 0.1094083 0.01806508 0.19547094 -0.009447118
-0.12354849 0.07135547 0.100268535 0.074924946 -0.07886266 -0.16097839 0.076418266 -0.003635774
0.06901204 0.15363343 0.013641441 0.053727105 -0.1418086 0.094597206 0.017771883 0.016975395
0.10564435 -0.08368676 -0.11194409 -0.11206949 0.05888179 -0.0018146728 -0.14722702 0.004127257
0.06181971 -0.050759006 0.06999077 0.003748828 0.08276987 -0.10880472 -0.08528565 -0.09291245
-0.004733477 0.06376963 0.0054616015 -0.034850486 -0.07262632 -0.11996761 -0.17258163 -0.043190937
-0.12416047 0.018656483 -0.12285288 -0.026149353 -0.13541159 0.105538905 0.035599012 -0.07633461
0.063841924 -0.002502023 -0.030902416 0.04428613 -0.06722597 -0.004428529 -0.11966754 0.055603556
-0.09319423 -0.1198822 -0.12084504 -0.0034196875 -0.012841607 0.11769724 0.011957323 -0.044760514
-0.15861706 0.06330093 0.09062019 -0.0718673 -0.08666806 -0.1303167 -0.046709634 0.096438214
-0.051268283 0.09379237 0.080733925 -0.08230096 0.043366913 0.0042526913 0.079970405 0.019057067
0.10296864 -0.014109465 -0.074823245 0.015773654 -0.08077239 0.015802866 -0.04271062 -0.10786734
-0.04917874 -0.04415038 -0.008162422 -0.08818918 -0.15390734 -0.0803534 -0.022840947 0.06850814

fc3.bias f4 [12]
00000000: 6252 c6bc a4db fdbd 1584 eabd 04c2 073d
00000010: 67ab 97bd 0ff6 b43d 4a5b 0abe 4ba4 a33d
00000020: 475e 803d 5685 e2bd 6425 a63d e285 c4bd
-0.024209205 -0.12395409 -0.11450974 0.033144012 -0.07405739 0.088359945 -0.13511387 0.07990321
0.06267982 -0.11060588 0.081126004 -0.095958486
