model/save/v1_2022-08-26_12-12/model.pt (torch, 830867 bytes, 14 tensors)

lstm.weight_ih_l0 f4 [128, 1500]
00000000: 723d 553e 2fe1 1abe 061a 8fbd e3be 333c
00000010: 8ca0 853d 343f 43be 5039 9ebd e18d f93d
00000020: 542b 0dbe 0bfa c6bd ad32 003e 37a5 5dbd
00000030: 4b57 03be ef40 ab3d 87e8 c3bd ea16 8abd
00000040: 60e2 5bbd 83cf 69be f021 04be 1ec7 10bd
00000050: ba4c b8bc 9575 363d 9fa3 623e 6338 dd3d
00000060: 4c45 883b 22d6 383d b168 613d 6bf7 13be
00000070: 7348 78bd fbd5 45be 26f0 11be d1e1 5cbe
00000080: f5c3 cb3d 9ce6 433d 690d 333d 33d5 72be
00000090: 7091 213d 3156 2c3e c104 d3bd 7d95 ce3d
000000a0: e62b c53c 5549 ad3d b567 aabc 9a88 6ebc
000000b0: bd43 2d3e cdee 76bc c03c 62bd 4e04 38be
000000c0: 903d a43d 83f6 d6bd 1dea 973d a72e aa3c
000000d0: 5d68 0f3d 2b14 1f3e 2474 cdbd 3284 663d
000000e0: 8f9a f3bd d6f3 b6bd d80e 1c3e fcc3 2d3e
000000f0: 2f91 13bd d96a 893d 5347 82bd f004 4f3d
00000100: 75f7 10bd 5b7d 03bd 0779 5ebd 9e8f 56be
00000110: 0c06 933b e028 40bd 240f b2bd 019a b8bd
00000120: 1100 ac3d 5e0e bcbd cd97 8abe 9dac 543d
00000130: 2131 e13d cf3b e2bd 281a 203d af90 81bd
00000140: f31a 35be fed8 35be e677 f8bd 491f 20be
00000150: 36a7 5ebe af2c 693d 88c2 28be 0af7 c9bd
00000160: f5da a4bd 5e62 033e 1229 6e3d c136 233a
00000170: 2d0a 9a3d 253c 62bd 56e9 2c3e bec8 9fb7
00000180: 2895 24bd 49f3 c9bd 4e23 d93a 0abe 8d3d
00000190: 140e aa3d 6c63 de3b 6cd2 a8bd 1929 86bc
000001a0: 7663 f13d 7116 0abe ea59 a8bc 407d 3ebe
000001b0: 20da 6abe eeab e03d c580 9abd eb20 25bd
000001c0: 7050 203e 8a1a 823d 8b2c 643d 9f74 27be
000001d0: 4504 cbbd f880 583d a494 293e bf2e 313c
000001e0: 0257 f63d ce72 1f3c cfc5 393c 21ba 533e
000001f0: 018b 9fbc 363d 07be ed1d 08bd 5530 083e
00000200: f94a 303e 93af 583d 43be 1e3e a181 343d
00000210: 398d 57be 1817 3cbd f569 b2bd c040 663d
00000220: 4b82 0b3d 96ee cb3d 436a 323e 1d94 18be
00000230: c9d9 26bd 77b1 2e3e d6bb 233e 9740 ce3d
00000240: 68af 72bc 4e35 3abd 6764 ebbd b80e a7bd
00000250: 6ad1 183d 3469 00bd ec05 3d3d 04fa b6bd
00000260: 42e6 bd3d 7bba df3c a1ca 05be 8704 e2bd
00000270: 4b75 c8bd 044e 7ebd ccbd 59be b946 13be
00000280: 6ce7 88bb 8fe1 87bd a756 b83d 1a5e 333e
00000290: 5b9e 593e 29e3 473d 3e2e 46bd c5ae 8f3d
000002a0: 1d21 50bc a68e b8bd 3282 1abd 20b5 e63d
000002b0: 474e 0fbd f94a 9a39 0598 91bd d2d1 af3d
000002c0: eced dd3d 76be 613d cbb6 1e3e ec13 ec3d
000002d0: 3572 dbbd 6fde 173d 680b 483e cc92 0bbe
000002e0: 2c50 3a3e 724f 07be c300 ff3c 5d4f 75bd
000002f0: 6353 f23d 3afb a63c c2fb 703e f894 28be
00000300: 729f 943d 6e88 063d 6fb0 1ebe 11e9 8cbd
00000310: d934 bebd 6049 81bd c76c 583d df8c e1bd
00000320: 37ff 123e 9dbd 08be 72b3 abbd 1f2a 153e
00000330: e4f5 f03d e137 ef3d bd99 283e f99f f3bd
00000340: 05c2 833c 459e 6f3d 0025 f83b a20b a43c
00000350: c895 c2bd f820 bfbd 8d60 be3c bd6f d63d
00000360: 505e f53c 323c 773e 5c1a 9cbd cb74 f63d
00000370: b8f1 e93d 7722 493d d4e0 453e ad9b 35be
00000380: 4704 1fbe c129 0c3e b631 a13d 7b79 9cbd
00000390: 24ad ee3d fbdb 6ebd 9b10 55be 1cb2 28be
000003a0: a480 48bd df09 3d3e a023 12bd 5003 b23c
000003b0: c0c6 98bc e179 25be 3955 58bd 5826 6abb
000003c0: 132c ddbd 7caf a5bd 35ac a8bd 5b0a 1c3c
000003d0: c718 d23d 2aca 84bd b042 a9bd 8da2 2c3d
000003e0: b9af d73d 9084 343d 6e92 873d 1c74 3cbe
000003f0: 8ee3 3b3e 7500 70bd 7cab a1bd d60f 05be
0.20824221 -0.15124963 -0.069873855 0.010970804 0.065247625 -0.19067079 -0.07725775 0.121852644
-0.1378606 -0.09715661 0.12519331 -0.05411264 -0.12826268 0.083619945 -0.095658354 -0.06742652
-0.053682685 -0.22833066 -0.12903571 -0.035346143 -0.022497524 0.04454573 0.22132729 0.108017705
0.0041586515 0.045126088 0.055031482 -0.14449851 -0.060615968 -0.19319908 -0.14251766 -0.21570517
0.09949485 0.047827348 0.04371396 -0.23714142 0.03944534 0.16829754 -0.10303641 0.100871064
0.024068784 0.084612526 -0.020801404 -0.014558936 0.16920371 -0.015071583 -0.055233717 -0.17970392
0.080195546 -0.10496237 0.074177004 0.020774199 0.035011638 0.15535037 -0.10031918 0.056278415
-0.11894714 -0.08933227 0.15240037 0.16969293 -0.03602713 0.06709833 -0.0636126 0.05054182
-0.035392243 -0.03210197 -0.05431464 -0.20953223 0.004486805 -0.04691398 -0.08694294 -0.09013749
0.0839845 -0.09182428 -0.2706894 0.05192243 0.10995699 -0.11046564 0.039087445 -0.06326424
-0.17686062 -0.17758557 -0.12132244 -0.15636934 -0.21743473 0.05692738 -0.16480458 -0.09861572
-0.08049575 0.12830493 0.058144636 0.00062261155 0.07521472 -0.05523314 0.16885886 -1.9047755e-05
-0.04018131 -0.09860856 0.0016566308 0.06921013 0.083034664 0.0067867544 -0.0824326 -0.016377019
0.11786549 -0.13485123 -0.020550687 -0.18602467 -0.2293477 0.10970293 -0.07544092 -0.040314596
0.15655684 0.06352718 0.055706542 -0.16353081 -0.09912924 0.05285737 0.16560608 0.010814368
0.12028314 0.009731961 0.011338665 0.20676471 -0.019475462 -0.13206944 -0.033231664 0.13299687
0.172161 0.052901816 0.15502267 0.044068936 -0.21049966 -0.04592046 -0.08711616 0.056214094
0.034059804 0.09957616 0.17423348 -0.1490025 -0.04073504 0.17059885 0.15989622 0.10070913
-0.014812328 -0.04546099 -0.114937596 -0.08157104 0.037309088 -0.03135033 0.046148226 -0.089344054
0.09272434 0.0273106 -0.13065578 -0.1103602 -0.09787997 -0.06208612 -0.21263808 -0.14382447
-0.0041779783 -0.06634819 0.090009026 0.17516366 0.21251814 0.04880062 -0.048383944 0.070157565
-0.012703207 -0.09011583 -0.03772182 0.112650156 -0.03498676 0.00029429028 -0.071090735 0.08584942
0.108363956 0.05511328 0.15499417 0.11527237 -0.10715143 0.037077364 0.19535601 -0.13630217
0.18194646 -0.132139 0.031128293 -0.05989014 0.11832311 0.020383466 0.23533538 -0.16463077
0.07256974 0.032844953 -0.15496992 -0.068803914 -0.09287424 -0.06312823 0.052838113 -0.11013197
0.14355169 -0.13353582 -0.08383836 0.14566849 0.1176565 0.1168058 0.16464897 -0.11895747
0.016083727 0.058500547 0.00757277 0.020025078 -0.09501225 -0.0933246 0.023239398 0.10470531
0.029952198 0.24144056 -0.07622215 0.12033995 0.11423057 0.049105134 0.19324046 -0.17735167
-0.15528975 0.13687803 0.0787081 -0.07640358 0.11654118 -0.05831526 -0.20807116 -0.16474193
-0.048950806 0.18460797 -0.035678506 0.021730095 -0.018649459 -0.16159774 -0.05281565 -0.003572842
-0.10799422 -0.080901116 -0.08235971 0.009523953 0.10258632 -0.06483872 -0.08264673 0.042147208
0.10531563 0.044071734 0.06619726 -0.18403667 0.18348524 -0.058594186 -0.07894036 -0.12994322

lstm.weight_hh_l0 f4 [128, 32]
00000000: 9a22 7c3d 695a ed3b 9355 f03d 9af8 2d3d
00000010: 0f4a d0bc 896b e3bc 9b75 a63c d980 263e
00000020: 1ff5 d93d fb5d a73d f450 afbd bec2 163d
00000030: e9b6 333e 88ee 163e 258b 5fbc 9507 ba3d
00000040: 2c68 93bd 2c2b 093e 9e7b 783d 64b7 cdbd
00000050: 0331 5f3d 419f 153e 627a c03d 1055 773c
00000060: 92f3 2c3c adbe b03d 121f 0cbd 90bb f03d
00000070: 9e85 003d e4f8 733d 5206 25be bea5 31be
00000080: fff2 763d 5c86 06be 049d 8e3c 7980 a2bd
00000090: fe98 8ebc 0c0b 5abe 718e 133d 3800 803e
000000a0: b00c 4c3e 5a09 4fbd 9f47 54bc ef40 503e
000000b0: ecb1 0e3d f41d 17be 1042 95bd f4d0 fabd
000000c0: 7f72 e1bd 2e9d 00bd 6f50 37be fa7e 31be
000000d0: 95cc ecbd 95d4 30be 5968 50bd c723 0abe
000000e0: 243d 93bd 2042 12bc 3a26 8bbd 8ef9 81bd
000000f0: 6d6c fdbd 4145 6c3e 2950 973d 8db5 2ebe
00000100: 899f 79bd ca2c 01be ff59 4e3d 6d41 99bc
00000110: 5a5c bd3c 13d2 d0bc 5fd5 e7bd d4af 7dbd
00000120: daf4 3b3e 3fe6 21be 7de2 a8bd 4b6d 363c
00000130: 136f 563e 8185 3dbe fef9 09be 7d38 273e
00000140: 543c 293e f65f 75bd 0866 0b3e 6d44 c13c
00000150: a1be 15bd 773f aebd 9d28 613c 678b 58bd
00000160: c236 81bd c72d 303e 7085 17bc a311 ccbd
00000170: a54b f73d 562a b43d 88f7 26be 3047 5fbe
00000180: 4bc2 303e 7aa3 ecbd f4ff 253c 29ea c63d
00000190: 7330 9ebd 2490 19be 31bf 8bbd 0e56 7b3d
000001a0: 925f 4d3d 21d1 273e 1c9c a6bd d92a f93d
000001b0: 5b44 263e 670f fdbd dd51 ae3c 74c2 c0bd
000001c0: ce4c 5f3d 7432 163e 8881 033e 5119 9abd
000001d0: 4e99 9ebd ec79 27bd 8e02 853d 1c5e 273e
000001e0: e41c 0ebe b7e8 373d bb22 453e 0f80 f63d
000001f0: ef1e e03c 5753 2c3d f8bb 14be 5740 08be
00000200: ad22 2b3e 6467 f2bd 08ae 39bc 0098 443e
00000210: db66 cc3b a285 803c 93b2 e93d 7df8 9d3d
00000220: f235 b2bd e55f 3cbe 0dc8 2e3e 85d2 6f3e
00000230: b23e 48bd 0daa b23d fbc7 08be 4c09 7e3e
00000240: bb6d 0b3e 68ab 47be 5780 16be 3bdc c63d
00000250: 829c 96bd e201 21bd eb3e 0a3e 33a5 06bd
00000260: d65b 763d ee59 9a3d 7ed4 1ebe 91a4 db3d
00000270: 7f54 34bd c7e9 583e 370c 4f3c 5b3a e53d
00000280: 9d35 053e 2f45 6a3c 8169 99bd da3b 3f3e
00000290: 847b 5fbd 5ed4 4cbe 448f 0ebd f1ed 0e3e
000002a0: 412f c43d 789b 1fbb 8fc8 773e 52dc 6cbd
000002b0: 14cb d23c e1f4 0dbe 1f86 b2bd ef33 473e
000002c0: 29c1 903c 6be4 a73b 5ff3 01be 0323 39bd
000002d0: 7660 8c3d ba18 e4bd 6267 31bb 4e9c ef3a
000002e0: 8a04 f7bd 1771 f23c d283 0d3d d016 133d
000002f0: cd26 15bd 9115 c2bc d184 58be 8b59 87be
00000300: e2c8 fe3d 369f 013e cdc3 1a3e 64f5 3d3e
00000310: 1cf6 b83d afda 28be ad87 913d 6931 80bd
00000320: 413b 14bd 9d5c 853d 14a4 0d3d fc91 3c3e
00000330: 9e7e 4e3d 196e 04be 41d4 443c a31f 9eba
00000340: 505b c23c f67e 483e ddb1 3cbe a74e c73d
00000350: 1825 f8bd 7453 f1bd 3dcf 993d 47fa 00be
00000360: 209c ea3b 4f3e bcbd 5e86 5cbd 0b26 f33c
00000370: 89a6 083e 7ced 823e 81f6 3dbe f633 453d
00000380: 4d15 9abd 9eab fe3d 0dc7 87bc 27ef 9ebd
00000390: 3638 13be 63c7 223c 67f2 02bd 04d4 063e
000003a0: 0787 5f3e 8a5b 4f3e 94dc 313e 0731 493e
000003b0: 6129 cbbd 11f1 4f3d ee44 22bd 0a9d d63d
000003c0: dbda 843e ad97 22be 1aca 1dbc db6f 0b3e
000003d0: cced 133d 7175 463e 5412 71bd 7514 333b
000003e0: 9714 e93c 7463 343e e46c 6cbc c910 623e
000003f0: 974d 063e 215c f93d e59b b539 2a55 54be
0.061556436 0.0072434437 0.11735072 0.042473413 -0.025425939 -0.027761238 0.02031975 0.16260089
0.10642456 0.08172222 -0.085603625 0.036806814 0.17550243 0.1473943 -0.0136440145 0.090834774
-0.071976036 0.13395375 0.060664766 -0.100447446 0.0544901 0.14611532 0.09398343 0.015095964
0.010556119 0.086301185 -0.03420932 0.11754525 0.031377427 0.059563532 -0.16115692 -0.17348382
0.060290333 -0.13137192 0.017408855 -0.079346605 -0.017406937 -0.21293277 0.036024515 0.25000167
0.19926715 -0.050546028 -0.012956529 0.2033727 0.03483765 -0.1475752 -0.07287991 -0.12246886
-0.110081665 -0.0313999 -0.17901777 -0.17333594 -0.115624584 -0.17268594 -0.050880764 -0.1349021
-0.07189396 -0.008926898 -0.067944005 -0.06346427 -0.12374196 0.23073293 0.07388336 -0.17061444
-0.06094316 -0.12614742 0.050378796 -0.018707955 0.023115326 -0.025490796 -0.11319994 -0.06193526
0.18355122 -0.15810488 -0.08246324 0.011134456 0.20940809 -0.18507959 -0.1347427 0.16330142
0.1652692 -0.05990597 0.1361314 0.023592198 -0.03655875 -0.08508199 0.013742593 -0.05286732
-0.06309272 0.17204963 -0.009248123 -0.099643014 0.12074975 0.087971374 -0.16305363 -0.218045
0.17261617 -0.11554618 0.010131825 0.09712631 -0.07724085 -0.14996392 -0.06823576 0.061361365
0.05013997 0.1638837 -0.08135244 0.12166376 0.16237013 -0.123564534 0.02127927 -0.09412089
0.054516606 0.14667684 0.12842381 -0.0752436 -0.07744084 -0.040887758 0.06494628 0.16344494
-0.13878208 0.04489967 0.1925153 0.12036144 0.0273585 0.042071667 -0.1452483 -0.13305794
0.16712447 -0.118361264 -0.011332996 0.19198608 0.0062378473 0.015688721 0.114110135 0.07713411
-0.087016955 -0.18395956 0.17068501 0.2342015 -0.048887916 0.08723841 -0.13357536 0.24808234
0.13616078 -0.1949898 -0.14697395 0.097099744 -0.0735407 -0.039308436 0.13500564 -0.03287239
0.060146175 0.07536684 -0.15510747 0.10724748 -0.044025894 0.21182929 0.01263719 0.11192771
0.13008733 0.014298721 -0.074908264 0.18675175 -0.054561153 -0.20002887 -0.034804597 0.13957955
0.095793255 -0.0024354141 0.24197601 -0.0578273 0.0257316 -0.13862945 -0.08716988 0.19453405
0.017670231 0.005123665 -0.12690495 -0.045199405 0.06854336 -0.11137529 -0.0027069678 0.0018280835
-0.12061413 0.029594941 0.03454954 0.035910428 -0.036413956 -0.023691924 -0.21144415 -0.26435503
0.12440659 0.1265839 0.15113755 0.1855064 0.09031317 -0.16489671 0.07105956 -0.06259424
-0.03618932 0.06511805 0.034580305 0.18415064 0.05041372 -0.12932624 0.012013496 -0.0012063872
0.023725182 0.19579682 -0.18427224 0.097317986 -0.1211645 -0.117834955 0.07510231 -0.12595473
0.007159725 -0.09191572 -0.05383908 0.029681226 0.13344778 0.2557181 -0.18551065 0.048145257
-0.07523594 0.12435077 -0.016574407 -0.077604584 -0.14376912 0.009935233 -0.031969454 0.13166815
0.21828853 0.20249763 0.173693 0.19647609 -0.09920002 0.05076701 -0.039616518 0.104791716
0.25948223 -0.15878172 -0.009630704 0.13616888 0.036115453 0.19380738 -0.05885537 0.0027325426
0.0284522 0.17616063 -0.014430258 0.22076716 0.13115536 0.12175775 0.0003463916 -0.20735613

lstm.bias_ih_l0 f4 [128]
00000000: 1faa 3e3e 9edd 07bd eb19 423d 9a00 fabd
00000010: ed34 b1bd 316c 893e 4d4a 3c3e 9723 36bd
00000020: 73a1 2e3e f131 0e3e 0729 873d a1ed 1bbd
00000030: a24b 5e3e 8f96 bbbd 999f 14bd 7beb 98bd
00000040: d57a e03d 2768 663d 8410 6cbd 97e9 803d
00000050: d3d6 81bd 8a12 773d 3b75 403e c908 a0bc
00000060: a138 133d 68f7 75bc 00ec 643c fbe5 243e
00000070: 1366 2c3d 66b9 593e 1dde cbbd 1baa 013c
00000080: 1c93 c8bd f41a 843d 36b8 243e bc17 d23d
00000090: 7271 0a3e c0f1 dbbd 874a f63d e01c dc3d
000000a0: 782f a6bd b481 2d3e f832 03be f0c3 c73d
000000b0: 265e 37bd 4de1 503e 1180 f2bb 7a9b bcbd
000000c0: 16f4 75bd 80c4 163e d069 e5bd b1e6 2d3e
000000d0: bfab 483e 2011 ba3d bb44 173e 9d55 7e3d
000000e0: 1061 c93d 2d6d 98bd 1df7 263e 1e1c af3d
000000f0: 7738 fb3d 691d d13c 756b b93c cb47 ebbc
00000100: 3874 a43c 85ba dfbc cd01 a9ba a819 a73d
00000110: 011c 153e a573 183c 4323 513e c40f 32bd
00000120: a019 1cbe 9525 f93d c768 723d c2c2 e2bc
00000130: 909d e7bb 9274 63bc 9233 9ebd a514 23be
00000140: 17cb 8bbd 0714 dbbd 45c7 c4bd ebef 92bd
00000150: be97 a9bd 0ef8 17be 5898 63bd a428 5f3c
00000160: df19 7c3c a929 e4bd 9137 2a3e 040c 0e3d
00000170: 517c 093e 351e 343e 0824 cebd 4a1b 3cbe
00000180: 670c c43d e8d1 d33d c122 253d 7147 a8bd
00000190: f61c 023e 1149 acbb 81d9 fcbd 0eb4 3e3e
000001a0: 7cb0 523e 00ab 243e b6dc cfbd 9802 94bc
000001b0: dd99 733e d0af ecbc 9757 4f3e 9c86 c9bd
000001c0: 4885 013e 34ad abbd a363 cd3d d88b 3d3d
000001d0: baf3 e33d dc2b 083e 069c 203d a5c2 963e
000001e0: 694e ae3d 6ad4 153c 1df5 503e 1b54 5b3e
000001f0: c615 1e3e e612 3d3b a045 df3d 19ea 383e
0.18619584 -0.033170335 0.047388 -0.12207146 -0.08652673 0.26840356 0.18387718 -0.044467535
0.17053775 0.13886239 0.06599622 -0.038068417 0.21708539 -0.09159576 -0.036285017 -0.07466789
0.10960928 0.05625167 -0.057632938 0.06294554 -0.063398026 0.060320415 0.1879472 -0.01953544
0.035942677 -0.0150125995 0.013972282 0.16103356 0.042089533 0.2126213 -0.09954474 0.007914091
-0.09793684 0.064504534 0.16085896 0.10258433 0.13519838 -0.107394695 0.12025934 0.10747695
-0.08114523 0.16944009 -0.12812412 0.09754169 -0.04476752 0.20398445 -0.0074005206 -0.09209342
-0.06004723 0.14723396 -0.11201823 0.16982533 0.19596766 0.090852976 0.14772312 0.062093366
0.09832966 -0.07442699 0.16305204 0.08550285 0.12266629 0.02552672 0.022634247 -0.028720757
0.020074949 -0.02731062 -0.0012894213 0.081591904 0.14561464 0.009304916 0.20423608 -0.043472067
-0.1524415 0.12165371 0.059181955 -0.027680758 -0.0070683435 -0.013882773 -0.0772468 -0.15925844
-0.06825846 -0.10697179 -0.0960832 -0.07174667 -0.08280896 -0.14840719 -0.05556521 0.013620529
0.0153870275 -0.111407585 0.1662276 0.034679428 0.13426329 0.17589648 -0.10065466 -0.18369785
0.09572678 0.10342771 0.040316347 -0.08216751 0.1270636 -0.0052577336 -0.12346173 0.18623373
0.20575136 0.16080856 -0.10149519 -0.018067643 0.23789163 -0.028892428 0.20248257 -0.09840128
0.12648499 -0.08382645 0.1002877 0.046275944 0.111304715 0.13297981 0.039211296 0.29445377
0.08511049 0.009144882 0.20406003 0.21418802 0.15437993 0.0028850376 0.10901952 0.18058051

lstm.bias_hh_l0 f4 [128]
00000000: b64f 333e 8a65 5a3e 285c e43d 19b9 2dbd
00000010: 7212 5ebd 36c1 83bc a592 ddbb 54a8 903d
00000020: bc65 243e 9bfd ddbc c655 203e d7ad cebc
00000030: 6517 903e 12eb 96bc cf22 3f3d 823b 453d
00000040: f6f0 433d 4f3e 123e 0ed8 1c3e 5beb 903d
00000050: 45be d9bd 3cb5 9e3d 25f0 4fbd 633a 1a3d
00000060: 5f6c b73c 4512 3f3c 53f4 a73d fbf3 623e
00000070: 0e01 d93d 75ef 073e 86d5 b4bd 3668 d5bd
00000080: b609 883d 4a3b 953d dbf8 c7bd a22e cfbd
00000090: d6c7 aebd f061 babd 4868 e93d a4c3 e73d
000000a0: 937c 2d3e 970e de3d 9741 353e a794 cb3d
000000b0: 221c dd3d 5645 193d 263e 51bd 9134 9e3d
000000c0: ed97 2c3e 9f05 343e 3b61 303e dffb 91bd
000000d0: f219 343e 1c61 efbd 7bcc 45bd 8a0d 343e
000000e0: 50dc 293e 3c6c e0bc 7c16 88bd a072 a33d
000000f0: f540 133c c44f d23c cb73 9f3a a9bb a8bd
00000100: ac80 0dbe 48a3 b53d dc30 86bd ab0f 533d
00000110: c59f 0e3e 34b1 5abd 35aa b7bd 810f 14bb
00000120: 762f b2bd 659d 6fbc 4576 173e 73f6 0c3e
00000130: 47b6 09be 91e2 04bd 826f 78bd 9dee 053e
00000140: c189 ae3d 8d64 02bd 6fd3 32bd c0e9 dbbd
00000150: dd61 27be a898 edbd 6f89 bf3d b551 10be
00000160: b45f d0bd ba58 2d3e f474 cd3d 9cdf fcbd
00000170: 360a 1f3d 1c64 893d 6eb0 05be 817a 0fbe
00000180: 4f0d 083e a075 e73c 4c96 3b3d ff46 ef3d
00000190: 2f04 843d 8e32 8d3b 4faa 1b3e 59c1 e73d
000001a0: 2fc9 233e c6c0 8939 503f f33d af21 a13d
000001b0: 4433 4d3e df9c 5c3e 8784 92bd b775 ed3d
000001c0: d293 0ebd 40f2 bf3d 9fa2 99bb 6423 dd3c
000001d0: 1c19 0f3e 3f9c 013e bc50 363d a56d e1bc
000001e0: 16fa 48bc 0b37 3ebd d55e 513e eec3 373e
000001f0: 2d61 403e 4cf8 8b3d 5e06 bdbc c369 03be
0.17510876 0.21327797 0.1115039 -0.04241285 -0.05421681 -0.016083341 -0.006761866 0.07063356
0.16054434 -0.027098468 0.1565772 -0.025229378 0.2814285 -0.018422637 0.046664055 0.048152454
0.04783722 0.14281581 0.15316793 0.070761405 -0.10631994 0.077494115 -0.05076613 0.03765334
0.022390543 0.011662071 0.08200898 0.22163384 0.10595904 0.1327494 -0.08829789 -0.10420267
0.06642477 0.07286699 -0.09764262 -0.101163164 -0.085342094 -0.09100711 0.11396843 0.11316612
0.16942053 0.108426265 0.17700802 0.099404626 0.107963815 0.03741964 -0.05108466 0.0772487
0.1685483 0.1758027 0.1722459 -0.07128119 0.17588022 -0.11688444 -0.04829071 0.1758329
0.16587949 -0.02739536 -0.066449136 0.07980847 0.008987655 0.0256728 0.0012165246 -0.08238918
-0.13818616 0.08869034 -0.06552288 0.051528614 0.13928135 -0.05339165 -0.08968011 -0.002259225
-0.08700459 -0.014624928 0.1479121 0.13765888 -0.1344844 -0.032442633 -0.060653217 0.13079305
0.08522368 -0.031834174 -0.04365867 -0.10737944 -0.16345926 -0.116013825 0.09352385 -0.14093669
-0.10174504 0.16928378 0.10032073 -0.123473376 0.038828097 0.067085475 -0.13055584 -0.14011575
0.13286327 0.02825433 0.04579763 0.11683463 0.064461105 0.004309005 0.15201686 0.11316175
0.15994714 0.00026274304 0.1187731 0.07867753 0.20039088 0.21544217 -0.07154184 0.11594718
-0.03480894 0.093723774 -0.0046885754 0.026994415 0.13974422 0.1265726 0.044510588 -0.027518103
-0.012266656 -0.04643921 0.20446332 0.17945835 0.1878707 0.06834468 -0.023074325 -0.12833314

lstm.weight_ih_l1 f4 [128, 32]
00000000: 5fa7 9b3d 665f 11be 2700 1f3e 5987 503e
00000010: 4533 e3bd 2b5f 1f3d 97a1 2c3e df0e 95bb
00000020: e4d7 953d c6ae 54be 8893 a5bc cbce 933d
00000030: 012b 43bd cf05 843d c456 0dbe 4962 483e
00000040: eb6d 18bd ccb0 363e 6435 aabb f180 083e
00000050: 8da1 47bc c688 f23d 5580 2dbe ca11 64bd
00000060: 34e1 5f3d 3265 aebd 17fb 8bbd be9f b2bd
00000070: 5898 23be d7c5 00be 9e0b 353d 425c 54bd
00000080: c497 513e 72ff febd 31a1 6e3e 7651 eebd
00000090: aad9 023d 16cf 833d f47d 95bd e28c 893d
000000a0: 9f5b 403d 73ae 47be c62f 423c 7839 f6bd
000000b0: 4bfd 063e 849b 223e 44b4 88be d313 8e3e
000000c0: efd6 d1bd 7a37 28be c246 efbd fb3f 183e
000000d0: 595f debd 7075 9fbd 43b8 8c3c a39e 56be
000000e0: cac7 9dbd 09b4 9ebd bab5 233e 033a 103e
000000f0: 51bc 9d3d 68e7 f63b a419 40bd 8f77 903c
00000100: 4926 b53d 1377 17be 7980 233c 6ca3 973d
00000110: 8018 05be 23a3 7abd 50b8 133d 732e 44be
00000120: 7c16 4abb 2f01 bf3d ab07 7fbd c5f3 17bd
00000130: 2654 18bc 9a15 1bbe abdd c8bd 1a72 b03d
00000140: 8654 21bd 0a24 43be ae0a a2bd 582f f53d
00000150: b3f9 e33c 8757 40be 671b 60bd 5a42 b9bd
00000160: 4491 883a 6bdf a4bd fb4a a53c ecb1 3f3e
00000170: 3519 00be 91f3 af3b af48 e93c f156 013e
00000180: 5c70 35bb 32df a5bc 4054 233c 941e b83d
00000190: 905d f33d 5571 44bd 28fb 7a3d 9a64 243e
000001a0: c432 d4bd f261 44ba 9b64 f6bc 51bf 47bd
000001b0: f022 473e 06ac 98bc 2779 dbbd ccb5 213e
000001c0: 3036 bd3c 05f1 8abd 4cf7 44be daa7 e33d
000001d0: 8698 013e ba0b 7dbd dfce e13d 595a 4e3c
000001e0: 7522 0dbe bf39 403e d1ef 473e 5070 0abe
000001f0: e0c8 113e 4b66 293e 324a 91bd 0bb4 39bd
00000200: ef90 d0bd cdc2 d83d 18b7 b4bd d42c b5bc
00000210: 67e6 cebd 4a06 533d 42bb 383e 1f2b 323e
00000220: d76f 43be 266e 5e3c 9c85 d7bd e715 2c3e
00000230: 6a43 c839 2d87 0cbe 37dd 0abe 439b ebbd
00000240: 1bb2 463e 3aaa b3bd 632b debd e23d fbbd
00000250: 6297 133e 0611 e43c 8850 fcbd cb88 e8ba
00000260: 742d 473e 58ff adbc 72df 433b 732a a03d
00000270: 0ccb 163e d425 6f3e acad 28bd e5e4 b23d
00000280: 1853 583e 88ba 9dbd e55a 6f3e cc50 8f3d
00000290: 45af bcbd 66ca d9bd f645 073e 8823 b5bd
000002a0: d343 75bc 1de7 e7bc 7c90 8abd 05c8 00bc
000002b0: 7952 1e3d 6772 3cbc da81 a1bd 030b 953d
000002c0: f707 99bd e619 febd 598d 893d 0c4d 89bd
000002d0: 02cc 033b 9924 e53d 4034 cd3d b91e 2a3d
000002e0: 7e03 203e 899f 50bd f5bc 153e baaf 113e
000002f0: e78e de3d f549 1a3a a00e c9bc 2fd6 343e
00000300: c49b 223e f436 103d 7404 cc3d 853f 123e
00000310: dff0 30be 6051 59bd a37b 263e 53e6 1a3e
00000320: 2feb 233d c47b 19bd c0a9 633e 3fa5 333e
00000330: c831 e6bd b36e ebbd b7de c8bd 3537 363e
00000340: 4a66 00be 65b0 363d 22fc 37be da69 d03d
00000350: ad92 c8bd bbef 6fbc 2c33 4cbe 06e7 8cbb
00000360: 647c 02be e791 483d 65e1 b53a 8206 9e3d
00000370: 7e11 d63d a450 3e3d aade 3bbe f9fc 74be
00000380: cd84 abbd 83f1 783c cff8 2f3e 255e 933d
00000390: 1dbe 97bd 4682 433d 56a7 0abe 8828 173e
000003a0: 671b 0c3d 06b1 06be 751f 44bd afa4 a33d
000003b0: 0ee8 a23d c1dc 223e fa05 303d 01ad 1f3e
000003c0: 9810 223e b0bc ba3d 22ce ddbd 4bb8 cd3d
000003d0: 5302 e3bc ccdb 18bb 7572 20be 348f 8c3d
000003e0: 5069 a0bd 3e77 a4bd 67c4 3c3e 95e1 82bd
000003f0: 8922 02be 759d b23d 42c3 44bd c0c7 5bbd
0.07600283 -0.14196548 0.15527402 0.20364131 -0.11093763 0.03890912 0.16858517 -0.004548892
0.073165685 -0.20769796 -0.02021195 0.07217177 -0.047648434 0.064464204 -0.1380263 0.19568743
-0.0372142 0.1784088 -0.005194353 0.13330437 -0.012184513 0.11842494 -0.16943486 -0.055681027
0.05465813 -0.08515395 -0.06835001 -0.08721875 -0.15976083 -0.1257547 0.044200532 -0.051845796
0.2046805 -0.12451066 0.23303677 -0.11636631 0.031945862 0.06435983 -0.07299414 0.067163244
0.046962377 -0.19500141 0.01185221 -0.1202268 0.13182561 0.15879637 -0.26700032 0.277495
-0.102460735 -0.16427413 -0.11683418 0.14868157 -0.1085803 -0.07786071 0.017177707 -0.20958953
-0.07704122 -0.07749183 0.15987292 0.1408463 0.07701934 0.00753491 -0.046899453 0.017635135
0.08845193 -0.14791517 0.009979361 0.07404217 -0.12997627 -0.061190736 0.036064446 -0.19158344
-0.0030836156 0.09326398 -0.062263172 -0.03709771 -0.009297406 -0.15144959 -0.09807905 0.08615513
-0.03938725 -0.19056717 -0.07912193 0.11971921 0.027829027 -0.18783389 -0.054713633 -0.09045859
0.0010419269 -0.08050426 0.020177355 0.18720216 -0.12509616 0.0053696116 0.028477041 0.12630822
-0.002768538 -0.02024803 0.009968817 0.08990207 0.1188308 -0.047959644 0.061274678 0.16054001
-0.10361245 -0.00074914016 -0.03007727 -0.048766438 0.19446921 -0.018636715 -0.10716467 0.15792006
0.023097128 -0.06784252 -0.19234961 0.111159995 0.1265584 -0.06177876 0.11025786 0.012594783
-0.13782676 0.18772028 0.19525076 -0.13519406 0.14236784 0.16542928 -0.0709423 -0.045337718
-0.10183894 0.1058403 -0.08823985 -0.022116102 -0.101025395 0.05151967 0.18040183 0.17399262
-0.19085632 0.013576066 -0.10523531 0.1680523 0.000381972 -0.1372344 -0.1356095 -0.11504223
0.1940388 -0.087727025 -0.10848119 -0.122676626 0.14413217 0.027840149 -0.123200476 -0.0017740963
0.19450933 -0.021239921 0.0029887822 0.078205965 0.14725894 0.23354274 -0.04118125 0.087350644
0.21125448 -0.07701594 0.23374517 0.06997833 -0.092131175 -0.106343076 0.13210282 -0.08844668
-0.014969784 -0.028308446 -0.067658395 -0.007860188 0.03865287 -0.011501885 -0.07886095 0.07277491
-0.07472222 -0.124072835 0.06716413 -0.06704149 0.0020110612 0.11188621 0.100197315 0.041533206
0.15626332 -0.050933395 0.14622863 0.1422719 0.108671 0.0005885654 -0.024543107 0.1765983
0.15879732 0.035208657 0.09961787 0.14282043 -0.17279385 -0.05305612 0.16258101 0.15126924
0.04001921 -0.037471548 0.22232723 0.17543505 -0.11239964 -0.114957236 -0.098081045 0.17794497
-0.1253902 0.044601817 -0.17967275 0.101764396 -0.09793601 -0.014644559 -0.19941396 -0.004300001
-0.12742764 0.04896727 0.0013876377 0.07716085 0.10452555 0.046463624 -0.18346658 -0.23924626
-0.08374939 0.0151943 0.17184757 0.07195691 -0.07409308 0.04773166 -0.13540396 0.14761555
0.03420582 -0.13153467 -0.047881562 0.07990395 0.07954417 0.15904523 0.04297445 0.1559334
0.15826643 0.091180205 -0.10830332 0.10044917 -0.02771107 -0.0023324369 -0.15668662 0.06863251
-0.07832587 -0.08030556 0.18434297 -0.063906826 -0.12708487 0.08721439 -0.048037775 -0.053657293

lstm.weight_hh_l1 f4 [128, 32]
00000000: 7e50 59be a371 fd3d 4485 713e 011e 513e
00000010: b05e 2abc 7089 09be a7dc d43c 1cb8 0c3e
00000020: f693 99bd 489d e63d 28b7 64bd 1166 3abe
00000030: 1214 af3d 129f 8c3d 4426 463e 8c18 acbd
00000040: a799 4a3c f961 133e 6efb 02be 07bd 8bbd
00000050: 02a6 17be 3a21 3cbe f256 febc 070f f63d
00000060: 0256 e7bc ba38 073d 3211 4a3e 8f0e 44be
00000070: 7fcc b739 3909 acbd d8f3 5a3d 0505 923d
00000080: 12ca 7dbe c0fa b33d c1bf f53d f109 813e
00000090: 9669 05be 4ba6 7bbe 7648 a3bd a408 c9bd
000000a0: e104 1b3e ea60 91bd 6242 8c3d 6944 863d
000000b0: 7313 8b3e 4381 683d 6e58 4b3d d841 b4bc
000000c0: 660a 9fbd cfcf 793e d56b 1cbe cf46 48be
000000d0: bcef b43d 278c 16bd 440d 66be f3f2 303d
000000e0: c3fd ebbc c5b0 603d 812c 1e3c 2b4a 2e3e
000000f0: d9fc 953b c8e2 d0bd e1bc 18be 5d43 35be
00000100: 60d4 dc3c a46f 423e c9dd 6d3e 946b 8b3b
00000110: 2dd5 023e f9a2 edbd ca1b dc3c df95 35bd
00000120: 6626 dabd a35d 64be 03ee f23d 80c7 25bc
00000130: 6246 eebc d57e 7abd 118c 32bd 86dc a83d
00000140: c187 df3c 1439 793d 1e4f a2bd 9745 f83c
00000150: 48d3 18be 71a7 e8bd 86bf e23d 59c3 45bd
00000160: 42cb 3ebe d949 1abe 0d78 f73d fc46 c8bc
00000170: e06a e7bd 0525 28bd 4d45 edbd f68e 093e
00000180: 6fb8 d13c 113b 7a3e e6da 113d e97e e03d
00000190: 44d3 ffbd ca4a 923d 750e 19bd ab22 b6bc
000001a0: e299 473d 2908 ab3d 8000 163e 8b53 83bc
000001b0: 2047 88bd 83e1 773e 1c48 383d 516e 22bd
000001c0: 41a7 3ebc b660 fcbd f1a2 30bd db4f 183b
000001d0: d6c4 fdbd 108b 7f3d d903 c0bd f130 ad3d
000001e0: 4d01 afbd f077 11be 931a 7b3e c2c6 f4bd
000001f0: eb44 dabd de77 bebb 69a9 9abd 5410 afbd
00000200: e105 b5bd ae5d 2d3d 7cd2 a43d 41db 463e
00000210: 79ce b93c f391 b33b 2148 4f3d 2a3c 3e3d
00000220: 5141 7f3d 9a39 5abd 753a 0b3d b5e8 22be
00000230: fc49 973d 356e e33d c615 9b3d 4d54 16bd
00000240: 4bab 393d e3ff 82bd dcd6 273d dbf1 1dbe
00000250: 8c52 b93d 411b 33bd 4721 463c f288 32bd
00000260: 14bf 043e d4d7 113d 2506 d63d 5729 42be
00000270: 7d65 ff3d 5d58 0bbe 8a69 0ebd efa0 f3bc
00000280: 7769 47be 4e6f 52bd 4c0a 583e 65f7 fe3d
00000290: 61bd 49bd a98b 61be 8518 14be a74a 0e3e
000002a0: bf51 263e 979c 3d3c 2568 223e 4aae 02be
000002b0: 9161 263e 01cd 2f3d 916c 383e f03b 983c
000002c0: 98cc 2ebe 27e7 b63d 12e0 023e fa05 52be
000002d0: f96c 4abd 8693 c3bd 32dd f53d cb81 f3bd
000002e0: 7f1c 27be bc66 41bd eeef fa3c fa6d 9b3d
000002f0: 4187 17be 8a0a 69bc 5da6 fcbd 152d d0bd
00000300: b2dc 53be 8a30 713e 7fed d6bb bb07 6d3e
00000310: 22a3 873d ac29 3fbd ebc6 d3bc c93c 01bd
00000320: c9e8 393d 0faa 02be e4bd 4b3d 46af 4abe
00000330: 39a6 d13d 605f 403d 39b9 4bbd c2be 4fbd
00000340: bfe6 17be 90b0 90bd 5e5f e43d de4b 31be
00000350: 0951 1fbe 67ae aebd 467c 9b3d 44a9 643e
00000360: cf24 b53b 3606 15be b0bb 943d d2fa d4bd
00000370: 2a37 91bd 06fe 8cbb 8b83 a83d 95e3 c23d
00000380: d924 01be bec2 aa3d 2c27 5dbd bf63 163e
00000390: 8c4f 39be d652 4f3c 8169 f53d a2c1 86bd
000003a0: a2a0 0c3e 1fd4 82bd 3231 ad3d b187 e8bd
000003b0: 4e10 ecbd 62bb d13d 03ae b5bd 1546 acbd
000003c0: 6fd8 de3d c6f5 163e 4174 e23d 17ff d3bb
000003d0: c8e5 853d 3578 f2bd d6ec 133d c882 db3d
000003e0: eb01 273d 8b23 f53d 68e3 8d3d 3fbb 6ebd
000003f0: cf04 083e 1171 113e ded5 b13c 7aef c6bd
-0.21222112 0.1237519 0.23585993 0.20421602 -0.010398552 -0.13431334 0.025984121 0.13742107
-0.074989244 0.11260468 -0.055838734 -0.18202998 0.0854875 0.06866278 0.19350535 -0.084031194
0.012365735 0.14392842 -0.12791225 -0.068231635 -0.1480942 -0.1837205 -0.031047318 0.12014585
-0.028239254 0.033013083 0.19733122 -0.19146179 0.0003505684 -0.084001966 0.053455204 0.07129864
-0.24784115 0.08788061 0.11999465 0.25202897 -0.13028559 -0.24575154 -0.07972805 -0.09816101
0.1513858 -0.07098563 0.06848599 0.06556017 0.27163276 0.0567639 0.04964488 -0.022004053
-0.07765655 0.24395679 -0.1527551 -0.19558261 0.08834788 -0.036754753 -0.22465998 0.043200444
-0.028807526 0.05485608 0.009654165 0.1702048 0.004577261 -0.10199505 -0.14915802 -0.17701478
0.026956737 0.189879 0.23229136 0.0042547677 0.12776633 -0.1160335 0.02686872 -0.04433238
-0.10651855 -0.22301345 0.118618034 -0.010118365 -0.029086296 -0.061156113 -0.04359061 0.082451865
0.027286412 0.06084545 -0.07925247 0.03030662 -0.14924347 -0.11360062 0.110716864 -0.048282
-0.18632224 -0.15067233 0.12083445 -0.02444791 -0.11299682 -0.04105093 -0.11585484 0.13433442
0.02560064 0.24436595 0.03560915 0.10961706 -0.124914676 0.07143171 -0.037367303 -0.022233328
0.04873074 0.08351166 0.14648628 -0.016031047 -0.06654191 0.2420712 0.044990644 -0.039655987
-0.011636556 -0.12323134 -0.043124143 0.0023240957 -0.12391059 0.06238848 -0.09375734 0.084566005
-0.0854517 -0.14205909 0.24521856 -0.119519725 -0.10657676 -0.005812629 -0.07551844 -0.08548036
-0.08839012 0.042325668 0.08047959 0.19419576 0.022681462 0.005480045 0.050605897 0.046444096
0.06231815 -0.05327759 0.033991296 -0.15909083 0.07387158 0.11105005 0.07572512 -0.03670149
0.045329373 -0.06396463 0.04097639 -0.15424292 0.09048948 -0.043727163 0.012092895 -0.043587632
0.12963516 0.03560622 0.10450391 -0.18961082 0.12470529 -0.13607927 -0.03476862 -0.029739825
-0.19473825 -0.05137568 0.21097678 0.124495305 -0.04925287 -0.22025932 -0.14462478 0.13895665
0.16242121 0.011572978 0.1586004 -0.12761799 0.16248156 0.042920116 0.18010165 0.018583268
-0.17070234 0.089308076 0.12780789 -0.20510092 -0.04942033 -0.09549622 0.1200508 -0.118899904
-0.16319464 -0.047217116 0.030631986 0.07589336 -0.14797689 -0.014223704 -0.12336419 -0.10164849
-0.20689657 0.23553672 -0.0065590735 0.2314748 0.06622912 -0.0466706 -0.025851687 -0.03155211
0.045388017 -0.12760185 0.04974164 -0.19793424 0.102367826 0.046965957 -0.04973719 -0.05071903
-0.14834116 -0.070649266 0.11151002 -0.17314097 -0.15558256 -0.08529358 0.07592063 0.22330195
0.0055280696 -0.1455315 0.07262361 -0.10399403 -0.070906 -0.004302743 0.08228215 0.09516064
-0.12611713 0.083379254 -0.053992435 0.14686488 -0.18096751 0.012654027 0.11983014 -0.06579901
0.13733152 -0.06388115 0.08456649 -0.11354006 -0.11526547 0.102408186 -0.08871081 -0.084118046
0.10881125 0.14742193 0.1105733 -0.006469618 0.06537968 -0.11839334 0.036114536 0.10718304
0.040773313 0.1196967 0.0692814 -0.05828404 0.13283084 0.14203288 0.021708425 -0.09713645

lstm.bias_ih_l1 f4 [128]
00000000: 8d2a 4b3e 3b31 913d 142f 043e f70e a83c
00000010: 0850 5e3d 9dbb 1d3d cccc 513e 1a50 c93d
00000020: 41d2 783e 7728 85bd 2b60 dc3d 44c3 4d3e
00000030: bef5 4b3e a843 1b3e cb7d a53b b369 393e
00000040: 38c5 dbbd dc77 743e 29ac a43d 0217 6a3e
00000050: f50f 16bc ffaa 3a3d 2b1d 123e 61b1 063e
00000060: f596 40be 3a42 5d3e 054e 06be 6df9 7f3a
00000070: 245c 963e 38ae 2e3e eb54 2b3e ad6f 6c3e
00000080: d530 b0bd 5ee7 a8bd 0073 c7bd b792 4b3e
00000090: 91df 5f3d 367a d8bd 103f 123e 7ce9 b93d
000000a0: 8930 59bd c9c6 7b3d 8449 80bd 5a2e 06bd
000000b0: 199d ac3d e6f0 883c 3b51 40bd 1485 3a3e
000000c0: 208d dcbc 8fbf 8a3d 42fe 5b3d 7303 9bbd
000000d0: 279c 9bbd 6db0 c13d 45d8 203e cdb7 e73d
000000e0: e557 833d 68d1 20be 99e2 d13d d20d c53c
000000f0: 0637 12bd 6ce6 d4bd e7ec 363e be82 533e
00000100: 5836 4cbe 4938 b33d e664 593e f6dd 68bc
00000110: 60b8 e1bc cfef 2dbe 7d81 18be a098 1a3e
00000120: a907 6d3c 19f8 a6bb 177a 91bb c9ec dbbc
00000130: 2f93 6ebd ccda 7a3d fd78 a83c 44e7 8ebd
00000140: a4dc e9bd cc57 ef3d ee8a 1fbd c4f7 393c
00000150: 2846 ba3d b1a6 bfbd 3243 253d 2113 50bd
00000160: 91f0 00be 742e 7bbc 143a 103e b870 063d
00000170: c722 dfbd 0e12 cebd 4c6c 1d3e 9f82 dc3d
00000180: 8fbb 253c b7a3 d1bc 46ed 86bd c2a2 0cbd
00000190: 91d5 6c3e 3ebd 033d 4306 fbbc 52e6 41bd
000001a0: f376 053e 351c 233e dd8e 44bd 07ab d43b
000001b0: 1fbb c03d 31fd d83d 41f6 41bd b89b 2f3e
000001c0: a297 1e3c 316f 9d3e 97da 4d3e bab4 9d3d
000001d0: c90c d0bd fd12 ca3c 4643 1dbe 9854 053d
000001e0: d7d3 c63c fcac ad3d ebb9 593e fe00 e63d
000001f0: d479 4a3e e68b e73c 1e6c ad3d d5fb 103e
0.1984045 0.07089468 0.12908584 0.020514948 0.054275542 0.038509 0.2048828 0.09829731
0.24298956 -0.06501859 0.1076053 0.20094019 0.19917962 0.15162528 0.005050396 0.18106727
-0.10730976 0.23873848 0.080406494 0.2286034 -0.009159078 0.04557323 0.14268939 0.13153602
-0.18807586 0.21607295 -0.131157 0.00097646454 0.29367173 0.17058647 0.16731612 0.23089476
-0.08603064 -0.08247255 -0.097387314 0.19880186 0.05465657 -0.10570185 0.14281869 0.09077737
-0.053024802 0.061468873 -0.06264022 -0.032759048 0.084284015 0.016716432 -0.046952467 0.18214828
-0.026922762 0.06774818 0.053709276 -0.07569017 -0.07598143 0.09457479 0.157075 0.11314354
0.06413249 -0.15704882 0.10248298 0.024054442 -0.035697006 -0.10395512 0.17863809 0.20655343
-0.19942605 0.0875097 0.21229896 -0.014213076 -0.027553737 -0.16986011 -0.14893146 0.15097284
0.014467158 -0.0050954935 -0.004439603 -0.026846306 -0.058245834 0.061243817 0.020565504 -0.06977704
-0.11419037 0.11686668 -0.038950853 0.011350576 0.090954125 -0.09357966 0.040347286 -0.050799493
-0.12591769 -0.0153308995 0.14084655 0.03282234 -0.10895305 -0.100620374 0.15373343 0.107671015
0.010115518 -0.02559076 -0.06588225 -0.034334905 0.23128344 0.032162897 -0.030642634 -0.04733879
0.13033657 0.15928729 -0.047987808 0.0064901146 0.094106905 0.105951674 -0.047353987 0.17149246
0.009679707 0.30748895 0.20102917 0.077004865 -0.101586886 0.024667257 -0.15357694 0.032551378
0.024270935 0.0848026 0.21262328 0.11230658 0.19773036 0.028264951 0.08467887 0.14158566

lstm.bias_hh_l1 f4 [128]
00000000: dbaf 5e3e 6686 3fbd 8032 373e 2210 c6bc
00000010: d249 d83c eab3 c8bb aedc e33a fe8f bb3d
00000020: 33c2 5d3e cded 1d3d 3d4f f93d 8777 ee3c
00000030: ec27 b43d fb3f b03d bc52 813a f7fa be3d
00000040: 877a 5a3e a773 5e3d 038e 573e 124d 29ba
00000050: 6877 303d 760f ec3d 1cf1 e43d 345e 193e
00000060: 8f97 0dbe 0cd5 35bd d9b6 473e f3dc 5d3e
00000070: 8ba6 323e 7548 a93c 1ab4 8c3e f97b 513e
00000080: 4123 87bd ae17 1f3e 0ba6 703e a58c 87bd
00000090: 5ba7 f1bd b5a6 9abd 976d adbd f0c6 2b3d
000000a0: 76cd 95bd ef9c 243e 8fe8 1cbd 48fc 473d
000000b0: be64 483e d0e0 813d 71fd 04be 119e eebd
000000c0: b898 9abc abba 113d 9d23 493c a689 f73c
000000d0: a9a8 2abe 3c25 723e 7382 68bd 79f3 053e
000000e0: 2950 933d 1f55 2b3e 837a fb3d 4a38 863d
000000f0: 5ab3 0abd 8cca dbbd a8a3 043e 1eb1 e53b
00000100: f44c bfbd 8909 ce3d fc21 143e 688e f73c
00000110: 5179 e23d da37 35be dea2 3d3c 949f 463c
00000120: bdbf e13c 81ff c1bb c5b3 bdbd 6a09 d93d
00000130: 51cc 263e ac5f 8ebd 2389 2e3c b890 22be
00000140: 4389 023e 1066 4c3d e5b0 473d 0c5c dabd
00000150: 2ea8 a23d 5941 0dbe 85a8 1f3e 93ee d23d
00000160: df7e 85bb 9939 f1bd 3f61 333d 9e0e d037
00000170: 8e30 e0bd 65f3 bebd fc41 eabd 1421 1c3d
00000180: bac3 b13d 9811 b03d bfa9 573c 37ad 2a3e
00000190: 7349 4f3e 9563 aabc a460 f53c 53ec 5cbd
000001a0: a1e3 083d b164 c6bd dd4e 583e fdf7 293d
000001b0: 7fcf cb3c 0b93 ca3d 0c0a 8bbd 292b 99bb
000001c0: 2a16 a8bc dca6 023e 6014 573e 5aaa b93d
000001d0: f39b 72bd 7fb9 253e c349 bebc 3ced 923e
000001e0: 055c babd 2c24 503e 1ad3 9e3d 2dc8 6d3e
000001f0: 764f 013e 8495 553e 6f27 e63b 4886 933e
0.21746771 -0.04675903 0.17890358 -0.024177615 0.026402388 -0.006124963 0.0017384493 0.09158324
0.21656112 0.038556863 0.12173317 0.02910973 0.08796677 0.08605953 0.0009866576 0.093252115
0.21335803 0.054309513 0.21050267 -0.0006458323 0.043082625 0.115263864 0.111788005 0.14977342
-0.13827346 -0.04439263 0.19503345 0.21666317 0.17446344 0.020664433 0.27481157 0.20457448
-0.06598521 0.15536377 0.2350084 -0.06618623 -0.11799499 -0.07551328 -0.08468168 0.04193777
-0.07314579 0.1607549 -0.038307723 0.04882458 0.1956968 0.06341708 -0.12987305 -0.116512425
-0.01887165 0.03557841 0.012276557 0.030217003 -0.16665901 0.23647016 -0.05676503 0.13081159
0.07193024 0.1673169 0.12279227 0.06553705 -0.03386245 -0.10731992 0.12953055 0.0070096394
-0.093408495 0.100604124 0.14466089 0.030219272 0.110582955 -0.17697087 0.011574475 0.012123007
0.027557248 -0.005920351 -0.09262804 0.10597499 0.16288878 -0.06951842 0.010652813 -0.15875518
0.12747674 0.049902022 0.048752684 -0.10662088 0.07942234 -0.1379446 0.15591629 0.10299411
-0.004073962 -0.11778564 0.043793913 2.4802339e-05 -0.10946761 -0.093237676 -0.11438367 0.038117483
0.0867991 0.08597106 0.013163029 0.16667639 0.20242862 -0.020799438 0.029953308 -0.053936314
0.03342021 -0.09687174 0.21123834 0.041496266 0.024879215 0.098913275 -0.06789026 -0.0046743345
-0.020518381 0.12758964 0.21003866 0.09065695 -0.059230756 0.16184042 -0.023228532 0.2869662
-0.090995826 0.20326298 0.07755108 0.23220892 0.12627968 0.20857817 0.007023744 0.28813386

fc1.weight f4 [32, 32]
00000000: 5580 8bbc 15f8 2abe b4a1 513d 1184 24bd
00000010: 51af 663d 5c01 d63d 818a 343e a454 983c
00000020: ee60 88bd cc40 183e 8c50 55bd afa6 5c3d
00000030: ce61 283d 42a4 083e 70c0 0f3d 9619 07be
00000040: 736d 87bd 4b29 0f3e c1ef 6cbd c3d9 c4bd
00000050: 1251 d63d 6af6 91bc 6b8b 003e d7c8 bcbd
00000060: f00a 453e d948 babd 1e1f 1fbd 0f00 53bd
00000070: e311 3c3e e5d3 e23d 8881 b7bd c875 dc3d
00000080: 2fa8 53be b01b 5c3e 32b4 3b3e 03c9 0a3e
00000090: a547 29be 768f eebd 4881 3cbe 463e 4dbe
000000a0: 9154 813e b5da 243d 0c3d 4e3c 1915 07be
000000b0: 6a94 8c3d 90ab 7b3e 6100 e83c f536 02be
000000c0: aec4 44be ae0b f23d 4e9d 50be 4659 43be
000000d0: 49b5 3b3d e1ae 8a3d 9d5b 7bbe 9a2e 4d3e
000000e0: b690 55be cba1 59be b95d 8e3d 3314 6d3e
000000f0: a492 093e f9c9 babd 6e63 113e c51a e6bd
00000100: 50e1 de3c 3f0d 563e 5930 e53d 3f74 453e
00000110: 1850 90be b1ba 6abe 8747 3bbe 180f 51be
00000120: 7e7e 123e 3c93 313d 4693 2e3e f702 d23d
00000130: 2167 e33c 64ef 473d 80bd 3f3e 9a23 2ebe
00000140: 051f 2b3d 1690 153d 9318 dabd d658 51bd
00000150: 19e4 133e 9e5a 36be 9141 a23d 73d6 053e
00000160: 8560 46be 6814 0fbd 0948 5e3d 8946 ae3d
00000170: 224f c2bd 1ab3 ffbd 170b 3a3e 4473 853d
00000180: a410 2bbd b7c4 1dbe b09c f63d d3ac e9bd
00000190: 0eba 873e 6258 abbb 3e32 6d3c ffda a3bd
000001a0: 8a37 4fbd 072e 193d 077a a3be 93a7 28be
000001b0: 03ab 8b3d 9fe9 cbbd d41b 3dbc 3e0e 2cbe
000001c0: 37f2 3ebd 3086 0a3e 41b9 883d e931 823e
000001d0: 16a4 0a3e 4188 1dbe dc2c d4bd b410 e03d
000001e0: efa1 54bd 828f 953d 23ee 403e 44c5 07be
000001f0: 0f16 a1be 81f9 243c 7c92 70be c12f 09bd
00000200: dbfe 47be 4f00 fbbd 4edd 543e d9ac b1bd
00000210: 9178 623e ffd5 873d 2bdd 783e 6b6a 38be
00000220: a82a 49bd acb7 883d 91de 70be f52c b63d
00000230: 0817 d8bd 6679 183c dcfc 38bd 327d 02be
00000240: a3e4 3e3e 820f 273e 9f2c 733e 9fb6 4abd
00000250: 2054 fdbd 5fff aabc 00fc b73d fb5b 7d3e
00000260: 666e 05ba b473 8e3c e14a 45bc 05e2 90be
00000270: 3107 83be 6cc9 4bbe 4331 69be 7cdb c63b
00000280: ca97 b4bc db93 30be c879 303d d578 b8ba
00000290: f47c 20be 121f 743d 30ea 86bd 3371 01be
000002a0: 8e23 db3b e0a8 2d3e 105e cb3c 5d77 47bc
000002b0: d448 273e 3023 093e 9514 2c3e 9198 e43d
000002c0: d723 2c3e 7f92 9d3b 6acf 263c 32bf db3d
000002d0: 08b5 c8bb 76cc 013e be4d 6fbd a900 ea3d
000002e0: d99c 053e e45c 323e 92a0 3fbd db1a 2f3d
000002f0: b589 03be 8ad2 2b3e cf67 2c3e 1cd5 1d3e
00000300: 3020 5fbd 1ece 1f3c 587f 913d 1ef0 893e
00000310: f1bf 35be 2af6 2f3c 9768 9ebe e12b d8bd
00000320: 03da 13bc 1148 5fbe 3881 863e ee3c 78bc
00000330: 83fc 753e be97 983e 73ce 243e 6e2e 41be
00000340: a69f 153e cfcf 903e 73b1 053e 8f31 30be
00000350: 88ca 83be 01a8 9a3c 9c05 153e 2d31 7c3d
00000360: a834 723e 7a0a 1b3d ad6f 03bd db65 0b3d
00000370: 3dec e23d b7c4 7fbe b0b0 7a3c 4738 89be
00000380: c633 8dbc ff5b b9bd 3799 6b3e 60de 8e3d
00000390: fadf 7abc 071b 2ebe e0bc c43d 33bb 123e
000003a0: 7432 91bd dfc9 c7bd 5373 91bd 13b3 84bd
000003b0: ef8c 813e 66eb 453c d893 703e 2932 5ebe
000003c0: 29aa e43e f2ef 353c 0666 b83d b6af 3dbe
000003d0: e45c dabe 6a2e 76be bf88 10bb 8c42 a1bd
000003e0: 3ee6 263e 91c2 5fbc 1ae0 023e 71ef 09be
000003f0: 1dd0 553e 4a04 083a e7d7 7bbe 3981 02bd
-0.017028967 -0.16696198 0.051179603 -0.04016501 0.05631954 0.10449478 0.1763096 0.018595047
-0.06659113 0.14868468 -0.05207877 0.0538699 0.0411089 0.1334391 0.035095632 -0.13193354
-0.06612673 0.13980596 -0.057845835 -0.09611847 0.10464682 -0.017817695 0.12553184 -0.09217995
0.19242454 -0.09095926 -0.038848035 -0.051513728 0.18366198 0.11075572 -0.08960253 0.107646525
-0.20669626 0.21494937 0.18330458 0.13553242 -0.16531236 -0.11648457 -0.18408692 -0.20043287
0.25259832 0.040247638 0.012587797 -0.13191642 0.06864245 0.24577165 0.028320493 -0.12716277
-0.19215652 0.11818634 -0.20372507 -0.19077024 0.045827184 0.06771637 -0.24546666 0.20037308
-0.20855984 -0.21253125 0.0695147 0.23152237 0.13434845 -0.091205545 0.14198086 -0.11235575
0.027207047 0.2090349 0.11190862 0.19282626 -0.28186107 -0.2292278 -0.18289004 -0.20415914
0.14306065 0.043353304 0.17048368 0.10254472 0.027759137 0.048812285 0.18724632 -0.17005768
0.04177763 0.036514364 -0.106492184 -0.05111011 0.14442481 -0.17808005 0.07922662 0.13070087
-0.19372757 -0.03493157 0.054267917 0.08509547 -0.0948775 -0.12485333 0.18168293 0.06516126
-0.041763917 -0.15407072 0.120416045 -0.11409917 0.26509136 -0.005229042 0.014477311 -0.080007546
-0.050590076 0.03739741 -0.31929037 -0.16470174 0.06819727 -0.09956669 -0.011542279 -0.16802308
-0.046617713 0.13527751 0.066759594 0.25428703 0.13539156 -0.15384008 -0.10360119 0.10940686
-0.051912244 0.073027626 0.18840842 -0.13258845 -0.31462142 0.010069252 -0.2349338 -0.033492807
-0.19530813 -0.12255918 0.20787546 -0.08675546 0.22116305 0.066326134 0.24303119 -0.18009345
-0.049112946 0.06675658 -0.23522402 0.088952936 -0.10551268 0.009306287 -0.04516302 -0.1274307
0.18641905 0.1631451 0.2374749 -0.049490567 -0.12369561 -0.020873724 0.08983612 0.24742119
-0.0005089998 0.017389156 -0.012041778 -0.2829744 -0.25591424 -0.19901055 -0.22772698 0.006068645
-0.022045035 -0.17243902 0.04308489 -0.0014074097 -0.15672666 0.059599943 -0.065876365 -0.12640838
0.006687588 0.16958952 0.024825126 -0.0121744545 0.16336375 0.13392329 0.16804726 0.11161912
0.16810547 0.0048087235 0.010181287 0.10729827 -0.006125096 0.12675652 -0.05842375 0.11425907
0.13048114 0.17418247 -0.04678399 0.04275022 -0.128455 0.16779533 0.16836475 0.15413326
-0.054474056 0.009753732 0.07104367 0.26941007 -0.17749001 0.010739842 -0.3093917 -0.10555244
-0.009024146 -0.21804835 0.2627046 -0.0151512455 0.24022107 0.2980327 0.16094379 -0.18865368
0.14611682 0.28283545 0.13055973 -0.17206405 -0.25740457 0.018878939 0.14552921 0.061570335
0.236529 0.037851788 -0.032088924 0.034032684 0.11080215 -0.24977385 0.015300915 -0.2680075
-0.017236602 -0.0905075 0.23007666 0.069760084 -0.015312189 -0.17002498 0.096063375 0.14329223
-0.07089701 -0.09755301 -0.071020745 -0.06479468 0.25302836 0.012080049 0.23493898 -0.21698822
0.44661072 0.011104571 0.090038344 -0.1852406 -0.42648995 -0.24041143 -0.0022054163 -0.07874021
0.16298768 -0.013657228 0.127808 -0.13470246 0.2088017 0.00051886274 -0.24594079 -0.031861518

fc1.bias f4 [32]
00000000: 220b 2a3d a8cf cc3d 6cec 1f3e 6298 513c
00000010: 72eb 6b3d 68d8 0ebe 00de 233e 50aa cf3d
00000020: 7081 783d 61cb e43d 509b d4bd aa4a ee3d
00000030: 47ab 213e e656 2c3e 8142 bfbd c860 233e
00000040: 5ef5 85bd 23cd 073d a21f 1a3d c305 66bb
00000050: e3f7 e03b 9c25 b83d b4e8 f23c 3835 f43d
00000060: 121d 8f3d ecdb 963d f754 ab3c 8a76 3d3e
00000070: b4f0 fbbc 7130 afbd bd48 54bd f0d7 413e
0.041514523 0.10000545 0.15617532 0.012792679 0.057597585 -0.1394974 0.16002655 0.101399064
0.060670316 0.11171604 -0.10381186 0.11635335 0.15787993 0.16830024 -0.093388565 0.15954888
-0.06540941 0.033154618 0.037627824 -0.003509865 0.006865488 0.089915484 0.029651977 0.11924213
0.069879666 0.073661655 0.020914538 0.1850225 -0.030754425 -0.08554161 -0.05182718 0.1893003
