model/save/v8.2_2022-08-30_14-35/model.pt (torch, 286235 bytes, 8 tensors)

lstm.weight_ih_l0 f4 [128, 512]
0	0x3ec3ae79	0.3821905
1	0xbe40252a	-0.18764177
2	0xbe3ef70d	-0.1864893
3	0x3df8bb29	0.12145073
4	0x3dc5817e	0.09643839
5	0xbbec0b90	-0.007203527
6	0xbd1781fa	-0.03698919
7	0x3e8200cc	0.25391233
8	0xbd0739b9	-0.033014033
9	0xbcd790ad	-0.026314104
10	0xbd27f2b3	-0.04100294
11	0x3e41fb68	0.1894356
12	0xbc120a35	-0.008913566
13	0xbd93d5fc	-0.07218549
14	0xbd7a9105	-0.061173458
15	0x3e661ebc	0.22472662
16	0x3dd9cf2c	0.10635218
17	0x3de1cbba	0.11025186
18	0x3ccc1b09	0.024915235
19	0x3d9c209f	0.076234095
20	0x3e1627d8	0.14663637
21	0x3e918ba1	0.2842684
22	0x3e30d825	0.17269953
23	0x3d9a3c06	0.0753098
24	0xbd89f108	-0.06735426
25	0x3cd32985	0.025776634
26	0x3e8754f9	0.26432016
27	0x3dc0d2e5	0.09415225
28	0xbda8f1e1	-0.0824926
29	0x3e35569f	0.17708825
30	0xbc6f24c0	-0.014596164
31	0x3df34d10	0.11879933
32	0xbdc84128	-0.097780526
33	0xbe288343	-0.16456322
34	0xbcd0e77e	-0.02550101
35	0xbdc8fecf	-0.09814226
36	0x3d358e88	0.04432538
37	0xbe002114	-0.12512618
38	0xbe139293	-0.14411382
39	0xbde9eb2f	-0.11421811
40	0xbe4fcf14	-0.20293838
41	0xbd9ce810	-0.0766145
42	0x3e0ecb03	0.1394463
43	0x3d9b533b	0.07584234
44	0x3d5a31dc	0.053270206
45	0xbd9a9960	-0.07548785
46	0x3d68bbca	0.056819715
47	0x3e024ee3	0.12725405
48	0xbdc3a3e7	-0.09552746
49	0x3e15b545	0.1461993
50	0x3e02572f	0.1272857
51	0x3e439e86	0.1910344
52	0xbc9efa02	-0.019406322
53	0xbdcedc3d	-0.10100601
54	0xbd69c035	-0.05706807
55	0x3e6a4f01	0.228817
56	0xbcc5a295	-0.024125377
57	0xbe0d1e5a	-0.1378111
58	0x3e24f1b2	0.16107824
59	0xbd15a0b6	-0.03653022
60	0x3d28bddf	0.0411967
61	0xbd544955	-0.051827747
62	0x3dc4ff16	0.09618966
63	0x3ddc3c03	0.10753634
64	0x3d5d1df5	0.053983647
65	0xbe3a7503	-0.18208699
66	0x3e9fa71e	0.31182188
67	0xbe03d4e1	-0.12874176
68	0xbdd21222	-0.10257365
69	0x3e07a838	0.13247764
70	0x3d621902	0.05519963
71	0x3da900f1	0.08252133
72	0x3e774176	0.24146065
73	0x3d418278	0.047243565
74	0x3e179685	0.14803512
75	0x3db56b55	0.088583626
76	0x3da8f736	0.08250277
77	0xbdc871f7	-0.09787362
78	0x3cd89a75	0.026440838
79	0x3e659d38	0.22423255
80	0x3e6c3b70	0.23069549
81	0x3e768c68	0.24076998
82	0xbe47e85a	-0.19522229
83	0x3e2a7250	0.1664517
84	0x3e7587fb	0.23977654
85	0x3e81ba44	0.25337422
86	0x3deffd67	0.117182545
87	0x3d6faffb	0.058517437
88	0x3e378b97	0.17924343
89	0x3e30b34c	0.17255896
90	0xbe0f45f7	-0.13991533
91	0x3d9ab63f	0.07554292
92	0xbdb9e47c	-0.09076783
93	0x3cb6788c	0.022274278
94	0x3e0a1aca	0.13486782
95	0xbe12b6e2	-0.14327577
96	0xbd23afcc	-0.039962575
97	0x3bba98d8	0.00569449
98	0x3e864be0	0.26229763
99	0xbe011caf	-0.12608598
100	0x3dbf7e1f	0.093502276
101	0x3e1159e2	0.14194444
102	0x3daf9cda	0.08574839
103	0x3d9e3fa1	0.0772698
104	0xbe0d3792	-0.1379073
105	0x3c268fd9	0.010166132
106	0x3ddc80e6	0.10766773
107	0xbe64f291	-0.22358157
108	0x3c174cc2	0.009234609
109	0x3e5141ee	0.20435306
110	0x3d9a354b	0.07529696
111	0xbdbfb8bd	-0.09361408
112	0xbdad1955	-0.08452097
113	0xbd9caf78	-0.076506555
114	0xbe1e2bec	-0.15446442
115	0x3b67ffeb	0.0035400342
116	0x3e0c4f8d	0.13702221
117	0xbdaa5efb	-0.08318897
118	0xbd8adb06	-0.06780057
119	0xbe58e30c	-0.21180362
120	0x3d76572a	0.06014172
121	0xbda049f5	-0.07826606
122	0x3d81c8af	0.063371055
123	0xbd7a5288	-0.061113864
124	0x3dee1d54	0.11626688
125	0xbe387a42	-0.18015388
126	0x3dffdcae	0.12493263
127	0x3d2071e9	0.039171133
128	0x3d922abe	0.07137059
129	0xbdb01aa7	-0.085988335
130	0x3dcb9ee2	0.09942414
131	0xbd3e3d3b	-0.046445113
132	0x3c8fa78a	0.017535944
133	0x3da9b0e0	0.08285689
134	0x3df477a9	0.11936886
135	0x3dbe7caa	0.093011215
136	0x3e81fed6	0.25389737
137	0xbdfd4c15	-0.12368027
138	0x3d4365d8	0.047704548
139	0x3e144939	0.14481057
140	0x3e497754	0.19674426
141	0xbd485dd6	-0.048917614
142	0x3dad73da	0.084693626
143	0xbdfb7a71	-0.12279213
144	0xbe1c7990	-0.15280747
145	0x3b8d52ba	0.0043128403
146	0x3e823c1a	0.2543648
147	0xbd85241f	-0.0650103
148	0xbdcd1284	-0.10013297
149	0xbde11ba7	-0.109916024
150	0x3ddaa798	0.10676497
151	0xbe03f907	-0.12887965
152	0xbc1f80e2	-0.009735318
153	0x3dde8287	0.1086474
154	0xbe3c5b2b	-0.18394153
155	0x3e98263f	0.2971668
156	0x3df77d2f	0.12084424
157	0xbb231853	-0.0024886325
158	0x3e36e2b4	0.17859918
159	0x3dca0fd9	0.09866304
160	0xbd5fb7ca	-0.054618634
161	0xbd389f6c	-0.04507391
162	0x3e5939f4	0.21213514
163	0x3e3545ba	0.1770238
164	0x3d5566f3	0.052100133
165	0xbe048ad1	-0.1294358
166	0xbc57911b	-0.013157154
167	0x3d09e2d9	0.033663604
168	0x3c391a8a	0.011297831
169	0x3deebc99	0.11657066
170	0xbcffd21d	-0.03122812
171	0x3dd78b63	0.10524633
172	0x3cced1fd	0.025246615
173	0x3c9d45a9	0.019198256
174	0xbe1741c2	-0.14771178
175	0xbdf3880e	-0.11891185
176	0x3de26525	0.11054448
177	0xbbf769e5	-0.0075504654
178	0x3e3b2b8b	0.18278329
179	0xbe45236a	-0.1925179
180	0x3e6df2be	0.2323713
181	0x3e6789bf	0.2261114
182	0x3d3a9d5a	0.04556022
183	0xbc831a2d	-0.016003693
184	0xbd783e11	-0.060606066
185	0x3dbd70e1	0.092500456
186	0x3e228ef9	0.15874852
187	0xbd638640	-0.055547953
188	0xbcfdeb28	-0.03099592
189	0xbb389ae7	-0.00281685
190	0xbd7a0432	-0.061039157
191	0x3dc8b92c	0.09800944
192	0x3e685b26	0.2269102
193	0x3ea84d33	0.32871398
194	0xbde3b0d6	-0.11117713
195	0x3c6a10c3	0.014286223
196	0xbbb3ae84	-0.0054834504
197	0x3d124c39	0.035717223
198	0x3d9a9f47	0.07549911
199	0x3d355f9d	0.044280637
200	0xbdc62ae6	-0.09676151
201	0xbe4df827	-0.20114194
202	0x3da41b80	0.08013058
203	0xbe165ba1	-0.14683391
204	0x3e39e92d	0.18155356
205	0x3d0a6267	0.03378525
206	0x3deb7272	0.11496438
207	0x3d91ab86	0.071127936
208	0xbd3955b6	-0.045247756
209	0xbdc7a178	-0.097475946
210	0x3d0b0606	0.03394129
211	0x3e2f8152	0.17139176
212	0x3e3efc35	0.18650897
213	0xbd9d940a	-0.07694252
214	0x3cc6c567	0.02426405
215	0xbdad81d1	-0.08472026
216	0x3e418157	0.18896995
217	0x3d3ef57f	0.046620842
218	0x3e22265d	0.15834947
219	0xbcda19fe	-0.026623722
220	0x3e46c1c1	0.19409849
221	0xbc07584f	-0.0082608005
222	0x3d98a959	0.074541755
223	0x3d79c74d	0.060981084
224	0x3e810e85	0.2520639
225	0x3b9f8ece	0.0048693186
226	0xbd57c1b4	-0.052674964
227	0xbdb7b6c6	-0.08970408
228	0x3dcf37b9	0.1011805
229	0x3ddb626d	0.107121326
230	0xbe0c2ef3	-0.13689785
231	0x3e3b467a	0.18288603
232	0x3e51a806	0.20474252
233	0x3d544884	0.05182697
234	0x3da6b585	0.08140091
235	0xbd8ac711	-0.0677625
236	0xbe27316b	-0.16327445
237	0x3e0acc21	0.13554431
238	0xbdc86951	-0.097857125
239	0x3dd710fa	0.10501285
240	0x3d046ff3	0.032333326
241	0x3db3af30	0.08773649
242	0xbcfdc66e	-0.030978408
243	0x3cfede2f	0.031111805
244	0xbe06a1cb	-0.13147657
245	0x3d9cdb91	0.076590665
246	0x3de9e991	0.114215024
247	0x3ce22e37	0.027609928
248	0x3c366779	0.011133068
249	0xbddaed0d	-0.10689745
250	0x3d9dfd0c	0.077142805
251	0x3d022440	0.031772852
252	0xbd632748	-0.055457383
253	0x3dc9c91b	0.09852811
254	0xbd1fb29a	-0.038988687
255	0x3989022e	0.000261323

lstm.weight_hh_l0 f4 [128, 32]
0	0xbc97961f	-0.0185042
1	0xbb4cfe1a	-0.0031279386
2	0x3d2361fe	0.039888375
3	0x3de42914	0.111406475
4	0xbd93c6a5	-0.07215623
5	0xbde02fcf	-0.10946619
6	0x3e1aefe9	0.15130581
7	0x3dfa3167	0.12216454
8	0x3d06b150	0.032883942
9	0xbe17380a	-0.14767471
10	0x3e6fe040	0.23425388
11	0xbe2aee77	-0.1669253
12	0xbd09746f	-0.033558305
13	0xbdedccdc	-0.116113394
14	0xbe1633cc	-0.14668196
15	0x3e04af20	0.1295743
16	0xbc8dd3a5	-0.017312834
17	0x3e4cd3d7	0.20002685
18	0xbc3a8cc5	-0.011386101
19	0x3d3a0126	0.04541125
20	0x3c89ff45	0.016845355
21	0xbe2b94cc	-0.1675598
22	0xbddd7ccf	-0.10814821
23	0x3cbac0b7	0.022796972
24	0xbe373afa	-0.17893592
25	0x3d447296	0.04796084
26	0xbdcd6750	-0.10029471
27	0x3c52c2a9	0.012863793
28	0xbc7ab545	-0.015302007
29	0xbe1451b8	-0.14484298
30	0xbe7528a5	-0.23941286
31	0x3dd49c2f	0.10381352
32	0xbe02e7a6	-0.1278368
33	0x3c54451b	0.012955929
34	0x3e4d7375	0.20063575
35	0x3dee177e	0.116255745
36	0xbd3947ff	-0.045234676
37	0x3e1c68a5	0.15274294
38	0xbc7211b4	-0.014774729
39	0x3e15e70f	0.14638923
40	0x3d567bf2	0.052364297
41	0x3e2fcdde	0.17168376
42	0x3d9fc08c	0.07800397
43	0x3e230790	0.15920854
44	0x3afc3f15	0.0019244874
45	0xbe35c9c1	-0.17752744
46	0xbdfa0144	-0.12207273
47	0xbdc488a9	-0.09596378
48	0xbd9d761a	-0.07688542
49	0xbdf2ba30	-0.11851919
50	0x3ccf005b	0.025268724
51	0xbded27c6	-0.11579852
52	0x3d21c04f	0.03949004
53	0x3e6fc825	0.23416193
54	0x3d42d5b1	0.047567073
55	0xbd0c40c4	-0.034241453
56	0x3c92d978	0.017925963
57	0x3c0d114a	0.008610079
58	0xbe53d022	-0.20684865
59	0x3d524389	0.051333938
60	0x3e392c11	0.18083216
61	0x3d81da13	0.063404225
62	0xbd257388	-0.040393382
63	0xbdbba15a	-0.09161635
64	0xbd0229cb	-0.031778138
65	0x3e482fc5	0.19549473
66	0xbe155fad	-0.14587279
67	0x3e3be1c6	0.18347844
68	0xbd020d01	-0.031750683
69	0x3e829813	0.25506648
70	0x3e4610bf	0.19342326
71	0x3e59dc99	0.21275558
72	0xbbbcdaea	-0.0057634013
73	0x3d97a881	0.074051864
74	0xbe76b04f	-0.24090694
75	0x3bcaa1b1	0.006183826
76	0x3d1c0469	0.038090143
77	0x3dc82063	0.09771802
78	0xbd404695	-0.046942312
79	0x3d84c037	0.064819746
80	0xbd870b3b	-0.06593939
81	0x3e6fcfbe	0.23419091
82	0xbbbef2ef	-0.0058273
83	0xbdf10a01	-0.11769486
84	0x3deb636e	0.11493574
85	0x3d50893d	0.05091213
86	0xbdd71abc	-0.10503146
87	0xbcd1421f	-0.025544224
88	0x3e4a65c3	0.19765382
89	0x3d9e5300	0.07730675
90	0xbde44ca6	-0.11147432
91	0x3cb77368	0.022393897
92	0xbd31f115	-0.043442804
93	0xbe141974	-0.14462835
94	0xbb3dfe15	-0.0028990556
95	0x3d605b9a	0.054774858
96	0x3e1ca920	0.15298891
97	0x3e193e71	0.14965226
98	0x3d2e6a22	0.042581685
99	0xbc92024f	-0.017823366
100	0x3c1ccb62	0.009569975
101	0xbc7707f5	-0.015077581
102	0x3e0b00a4	0.13574463
103	0x3ce7ac23	0.028280323
104	0xbe00452d	-0.12526388
105	0xbdd9c33f	-0.10632943
106	0xbc8002d1	-0.015626343
107	0xbc4e4ac6	-0.01259107
108	0x3da515f2	0.08060826
109	0xb9093a18	-0.0001308698
110	0xbe28d8b6	-0.16488919
111	0xbbdf5b21	-0.0068162833
112	0xbda8cf08	-0.08242613
113	0xbdebcc87	-0.1151362
114	0x3d21a2d3	0.039461922
115	0x3e0c27bf	0.13687037
116	0x3d99d4d4	0.07511297
117	0x3dc805ec	0.097667545
118	0xbe0a9fc1	-0.13537504
119	0x3e6bcbff	0.23027037
120	0x3e267a0a	0.16257492
121	0xbdd24715	-0.10267464
122	0xbe771488	-0.24128926
123	0x3d930eae	0.07180534
124	0xbe4366aa	-0.19082132
125	0xbc6af50b	-0.014340649
126	0x3dd2450d	0.10267077
127	0xbd749ff6	-0.059722863
128	0xbe63f1d1	-0.22260214
129	0x3e217679	0.1576785
130	0xbd558a19	-0.052133653
131	0x3e2ac805	0.16677864
132	0xbdf4ad22	-0.11947085
133	0x3e8c6b52	0.2742563
134	0xbd59b901	-0.05315495
135	0x3e68126b	0.22663276
136	0xbdb702f2	-0.08936109
137	0x3d79a4c3	0.060948145
138	0xbbbc1c52	-0.0057406807
139	0x3e6912c5	0.22761066
140	0xbe8634df	-0.26212212
141	0xbc6c52e6	-0.014424061
142	0xbe3af9b7	-0.18259321
143	0x3c8da03d	0.017288322
144	0xb9e92dfe	-0.0004447549
145	0x3ca00620	0.01953417
146	0xbdb887fc	-0.09010312
147	0xbe33202c	-0.17492741
148	0xbd4ee80a	-0.05051426
149	0x3a2304b5	0.0006218658
150	0x3ad8425a	0.0016499266
151	0xbdb93ca4	-0.090447694
152	0x3cecc66c	0.028903209
153	0xbcf86015	-0.030319253
154	0xbdba17d5	-0.09086577
155	0x3e315e1f	0.1732106
156	0x3e744dda	0.23857823
157	0xbe32bf2e	-0.17455742
158	0x3d25a7b5	0.04044314
159	0x3d51c6a0	0.051214814
160	0xbe26ba8b	-0.16282098
161	0x3e1c0457	0.1523603
162	0x3d713432	0.058887668
163	0x3e1ec3ae	0.15504333
164	0x3bad7bd0	0.0052943006
165	0xbd6a2284	-0.057161823
166	0x3da9b2c0	0.08286047
167	0x3e39a0d0	0.18127751
168	0xbdf079f5	-0.117420115
169	0xbd52803e	-0.051391833
170	0xbde3adae	-0.11117111
171	0x3e4b0c40	0.19828892
172	0xbd094fe5	-0.03352346
173	0xbe403c46	-0.18772992
174	0xbe0277c4	-0.12741
175	0xbdb7bcea	-0.089715794
176	0x3c98306d	0.018577779
177	0x3e07241d	0.1319737
178	0x3d13fcf8	0.03612992
179	0xba9293e6	-0.0011182993
180	0x3d8cd4b3	0.06876507
181	0x3d71de8d	0.05905013
182	0x3e07a3cf	0.13246082
183	0x3d2c9b93	0.042140555
184	0x3dffcdd8	0.124904335
185	0x3e82bd5f	0.25535104
186	0xbd1949e4	-0.037423983
187	0x3de044c8	0.10950619
188	0x3e74a638	0.23891532
189	0xbe3cf99d	-0.18454595
190	0x3e5f81d5	0.2182687
191	0xbe797c32	-0.24363783
192	0xbc3f06bb	-0.0116593195
193	0x3e0179bb	0.12644093
194	0xbd9d4d8b	-0.07680806
195	0x3e5e1e58	0.21691263
196	0x3e08a049	0.13342394
197	0x3e0abc88	0.13548481
198	0x3dbe3429	0.092872925
199	0x3e58db75	0.21177466
200	0x3e2555df	0.16146038
201	0x3e7b0379	0.24513043
202	0x3e0765c1	0.1322241
203	0xbda34bce	-0.07973443
204	0xbda98acb	-0.08278426
205	0xbd5e1ca5	-0.054226536
206	0xbce773cc	-0.028253458
207	0x3d11729c	0.03550969
208	0x3e1011a9	0.14069237
209	0xbe10f42d	-0.14155646
210	0xbe5f4983	-0.21805386
211	0xbe2f1a5a	-0.17099896
212	0xbd8e8cf7	-0.06960481
213	0x3e2c3a17	0.16819035
214	0x3d075790	0.03304249
215	0xbdd39877	-0.10331815
216	0x3e25115f	0.16119908
217	0xbbdefe5b	-0.006805224
218	0xbd9d3ff5	-0.076782145
219	0xbd947845	-0.07249502
220	0x3e5ce5ef	0.21572088
221	0xbe317324	-0.17329079
222	0xbb695707	-0.003560485
223	0xbe7adf49	-0.24499239
224	0xbcfe5bcc	-0.031049632
225	0x3e2ff371	0.1718271
226	0xbd4e0a38	-0.050302714
227	0x3e36e64c	0.17861289
228	0xbd53889c	-0.051643953
229	0xbcf6aaea	-0.030110795
230	0x3a21d9b9	0.0006174106
231	0xbdd361d8	-0.103213966
232	0x3dd0b38f	0.10190498
233	0x3d225a3d	0.03963684
234	0xbd1056c2	-0.03523899
235	0x3d2d1db7	0.042264666
236	0xbdaa3f34	-0.08312836
237	0x3dd8860f	0.10572445
238	0xbd545cf0	-0.051846445
239	0x3db1c76c	0.08680615
240	0x3e3820ca	0.17981258
241	0x3d338f49	0.04383782
242	0x3c19c0f5	0.009384383
243	0x3dacf554	0.0844523
244	0xbd86244a	-0.0654989
245	0xbd4b775c	-0.049674377
246	0xbdd84d30	-0.10561597
247	0xbe0cfe38	-0.13768852
248	0x3e23b5c1	0.15987302
249	0x3d24022d	0.040041137
250	0x3b3257a6	0.0027212887
251	0x3e12e178	0.14343822
252	0xbe08bd9a	-0.13353577
253	0xbcf5d2c1	-0.030007722
254	0xbd8097c6	-0.062789485
255	0xbe3a7fc8	-0.18212807

lstm.bias_ih_l0 f4 [128]
0	0xbdc140f4	-0.09436217
1	0x3e2a9ea9	0.16662087
2	0x3e84cce5	0.25937572
3	0x3d01e2ca	0.031710424
4	0x3e23503a	0.15948573
5	0x3da8ca93	0.08241763
6	0x3ca46fcb	0.020072838
7	0xbe197533	-0.14986114
8	0xbde4cfc1	-0.111724384
9	0x3dbd3c5a	0.09240027
10	0x3dbd6e69	0.09249575
11	0x3a24b105	0.00062824815
12	0x3d4aa6ea	0.049475588
13	0x3e5ea9bc	0.21744436
14	0x3cba9cf5	0.022779921
15	0x3e93a8e4	0.2883979
16	0x3d9a2f97	0.07528608
17	0xbd9c2e08	-0.07625967
18	0x3d9f0ad0	0.07765734
19	0xbe0ad567	-0.13557969
20	0x3e0f4d3d	0.13994308
21	0x3e54d8d5	0.2078584
22	0x3da2ec6e	0.07955252
23	0x3e171772	0.14755037
24	0x3e3a2a7b	0.18180268
25	0xbc87c53a	-0.016573537
26	0xbcfe051d	-0.031008298
27	0x3dc2d866	0.09513931
28	0x3e402c9a	0.18767014
29	0x3db486f0	0.088148
30	0x3dc03a84	0.09386161
31	0xbbcf3af2	-0.0063241655
32	0x3dfce16f	0.123476855
33	0x3e10a431	0.14125134
34	0xbc8692eb	-0.016427478
35	0x3d66fde8	0.056394488
36	0x3e04f636	0.12984547
37	0x3e44c30c	0.1921503
38	0x3e672a87	0.22574817
39	0x3dea8322	0.11450793
40	0xbe17bdd0	-0.14818501
41	0x3e00f079	0.12591733
42	0x3cd43355	0.025903383
43	0x3d72a42f	0.05923861
44	0x3e0fec55	0.14054997
45	0x3e2ac929	0.16678299
46	0x3dfb7aba	0.122792676
47	0x3e519f04	0.20470816
48	0x3d8a6aec	0.06758675
49	0x3e603812	0.21896389
50	0xbd3ff467	-0.04686394
51	0x3e6b7ea6	0.22997531
52	0xbd1016ee	-0.035178117
53	0x3d5aa57a	0.053380467
54	0x3dab41cc	0.08362159
55	0x3e667795	0.22506554
56	0xbb919bd0	-0.004443623
57	0x3e41c9cc	0.18924636
58	0xbd95506b	-0.07290729
59	0x3e567121	0.20941593
60	0x3d917b89	0.071036406
61	0x3ceb6990	0.02873686
62	0x3daef6a8	0.0854314
63	0xbce21e8d	-0.027602458
64	0x3dd340f2	0.10315122
65	0x3e1a97b5	0.15096934
66	0xbe2f9369	-0.17146076
67	0xbe255d22	-0.16148809
68	0x3d3cd83e	0.046104662
69	0x3de13457	0.10996311
70	0xbd949764	-0.07255438
71	0x3dbaf7b9	0.091292806
72	0xbe2d4ad8	-0.16923082
73	0xbd9a6f2d	-0.07540736
74	0x3e361599	0.17781676
75	0x3e17b374	0.1481455
76	0xbceae1ea	-0.028672177
77	0xbcc1a3f1	-0.023637744
78	0xbc2eb9c9	-0.010664412
79	0xbe168e62	-0.14702752
80	0xbe1805a5	-0.14845903
81	0xbcca0b62	-0.02466363
82	0x3e248ffb	0.16070549
83	0xbc84ba75	-0.01620219
84	0xbd5c5449	-0.053791318
85	0x3e2e7715	0.17037614
86	0xbcf835bc	-0.03029906
87	0x3e1ad34f	0.1511967
88	0x3e36c8db	0.17850058
89	0x3df56845	0.119827785
90	0xbbcc95e6	-0.006243455
91	0x3e088e3c	0.13335508
92	0xbe0a22a1	-0.13489772
93	0xbd586202	-0.052827843
94	0xbd0ba521	-0.034093026
95	0xbd8cd677	-0.068768434
96	0x3dce60d6	0.10077064
97	0x3e4170a5	0.18890627
98	0x3e0e6178	0.13904369
99	0xbc83bb17	-0.016080422
100	0x3da6684e	0.08125363
101	0x3e621dc1	0.22081663
102	0x3e86c9fb	0.26325974
103	0x3e5d8060	0.21631002
104	0x3e8b58ec	0.2721628
105	0xbd699742	-0.057029016
106	0x3d8a3fad	0.067504264
107	0xbc01b510	-0.007916704
108	0x3da4899a	0.08034058
109	0xbd6d4d1f	-0.057934877
110	0xbce99a93	-0.02851609
111	0x3e60f3ec	0.21968049
112	0xbd533869	-0.05156747
113	0x3e32bce5	0.1745487
114	0x3b8cc924	0.004296439
115	0x3a6d6a39	0.0009056661
116	0x3e0a8d1d	0.13530393
117	0x3e418215	0.18897279
118	0x3e462ea9	0.19353737
119	0x3e014656	0.12624487
120	0xbd76afb2	-0.06022615
121	0xbdfde396	-0.12396924
122	0xbdc09e6a	-0.09405215
123	0x3e738c20	0.23783922
124	0x3ca5b47c	0.020227663
125	0x3e07f4bf	0.13276957
126	0x3dd903da	0.10596438
127	0x3d2034d3	0.039112877

lstm.bias_hh_l0 f4 [128]
0	0x3d8610d9	0.06546182
1	0x3db8f884	0.090317756
2	0x3da11a02	0.07866289
3	0x3c5602ed	0.013062221
4	0xbd93fffd	-0.0722656
5	0x3db94bef	0.09047686
6	0xbd0dbcf6	-0.034604035
7	0x3e2bc3fa	0.16773978
8	0x3c9e8b12	0.019353423
9	0xbd8386b3	-0.06422176
10	0x3e3a1014	0.18170196
11	0x3ca2f677	0.019892914
12	0x3d4797ab	0.048728626
13	0x3cdc6d51	0.026907595
14	0x3de5acc2	0.112145916
15	0x3cd3702d	0.025810326
16	0xbdf257d7	-0.1183316
17	0x3e08f8bb	0.13376133
18	0x3d974d35	0.07387773
19	0xbdd69c95	-0.104790844
20	0xbd905658	-0.07047719
21	0x3db2a5a8	0.08723003
22	0x3d805b2a	0.06267388
23	0x3e334125	0.1750532
24	0x3cd4d673	0.025981164
25	0xbdca265e	-0.09870599
26	0x3df92f76	0.121672556
27	0x3dd0c035	0.101929106
28	0x3ce6c035	0.028167823
29	0x3e18e73d	0.1493196
30	0x3e5c5a32	0.21518782
31	0xbd662290	-0.056185305
32	0x3e1d4d1f	0.1536145
33	0x3e4bd4db	0.19905417
34	0xbd51c8e0	-0.05121696
35	0x3cfe0f3d	0.031013126
36	0xbdd61d4e	-0.10454808
37	0x3e4b234d	0.19837685
38	0x3e60c1a4	0.21948868
39	0x3d26ca04	0.04072
40	0xbdbc6820	-0.09199548
41	0x3d870bf8	0.0659408
42	0x3dfc989c	0.123337954
43	0xbca53b41	-0.020169856
44	0xbe0f6d66	-0.14006576
45	0x3e1b798e	0.15183088
46	0x3d53f10d	0.051743556
47	0xbd065884	-0.03279926
48	0xbd7fb2cc	-0.062426373
49	0xbd5acfd2	-0.05342085
50	0x3e44dc38	0.19224632
51	0x3e49b024	0.19696099
52	0x3d884be5	0.06655101
53	0x3e303a5d	0.17209764
54	0xbcb25bd8	-0.02177231
55	0x3e518318	0.20460165
56	0x3e60b49c	0.21943897
57	0xbd7ba6b5	-0.06143828
58	0xbe17af9d	-0.14813085
59	0x3e4b3f23	0.19848303
60	0xbdae345a	-0.08506079
61	0x3e4c1574	0.19930059
62	0xbc8c1313	-0.017098939
63	0x3d85568c	0.06510648
64	0xbde98192	-0.11401667
65	0xbdf34dd6	-0.118800804
66	0xbd822454	-0.06354585
67	0x3e1738ed	0.14767809
68	0x3c7291b8	0.01480525
69	0xbd35c7b5	-0.04437991
70	0x3e2fc965	0.1716667
71	0xbdb0812f	-0.0861839
72	0xbd5d1da2	-0.05398334
73	0xbdc37b9d	-0.09545062
74	0x3dd924de	0.10602735
75	0xbd93110c	-0.07180986
76	0x3c5aa0b1	0.013343976
77	0xbd8e9b7f	-0.06963252
78	0xbdaef54e	-0.08542882
79	0x3d446cb7	0.04795524
80	0x3e0feb0a	0.14054504
81	0x3e072c79	0.13200559
82	0xbe0fe7a9	-0.14053215
83	0xbc4aa328	-0.012368001
84	0x3e443a9f	0.19162987
85	0x3b7363f2	0.003713843
86	0x3d117d04	0.035519615
87	0xb9259962	-0.00015792766
88	0xbe1f091b	-0.15530817
89	0xbdf778d3	-0.12083592
90	0xbc7eed9b	-0.015559579
91	0xba1d5a8b	-0.00060025667
92	0x3e3eeb8c	0.18644542
93	0xbd54d261	-0.051958445
94	0xbdd35d77	-0.103205614
95	0xbbcf0766	-0.0063180206
96	0xbcb57384	-0.022149809
97	0xbdca229d	-0.09869883
98	0x3e1bfba4	0.15232712
99	0xbdb7e4b8	-0.089791715
100	0xbda45d4f	-0.0802561
101	0x3e821f4c	0.25414503
102	0x3e4379db	0.19089453
103	0xbdd03521	-0.101663835
104	0x3a1ffeaa	0.00061033166
105	0x3d41fab6	0.047358237
106	0x3d7c0562	0.06152857
107	0x3b54785b	0.003242037
108	0xbdc34299	-0.09534187
109	0x3b267fbf	0.0025405732
110	0x3e16d170	0.14728332
111	0x3e115c4c	0.14195365
112	0x3d8bb82a	0.06822236
113	0x3c6f05f2	0.01458882
114	0x3df3a12c	0.118959755
115	0xbd654f5b	-0.055983882
116	0xbce774f0	-0.028254002
117	0xbd047fa5	-0.032348294
118	0x3e1d4f91	0.15362383
119	0x3e5734be	0.21016213
120	0x3cc69792	0.024242196
121	0xbcbda27e	-0.023148771
122	0xbdbe19dd	-0.09282277
123	0xbd721f4c	-0.05911188
124	0xbcf756f1	-0.030192824
125	0x3d4adc3b	0.049526434
126	0x3db2b781	0.08726407
127	0x3e1a41f8	0.15064228

fc1.weight f4 [32, 32]
0	0xbe5bcb9a	-0.21464387
1	0x3ddfb3f8	0.10922998
2	0xbe4f62c6	-0.20252523
3	0x3cae0984	0.021244772
4	0xbdccbcb9	-0.099969335
5	0xbe8f404a	-0.27978736
6	0x3e8dd08e	0.27698177
7	0xbd5b452b	-0.05353276
8	0xbe95da60	-0.2926817
9	0xbcc4184b	-0.023937365
10	0x3e60fc1d	0.21971174
11	0xbeba783c	-0.36419857
12	0xbe1c8915	-0.15286668
13	0x3eb1ce83	0.34727868
14	0xbd375dd6	-0.044767223
15	0x3e365b98	0.17808378
16	0xbdcaa06e	-0.09893881
17	0xbc4a2294	-0.012337346
18	0x3dace1f5	0.084415354
19	0xbd692355	-0.05691846
20	0x3e72519e	0.23663947
21	0x3d942339	0.07233281
22	0xbd07ceb6	-0.03315612
23	0xbe355c34	-0.17710954
24	0x3e521b08	0.20518124
25	0x3dab4300	0.083623886
26	0x3e5cc992	0.21561268
27	0x3d54791e	0.05187332
28	0x3e752afd	0.2394218
29	0x3b93598e	0.0044967597
30	0xbea8f395	-0.32998338
31	0x3d7d77fa	0.061881997
32	0xbe5e385d	-0.21701188
33	0x3dd57244	0.10422185
34	0x3e9807a6	0.29693335
35	0x3d6c808a	0.057739772
36	0x3e8997c2	0.26873595
37	0x3ea3b912	0.31977135
38	0xbbb9f181	-0.0056745415
39	0xbc8a1f1b	-0.016860535
40	0xbbe390b4	-0.00694474
41	0x3e98cf7c	0.29845798
42	0xbe9f3639	-0.31096056
43	0x3e95af79	0.29235438
44	0xbe520a81	-0.2051182
45	0xbd83c8e7	-0.064348035
46	0xbd8cd1f3	-0.06875982
47	0xbe174bf4	-0.14775068
48	0x3e98b3e6	0.29824752
49	0x3d052f96	0.032516085
50	0xbd91a1dc	-0.0711095
51	0xbd972fa3	-0.07382133
52	0xbd17a74c	-0.03702478
53	0x3b97b509	0.0046297354
54	0x3e9cf2cf	0.30653998
55	0xbcd3c776	-0.025851946
56	0x3d96fe59	0.07372732
57	0x3d005410	0.03133017
58	0x3de2aca6	0.11068086
59	0x3cc7bbff	0.024381636
60	0x3e2a31d0	0.16620564
61	0xbe973910	-0.29535723
62	0x3e5e76f6	0.21725067
63	0xbe6cbfcc	-0.2312004
64	0xbe53d002	-0.20684817
65	0x3d54a92c	0.051919147
66	0x3e31b56b	0.17354362
67	0x3e4236f2	0.18966272
68	0x3eb4aaa1	0.3528643
69	0x3ea5a629	0.32353333
70	0xbd63d718	-0.05562505
71	0x3dc8d3dd	0.09806035
72	0xbc97abfd	-0.018514628
73	0x3e6dcbf0	0.23222327
74	0xbe9b50ba	-0.30335027
75	0x3e5ee959	0.21768703
76	0xbe579fae	-0.21057007
77	0x3c245d37	0.01003199
78	0xbdc05542	-0.09391262
79	0xbdcbae28	-0.09945327
80	0xbd22dd41	-0.039761785
81	0xbcd82c9c	-0.026388459
82	0xbe567f4c	-0.20946997
83	0xbc2c8ef8	-0.010532133
84	0x3e29535f	0.1653571
85	0x3b50c978	0.0031858366
86	0x3d45ebc7	0.048320558
87	0xbe39df4a	-0.18151584
88	0x3e766a8b	0.2406408
89	0x3dd172e6	0.10226993
90	0x3dd751cf	0.105136506
91	0x3dd49f67	0.10381966
92	0x3e1204e7	0.14259683
93	0xbc0c8b21	-0.008578093
94	0x3e89729b	0.2684525
95	0xbe40b982	-0.18820766
96	0x3e00b535	0.12569125
97	0x3dc2b7b2	0.09507693
98	0xbe7fb6d2	-0.24972084
99	0x3e2503b6	0.16114697
100	0xbe5dd9ab	-0.21665065
101	0xbe30a080	-0.17248726
102	0xbd986f2a	-0.07443078
103	0xbdc1ee57	-0.09469288
104	0xbe40881c	-0.18801922
105	0xbe665194	-0.22492057
106	0x3e25ffae	0.16210815
107	0x3de9cd22	0.11416079
108	0x3d3c0a63	0.045908343
109	0x3dcb0440	0.0991292
110	0xbe3e5493	-0.1858695
111	0xbd949635	-0.07255212
112	0x3e1cd793	0.1531661
113	0x3cd6b534	0.026209451
114	0xbe06a6f2	-0.13149622
115	0xbdd2a3ca	-0.102851465
116	0xbde9b278	-0.11410993
117	0xbe120fa6	-0.14263782
118	0x3da20c27	0.07912474
119	0xbd7903db	-0.060794692
120	0x3dc3a42b	0.09552797
121	0x3d54ce04	0.051954284
122	0x3d6f6e16	0.058454596
123	0x3e088d61	0.13335182
124	0xbd1b6945	-0.03794219
125	0xbe19fcc8	-0.15037835
126	0x3c486db9	0.012233191
127	0x3e491e90	0.19640565
128	0xbd886326	-0.06659536
129	0xbc9b12d6	-0.01892988
130	0x3e818b68	0.2530167
131	0x3e1c3fb9	0.15258683
132	0x3ea169d6	0.3152606
133	0x3e1ff960	0.15622473
134	0xbdaa7c9d	-0.08324549
135	0x3e35e3b3	0.17762642
136	0x3ccc5a1e	0.024945315
137	0x3e5b3e4e	0.21410486
138	0xbd90747d	-0.070534684
139	0x3e7805e8	0.24221003
140	0xbe58f246	-0.2118617
141	0xbe708a97	-0.23490368
142	0xbdea0aab	-0.11427816
143	0xbe44f363	-0.1923347
144	0x3e40b32f	0.18818353
145	0x3ce37967	0.02776785
146	0xbe710f38	-0.23540962
147	0x3bca3f70	0.006172113
148	0xbdb6dcaa	-0.08928807
149	0x3dcf187d	0.10112093
150	0x3e2f4f5d	0.17120118
151	0xbe193a08	-0.14963543
152	0x3e043456	0.1291059
153	0x3e83ebc1	0.25765803
154	0x3e785fa1	0.2425523
155	0x3de6b0ac	0.11264166
156	0x3ce153f1	0.027505847
157	0xbdb9f0bd	-0.0907912
158	0x3e374bf2	0.17900065
159	0xbe97370a	-0.2953418
160	0xbd09bf2e	-0.03362959
161	0x3e18222e	0.14856789
162	0xbecaf3fd	-0.39639273
163	0xbdc05bf1	-0.093925364
164	0xbea5a1a3	-0.32349882
165	0xbf128abe	-0.57242954
166	0x3dc39d31	0.09551466
167	0xbe300194	-0.17188102
168	0xbe5b17df	-0.21395825
169	0xbe7431dd	-0.23847146
170	0x3de40f9f	0.11135792
171	0xbe347ac8	-0.17624962
172	0xbd41da06	-0.047327064
173	0x3e290813	0.16506986
174	0xbdb8ffb6	-0.09033148
175	0x3e88f06f	0.26745936
176	0x3d189660	0.037252784
177	0xbe07651d	-0.13222165
178	0x3e2c4e49	0.16826738
179	0x3d85fc3d	0.06542251
180	0x3d092ffa	0.03349302
181	0xbddf6abe	-0.10909031
182	0xbe2acaaa	-0.16678873
183	0xbeb1a40f	-0.3469548
184	0xbda8b31f	-0.0823729
185	0x3de365eb	0.11103424
186	0xba9aea02	-0.0011819007
187	0xbd88a746	-0.0667253
188	0x3d25a2b3	0.040438365
189	0x3dc2b3a1	0.09506918
190	0xbe5addab	-0.21373622
191	0x3cf804f0	0.030275792
192	0xbe3414c8	-0.17586052
193	0x3d96bea4	0.073605806
194	0x3e06d172	0.13165835
195	0x3e1c45b6	0.15260968
196	0x3e3567b6	0.17715344
197	0x3e84b2eb	0.25917754
198	0x3e593404	0.21211249
199	0x3e606c03	0.21916203
200	0x3e811d70	0.25217772
201	0x3e1fd5dc	0.15608925
202	0xbec1e2c8	-0.37868333
203	0x3e8e3f16	0.27782506
204	0xbe44d308	-0.19221127
205	0xbdca5b33	-0.09880676
206	0xbe17e7f0	-0.14834571
207	0xbe8e980d	-0.2785038
208	0x3e3bfe49	0.18358721
209	0x3dacf312	0.084447995
210	0xbe8aaca3	-0.27084836
211	0xbe70d4da	-0.23518696
212	0xbdcc842a	-0.09986146
213	0x3de286fc	0.110609025
214	0x3e0f960a	0.14022079
215	0xbe46f46e	-0.1942918
216	0x3e52a7ba	0.20571795
217	0x3ce9de8a	0.028548498
218	0xbe01aa82	-0.126627
219	0x3d9e28bd	0.07722614
220	0x3de26aad	0.11055503
221	0xbdc51bcf	-0.09624445
222	0x3e9b142d	0.3028883
223	0xbdb44cd3	-0.088037156
224	0x3d670972	0.056405492
225	0x3e10ad2d	0.14128561
226	0x3e54d5ef	0.20784734
227	0xbdcf2eac	-0.10116324
228	0x3df46764	0.11933783
229	0x3e32040c	0.17384356
230	0xbdcd65b1	-0.10029162
231	0x3e597c99	0.21238936
232	0x3e92718e	0.2860226
233	0x3d6bef07	0.057601
234	0xbe8b9939	-0.27265337
235	0x3e8c331d	0.27382746
236	0xbe422f1f	-0.18963288
237	0xbce30083	-0.027710205
238	0xbe6118c1	-0.21982099
239	0xbe1343a3	-0.1438127
240	0x3e93974f	0.28826377
241	0x3db849d1	0.08998454
242	0xbe7664c2	-0.24061874
243	0xbd107305	-0.03526594
244	0xbdce6f9a	-0.1007988
245	0x3d93cf5c	0.07217285
246	0x3e909f44	0.2824651
247	0xbe0f85f9	-0.1401595
248	0x3cbf1145	0.023323664
249	0x3e4141c9	0.18872751
250	0x3dd99c29	0.10625488
251	0x3e44475b	0.19167845
252	0x3e29e32c	0.16590565
253	0xbddb7d76	-0.10717289
254	0x3ea06141	0.313242
255	0xbd81ddad	-0.063411094

fc1.bias f4 [32]
0	0xbce22a6e	-0.027608123
1	0x3e4568b5	0.19278224
2	0x3e44755c	0.19185394
3	0xbdbc3619	-0.09190006
4	0x3e2ed447	0.17073165
5	0xbdeac454	-0.11463228
6	0x3e313728	0.17306197
7	0x3cd5e6c1	0.026111009
8	0x3dd0d68e	0.10197173
9	0x3dc95bdf	0.09831976
10	0x3d9b1dce	0.07574044
11	0x3dffbb13	0.124868535
12	0x3db23bcc	0.087028116
13	0xbe27c926	-0.16385326
14	0xbdfcaa95	-0.123372234
15	0xbd25ce02	-0.040479667
16	0xbd08e73b	-0.033423644
17	0x3e229d10	0.15880227
18	0xbdaa45fa	-0.08314128
19	0x3dfa07a1	0.12208486
20	0xbe1d01d9	-0.15332736
21	0x3dc76b5f	0.09737276
22	0x3e5dcf9c	0.21661228
23	0x3d2c2b8e	0.042033724
24	0xbd9161bc	-0.070987195
25	0x3e111e37	0.14171682
26	0x3e6799f4	0.22617322
27	0x3ceb6bc9	0.02873792
28	0xbdac656d	-0.08417783
29	0x3e065d8a	0.1312162
30	0xbdb81bdc	-0.08989689
31	0x3e2e48e4	0.17019993

fc3.weight f4 [4, 32]
0	0xbe66d182	-0.22540858
1	0x3ec4b706	0.38420886
2	0x3dab32d8	0.08359307
3	0xbd911012	-0.07083143
4	0x3df00025	0.117187776
5	0xbe3c3cf8	-0.18382633
6	0x3e8603e4	0.26174843
7	0x3ee2efb8	0.44323516
8	0xbe07f7d1	-0.13278128
9	0x3da138c4	0.07872155
10	0x3e1412ec	0.14460343
11	0x39f2a3aa	0.00046279776
12	0x3dda55d3	0.10660901
13	0x3e0a6505	0.13515098
14	0x3dd14c3e	0.1021962
15	0x3da4c0d7	0.08044594
16	0x3d150416	0.03638085
17	0xbcfb9c09	-0.030714052
18	0x3c3048eb	0.0107595725
19	0xbea4957d	-0.321453
20	0x3dfe5b97	0.12419813
21	0xbe55e93d	-0.20889755
22	0x3dae806b	0.085205875
23	0xbdd4cda4	-0.10390785
24	0x3db9b2d3	0.09067311
25	0xbdb3ba9f	-0.087758295
26	0x3eb82402	0.35964972
27	0xbeb97af3	-0.36226615
28	0x3ec19652	0.37809998
29	0x3e3185e2	0.17336228
30	0xbdbf6d4b	-0.09347018
31	0x3d13b404	0.03606035
32	0x3e3cddb2	0.18443945
33	0x3d6d435c	0.057925567
34	0xbd171d74	-0.036893323
35	0xbd46edc8	-0.04856661
36	0x3b13738f	0.0022499298
37	0xbeb02e14	-0.34410155
38	0xbe4db341	-0.20087911
39	0xbdb79edb	-0.08965846
40	0x3df25285	0.118321456
41	0xbe62aced	-0.22136278
42	0x3d9321d4	0.071841866
43	0xbe0bd662	-0.13656
44	0xbe8f4cd4	-0.27988303
45	0xbe09d314	-0.13459426
46	0xbd4a999e	-0.049462907
47	0xbd88a394	-0.06671825
48	0x3d98ea5a	0.07466574
49	0xbe2d49f8	-0.16922748
50	0xbdc11574	-0.0942792
51	0x3e00cc38	0.12577903
52	0xbf14f1a8	-0.5818124
53	0xbc783cf2	-0.015151249
54	0xbd837de6	-0.064204976
55	0x3cf2bee1	0.029632034
56	0x3dac7287	0.08420282
57	0xbe51cbe3	-0.20487933
58	0x3c6e13f8	0.014531128
59	0x3dea068c	0.1142703
60	0xbea985b8	-0.33109832
61	0xbe7809a0	-0.24222422
62	0xbcb727d2	-0.022357855
63	0xbe41d950	-0.18930554
64	0x3e5aba71	0.21360184
65	0xbe9ec6f8	-0.31011176
66	0xbec9f484	-0.39444363
67	0x3eb1ceb5	0.34728017
68	0xbe96ce54	-0.2945429
69	0x3e2581ec	0.16162843
70	0xbea41652	-0.3204828
71	0xbe3d515d	-0.18488069
72	0x3d7822d7	0.0605801
73	0xbe145ae3	-0.14487796
74	0xbd87de31	-0.066341765
75	0x3c19a780	0.009378314
76	0xbe73767e	-0.2377567
77	0x3c0c0b68	0.008547641
78	0xbde4c613	-0.11170592
79	0xbdc7e8c4	-0.097611934
80	0xbe4d4cd8	-0.20048845
81	0x3d483161	0.048875216
82	0x3e9daa15	0.30793825
83	0xbc50ae08	-0.012736805
84	0xbd17479d	-0.03693353
85	0xbd5712a9	-0.05250803
86	0x3bf71751	0.0075406213
87	0xb9cdf091	-0.00039279883
88	0xbdb8b463	-0.09018781
89	0x3de57dc0	0.112056255
90	0xbeb897d6	-0.36053342
91	0x3e680487	0.22657977
92	0xbeaa5d4e	-0.3327431
93	0xbe8e3c91	-0.27780584
94	0x3eb19ec3	0.34691438
95	0xbe245fb2	-0.1605213
96	0xbe16b4d6	-0.14717421
97	0xbd8a0380	-0.06738949
98	0xbd9ed197	-0.0775482
99	0xbdd9de4e	-0.106381044
100	0xbde97ad2	-0.11400379
101	0xbf1d962d	-0.61557275
102	0xbd896074	-0.0670785
103	0x3c868cc2	0.01642454
104	0xbd24bac5	-0.04021718
105	0xbe4d39c7	-0.20041572
106	0x3dcd6890	0.10029709
107	0xbe7ab476	-0.24482903
108	0xbd078535	-0.03308602
109	0x3d15acf6	0.0365419
110	0x3e236a4c	0.15958518
111	0xbdace29f	-0.08441662
112	0xbe5955b6	-0.21224102
113	0xbdfa9c5d	-0.12236855
114	0xbe60d79c	-0.21957248
115	0xbdbb1fba	-0.09136911
116	0xbe8528e9	-0.26007774
117	0x3e0ddd6a	0.13853994
118	0xbe2658ad	-0.16244765
119	0x3cf707ea	0.03015514
120	0x3e0768ee	0.13223621
121	0xbe5a87a6	-0.21340808
122	0xbc4bd030	-0.0124397725
123	0xbd933eb9	-0.07189698
124	0xbe647105	-0.22308739
125	0xbce68e36	-0.028143983
126	0xbe98224e	-0.29713672
127	0xbe5a872e	-0.2134063

fc3.bias f4 [4]
0	0x3e123eee	0.14281818
1	0x3db05fa8	0.08611995
2	0xbe351068	-0.1768204
3	0xbdcc68bd	-0.09980915
