model/save/v8.8_2022-09-03_01-00/model.pt (torch, 610971 bytes, 8 tensors)

lstm.weight_ih_l0 f4 [256, 512]
0	0xbd3742e3	-0.044741523
1	0x3a4165e0	0.0007377546
2	0xbd027a04	-0.031854644
3	0x3d6e50ea	0.058182634
4	0x3d7c0ecd	0.061537553
5	0x3cab72d9	0.020928787
6	0xbc0434b3	-0.008069205
7	0x3daa3e9d	0.08312724
8	0xbd68cd60	-0.056836486
9	0xbdab91f0	-0.08377445
10	0xbdaf3d59	-0.08556623
11	0x3d28821f	0.04113972
12	0xbbc9e615	-0.006161461
13	0xbddf7b4f	-0.10912191
14	0xbe213a06	-0.1574479
15	0x3e148b48	0.14506257
16	0x3d543ace	0.051813893
17	0xbd96f4d8	-0.07370919
18	0xbceb06d5	-0.028689781
19	0xbe2091ad	-0.15680571
20	0x3de1f0c5	0.11032251
21	0x3d4a7178	0.04942462
22	0x3e113ce5	0.14183386
23	0x3d003c27	0.031307366
24	0xbdee54c0	-0.116372585
25	0xbd04d9bd	-0.032434214
26	0x3e2a32d5	0.16620953
27	0x3c356ccd	0.011073303
28	0xbdc7c804	-0.09754947
29	0x3c65949b	0.014012481
30	0xbd4c31b8	-0.049852103
31	0x3d3e7dbf	0.04650664
32	0xbd2260a8	-0.03964296
33	0xbdb043a0	-0.086066484
34	0xbdcc6c20	-0.09981561
35	0xbd4ef8e8	-0.050530344
36	0xbcb53db5	-0.02212415
37	0xbdd53c25	-0.10411862
38	0xbd6f25fd	-0.058385838
39	0xbd188e2a	-0.037244953
40	0xbd75e959	-0.06003699
41	0xbcf3395b	-0.029690435
42	0x3d990d6d	0.07473264
43	0xbc8e9c3b	-0.01740848
44	0x3db8e0a3	0.09027221
45	0x3d4f9494	0.050678805
46	0x3b6b7b66	0.0035931705
47	0xbc88ac2a	-0.016683657
48	0x3cdf2acc	0.027242087
49	0x3db1a53f	0.08674096
50	0xbca56ec6	-0.020194422
51	0x3dd3f215	0.10348908
52	0xbd804a65	-0.0626419
53	0xbd6c6955	-0.05771764
54	0xbdbc556a	-0.09195979
55	0x3e1a00aa	0.15039316
56	0xbc1be395	-0.009514709
57	0x3c741cdc	0.014899459
58	0x3dce6cf2	0.100793734
59	0x3c899624	0.016795225
60	0xbd890880	-0.06691074
61	0xbdab402b	-0.083618484
62	0x3d70fbeb	0.058833998
63	0xbe09a57e	-0.13442037
64	0x3deb1748	0.1147905
65	0xbe0df135	-0.13861544
66	0x3dd02293	0.101628445
67	0xbd7d04d2	-0.061772175
68	0xbd807515	-0.062723316
69	0x3e308ffc	0.17242426
70	0x3e09b16a	0.13446584
71	0x3dc9f1e8	0.09860593
72	0x3e12f440	0.14350986
73	0x3d20ff85	0.039306182
74	0x3d791e58	0.060819954
75	0x3c5632a2	0.013073595
76	0xbafba596	-0.0019199129
77	0x3cdef8cb	0.027218243
78	0x3be70d02	0.007051111
79	0x3e0da133	0.13831024
80	0x3dc1186c	0.09428486
81	0x3e0362db	0.12830679
82	0xbda967b3	-0.08271732
83	0x3de8be3b	0.113644086
84	0xbcb3f9bd	-0.02196967
85	0x3d9df538	0.077127874
86	0x3ca05f8e	0.019576814
87	0x3d402550	0.046910584
88	0x3dc5c795	0.09657208
89	0x3e0cece8	0.13762248
90	0xbd99c650	-0.07508528
91	0x3e05e4ce	0.13075563
92	0xbd875171	-0.066073306
93	0xbdaa74d3	-0.08323064
94	0x3d7bd640	0.06148362
95	0xbd9705e9	-0.07374174
96	0x3c3a0de9	0.0113558555
97	0x3d919873	0.071091555
98	0x3e10db9d	0.14146276
99	0xbd89d05b	-0.06729194
100	0x3cf7c420	0.030244887
101	0x3d556029	0.05209366
102	0x3defca9e	0.11708568
103	0x3dc6aa61	0.09700466
104	0xbd6f41fc	-0.058412537
105	0x3c8ce2f3	0.017198062
106	0xbddc35fb	-0.107524835
107	0xbdd1c163	-0.10241964
108	0x3cf65ceb	0.030073604
109	0x3e032434	0.12806779
110	0x3d3ac388	0.04559663
111	0xbad8dc95	-0.0016545231
112	0xbd068efa	-0.032851197
113	0xbc7753b8	-0.015095644
114	0x3cf41ad8	0.029797956
115	0x3d3ccfd1	0.046096627
116	0x3de4a0ab	0.111634575
117	0xbd1a2639	-0.03763411
118	0xbd57e5b6	-0.052709304
119	0xbd3d8232	-0.046266742
120	0x3d897124	0.06711033
121	0x3ba08cee	0.0048996126
122	0xbdb8142d	-0.08988223
123	0xbd9b4a48	-0.075825274
124	0x3d117237	0.035509314
125	0xbd4be120	-0.049775243
126	0x3d6b7f2a	0.05749432
127	0x3da42db4	0.0801653
128	0x3c3a7395	0.011380096
129	0xbd5db908	-0.054131538
130	0xbc01ff90	-0.007934466
131	0xbd7b4c4a	-0.06135205
132	0xb7848a1b	-1.5799937e-05
133	0x3d478f8e	0.04872089
134	0x3e2d2395	0.16908105
135	0x3cf64799	0.030063437
136	0x3dfa5487	0.122231536
137	0xbdcd5075	-0.100251116
138	0xbc3570e3	-0.011074278
139	0x3d8bf6e5	0.06834201
140	0x3daddbae	0.08489166
141	0xbd94191b	-0.07231351
142	0x3d85b85b	0.06529304
143	0xbdeb7723	-0.11497333
144	0xbdabe00c	-0.08392343
145	0xbc5031cb	-0.012707184
146	0x3db2b546	0.087259814
147	0xbc7b5357	-0.015339694
148	0xbc95949b	-0.018259337
149	0xbcd7e46d	-0.02635404
150	0x3dca7392	0.098853245
151	0xbd5c9508	-0.053853065
152	0x3d87b9b5	0.06627218
153	0x3da9ba64	0.08287504
154	0xbda3e012	-0.080017224
155	0x3df1ccc0	0.11806631
156	0x3bd330c9	0.0064450246
157	0xbb0cbf87	-0.0021476464
158	0x3d3c286b	0.045936983
159	0x3db4a4d9	0.08820505
160	0x3c880a44	0.016606458
161	0xbdc1070e	-0.09425174
162	0x3e13bac5	0.14426716
163	0x3e0a7210	0.13520074
164	0xbdf8f823	-0.12156703
165	0xbc0be301	-0.008538009
166	0xbd748d36	-0.05970498
167	0xbd561fd3	-0.052276444
168	0x3d84e4c2	0.064889446
169	0x3de01a84	0.109425575
170	0xbd7231d2	-0.059129544
171	0xbc3ab7d3	-0.011396366
172	0x3bc666ec	0.0060547497
173	0xbd10d64f	-0.03536063
174	0xbdccd92e	-0.10002361
175	0xbd0ca973	-0.034341287
176	0x3cd7971b	0.02631717
177	0xbdd40241	-0.103519924
178	0x3dc22ee6	0.094816014
179	0xbdd99a94	-0.106251866
180	0x3e128d55	0.14311726
181	0x3d322511	0.04349238
182	0x3d8ef4de	0.069802985
183	0xbcc3f561	-0.023920717
184	0xbcf7ec8c	-0.030264162
185	0x3dc0ba06	0.09410481
186	0x3c9c5348	0.01908268
187	0xbd8c2184	-0.0684233
188	0xbd963009	-0.07333381
189	0x3cba3fd2	0.02273551
190	0xbd91da15	-0.07121674
191	0x3d1ad33b	0.0377991
192	0x3defb577	0.117045335
193	0x3dbe875e	0.09303163
194	0xbd4dddee	-0.050260477
195	0x3dbf4fa4	0.09341362
196	0xbd393eae	-0.04522579
197	0x3dd0d291	0.10196412
198	0xbd0557e4	-0.032554522
199	0x3dc1a81d	0.09455893
200	0xbe07b20b	-0.13251512
201	0xbdf5c1c4	-0.119998485
202	0x3df0d31f	0.11759018
203	0xbdc38a09	-0.095478125
204	0x3db286eb	0.0871714
205	0xbd63890a	-0.055550613
206	0x3e01ab9f	0.12663125
207	0x3e015f86	0.12634096
208	0xbde52f09	-0.11190612
209	0xbd8db972	-0.069201365
210	0xbd99f7ff	-0.075180046
211	0x3ca304af	0.019899694
212	0x3e0077d3	0.1254571
213	0xbdcb07cd	-0.09913597
214	0xbd8aa81c	-0.067703456
215	0x3d62be9d	0.055357564
216	0x3def0eaf	0.116727225
217	0x3bfb4c6b	0.007669022
218	0x3d9f8cd7	0.07790535
219	0xbd986fef	-0.07443225
220	0x3e03cf74	0.12872106
221	0xbcfdc874	-0.030979373
222	0xbc54c64f	-0.012986734
223	0x3c5c0a40	0.013430178
224	0x3df72b27	0.120687775
225	0xbc05dca3	-0.00817028
226	0xbd7fea1c	-0.062479123
227	0xbdf8ab40	-0.12142038
228	0xbd7c7b97	-0.061641302
229	0x3dd1be61	0.1024139
230	0xbdd2bc7f	-0.10289859
231	0x3d9d6d17	0.07686823
232	0x3e0213a3	0.12702803
233	0xba1bc692	-0.000594237
234	0x3cecfb63	0.028928464
235	0xbddd76c1	-0.10813666
236	0xbdd4ccc0	-0.103906155
237	0x3de79a66	0.11308746
238	0xbdbd1247	-0.09232002
239	0x3c932055	0.017959753
240	0x3d7a56fc	0.06111811
241	0xbc3541a3	-0.011063012
242	0xbd615775	-0.055015046
243	0xbcac2d66	-0.021017741
244	0xbd3b64d0	-0.04575044
245	0x3e069fb8	0.13146865
246	0x3d5f27f7	0.054481473
247	0x3dd67ada	0.10472651
248	0xbd26b62e	-0.040701084
249	0xbe1f390c	-0.15549105
250	0x3deb5432	0.11490668
251	0xbc6db39b	-0.014508153
252	0xbd98b218	-0.07455844
253	0x3deea0dd	0.11651776
254	0xbc8d0e6f	-0.017218797
255	0xbd3ce176	-0.046113454

lstm.weight_hh_l0 f4 [256, 64]
0	0xbe1805d2	-0.1484597
1	0x3d06ff20	0.03295815
2	0xbd9453cb	-0.07242545
3	0x3d4d2c06	0.050090812
4	0xb9e4e4e5	-0.00043658089
5	0xbe1d14a5	-0.15339907
6	0x3d6cc3d0	0.05780393
7	0x3d303678	0.043020695
8	0x3dc03f7f	0.09387111
9	0x3d2ffdbe	0.042966597
10	0xbda03690	-0.07822907
11	0xbd773415	-0.060352404
12	0xbdaeb077	-0.08529752
13	0x3de47a7a	0.11156173
14	0xbbc5b06f	-0.0060329954
15	0xbdb3f7ef	-0.08787524
16	0xbde3b678	-0.111187875
17	0x3def3873	0.11680689
18	0x3c827e13	0.015929257
19	0x3e10f216	0.14154848
20	0xbe004911	-0.12527873
21	0xbe2cf341	-0.16889669
22	0x3d885762	0.06657292
23	0xbc59db6b	-0.013296942
24	0xbc006e36	-0.007838776
25	0xbc705b57	-0.014670215
26	0x3e1b78c7	0.15182792
27	0x3d9e364b	0.07725199
28	0xbe165280	-0.14679909
29	0x3de33522	0.11094119
30	0x3d20ae5b	0.03922878
31	0x3d83e26d	0.06439672
32	0xbcf00ff9	-0.029304491
33	0x3ca71e22	0.02040011
34	0xbe19b4db	-0.15010397
35	0x3d578b7f	0.05262327
36	0x3d571fd7	0.0525206
37	0x3d020d63	0.031751048
38	0x3c6554a3	0.01399723
39	0x3d502abe	0.050822012
40	0xbd1e6dec	-0.03867905
41	0xbe1180db	-0.1420931
42	0xbc42c1af	-0.011886998
43	0xbdd7e7ae	-0.10542236
44	0xbe1f9759	-0.15585078
45	0xbd39730b	-0.04527573
46	0x3dc4051f	0.09571289
47	0xbd9ec56b	-0.07752498
48	0x3d4b7a65	0.04967727
49	0xbc30f128	-0.010799684
50	0x3d20aa7f	0.039225098
51	0xbd251c87	-0.04031041
52	0x3cdaeabf	0.026723264
53	0x3d5c2595	0.05374678
54	0x3d685faf	0.056731876
55	0x3d26254a	0.040562905
56	0xbe1ced8b	-0.1532499
57	0x3d6f9f8f	0.058501776
58	0xbd86fdcd	-0.065913774
59	0xbc130c1e	-0.008975057
60	0x3d5ff2c9	0.054674897
61	0xbdc97b15	-0.09837929
62	0x3de4a8af	0.11164986
63	0xbd81ff93	-0.06347575
64	0xbd772c14	-0.06034477
65	0x3d9ce6ad	0.076611854
66	0xbd3b1047	-0.04566982
67	0x3a081f15	0.000519262
68	0x3d8e1f76	0.069395944
69	0xbc5c1862	-0.013433548
70	0xbc5e68fc	-0.013574835
71	0x3ded3e2e	0.115841255
72	0x3ad73e05	0.0016421682
73	0xbd21da69	-0.039514933
74	0xbdaa03eb	-0.083015285
75	0x3d8433d8	0.06455201
76	0x3d562f61	0.052291278
77	0x3c8e5444	0.017374165
78	0xbc4c1c7d	-0.012457964
79	0x3dfdc5d7	0.123912506
80	0xbde89354	-0.113562256
81	0xba84196a	-0.0010078375
82	0xbcab45fa	-0.02090739
83	0x3cdab20a	0.026696224
84	0x3cff2575	0.03114579
85	0xbd289cdd	-0.04116522
86	0xbb841ccd	-0.0040317536
87	0xbdcbc438	-0.09949535
88	0xbd8e9c14	-0.06963363
89	0xbdc69c71	-0.096978076
90	0x3d029f72	0.03189034
91	0x3d924d14	0.07143608
92	0x3ddbe002	0.107360855
93	0x3db0aa9a	0.0862629
94	0xbe041642	-0.12899116
95	0xbdafdcb3	-0.08587017
96	0xbd9f43c2	-0.07776596
97	0x3ddd2b07	0.107992224
98	0xbdd8f076	-0.10592739
99	0x3c40689a	0.011743689
100	0x3b5932fe	0.0033141966
101	0x3d2942f2	0.04132361
102	0x3e00e43c	0.12587065
103	0x3d39e35a	0.045382835
104	0x3dab3fbb	0.08361765
105	0xbda3bab3	-0.079945944
106	0x3d5193ff	0.05116653
107	0xbdc8f7e6	-0.09812908
108	0xbd15e422	-0.036594518
109	0x3d089c64	0.03335227
110	0xbdd440a1	-0.103638895
111	0xbd7067a3	-0.058692586
112	0x3d99bbe5	0.07506541
113	0xbddd4eb6	-0.108060285
114	0x3da6e00f	0.081482045
115	0x3e0478d6	0.1293672
116	0xbda0936d	-0.07840619
117	0xbe169d96	-0.14708552
118	0xbdd8d0c3	-0.10586693
119	0xbb2be67b	-0.0026229906
120	0x3cc6dbc1	0.024274709
121	0xbdbddfd8	-0.092712104
122	0x3df8d7a7	0.121505074
123	0x3c9e71c4	0.019341357
124	0x3d6c398c	0.05767207
125	0x3d7e983d	0.062156904
126	0xbcc42e88	-0.02394797
127	0x3d8aa40c	0.06769571
128	0x3cf34f50	0.029700905
129	0xbd30b911	-0.043145243
130	0x3c34b6c6	0.011029905
131	0x3d123f0d	0.03570466
132	0xbd76c4da	-0.060246326
133	0xbc67f64b	-0.014157842
134	0xbd18b91e	-0.037285917
135	0x3e0bc934	0.13650972
136	0x3d3d59e2	0.046228297
137	0x3d5659b4	0.05233164
138	0xbe0a8722	-0.13528112
139	0xbdfac680	-0.12244892
140	0xbe202f87	-0.1564313
141	0xbd4a78a1	-0.049431447
142	0xbcb93da2	-0.022612397
143	0x3d82fd3e	0.06395958
144	0xbe2d5899	-0.16928329
145	0x3e0a883a	0.13528529
146	0xbd48d91a	-0.04903517
147	0x3d806a87	0.062703185
148	0xbe28788f	-0.1645224
149	0xbe114239	-0.14185418
150	0xbd7ead47	-0.06217697
151	0xbc922288	-0.017838731
152	0xbdc455b8	-0.09586662
153	0xbd5e14bd	-0.054218996
154	0xbb87cca2	-0.004144267
155	0xbd248236	-0.04016324
156	0xbd8e9f65	-0.06963996
157	0x3ddcf075	0.10788051
158	0x3c246997	0.01003494
159	0xbd96e4d3	-0.073678635
160	0xbdfe00b0	-0.12402475
161	0xbaebf3e4	-0.0018001762
162	0x3c5abb4a	0.013350317
163	0xbc4d258d	-0.01252116
164	0x3cf70958	0.030155823
165	0xbd770c87	-0.06031468
166	0xbd763306	-0.060107253
167	0x3e053e80	0.13012123
168	0x3d9c0dad	0.07619796
169	0xbda64a3a	-0.08119626
170	0xbc96b9d6	-0.01839916
171	0x3d0c1f1b	0.034209352
172	0xbd2994ca	-0.041401662
173	0xbd9b9fe8	-0.07598859
174	0xbda96dec	-0.08272919
175	0xbd25d6ec	-0.04048817
176	0x3d710080	0.058838367
177	0xbdd590bd	-0.10427997
178	0xbd3f6049	-0.046722684
179	0x3ce44909	0.027866857
180	0x3d268aac	0.04065959
181	0xbd4597f4	-0.048240617
182	0x3d108db5	0.035291392
183	0x3d8cd7c3	0.06877091
184	0xbd7c81ce	-0.06164723
185	0x3dd8ca75	0.105854906
186	0xbd9dd23b	-0.07706114
187	0x3d819060	0.063263655
188	0xbd5ebdda	-0.054380275
189	0x3dace82f	0.08442723
190	0x3ca0184f	0.019542841
191	0x3b5cfcbe	0.0033719982
192	0xbd0af38f	-0.03392368
193	0x3dda3dfe	0.10656355
194	0xbbc26863	-0.005932854
195	0xbe246825	-0.16055353
196	0x3d57d167	0.052689936
197	0xbd2e0846	-0.04248836
198	0x3c907353	0.017633116
199	0xbc8897cb	-0.016673943
200	0xbdf1d7e0	-0.11808753
201	0x3e07deda	0.13268605
202	0xbded7a17	-0.115955524
203	0xbd993f17	-0.074827366
204	0xbde77dcf	-0.11303293
205	0x3d310ef1	0.04322714
206	0xbd47e84b	-0.048805516
207	0x3dca401e	0.09875511
208	0x3d4053f7	0.046955075
209	0xbd7fd1b2	-0.06245584
210	0x3cdff6d4	0.027339377
211	0x3e1a4804	0.15066534
212	0xbde9df03	-0.11419489
213	0x3daee16c	0.085390896
214	0xbd84891e	-0.064714655
215	0xbdced48f	-0.10099136
216	0xbd55cbc4	-0.05219628
217	0xbb3f1c1f	-0.0029161049
218	0x3e00fca2	0.12596372
219	0xbd533af3	-0.05156989
220	0x3d28455e	0.04108178
221	0x3dbb3a58	0.091419876
222	0xbcf9c00d	-0.030487085
223	0xbdd87d99	-0.10570831
224	0xbdb5c477	-0.08875363
225	0xbe068e57	-0.13140236
226	0xbdd70dca	-0.10500677
227	0x3d8e4c27	0.06948119
228	0x3df306a3	0.118665
229	0xbd93a4ab	-0.07209142
230	0xbdb28877	-0.08717435
231	0xbdb3db5f	-0.08782076
232	0x3da15430	0.078773856
233	0x3d78af9e	0.060714357
234	0x3dccfeb6	0.1000952
235	0x3db03c45	0.086052455
236	0x3db548b8	0.088517606
237	0x3d33b5db	0.043874603
238	0xbd565c6e	-0.05233424
239	0xbda16dc3	-0.078822635
240	0xbcbff32a	-0.02343138
241	0xbc186594	-0.009301562
242	0xbdc93aed	-0.09825692
243	0xbd161ebd	-0.036650408
244	0xbdd0fb31	-0.10204161
245	0xbe07bffb	-0.13256828
246	0x3d9ce26e	0.076603755
247	0xbd6abf17	-0.057311144
248	0xbd6f14d4	-0.058369473
249	0xbd8aa53b	-0.067697965
250	0x3d9633ea	0.073341206
251	0xbd104666	-0.035223387
252	0x3c6416b3	0.013921428
253	0x3dbf5217	0.09341829
254	0x3b5ee123	0.0034008704
255	0xbe051a0f	-0.12998222

lstm.bias_ih_l0 f4 [256]
0	0x3de197ee	0.110153064
1	0xbd6d7402	-0.05797196
2	0x3da58695	0.0808231
3	0xbde51a53	-0.111866616
4	0xbd10d239	-0.035356734
5	0xbdd3ba40	-0.10338259
6	0x3db030f8	0.0860309
7	0x3db48f50	0.08816397
8	0x3e0cf671	0.13765885
9	0x3b8c029c	0.004272772
10	0xbc0caada	-0.008585656
11	0xbcd02f1b	-0.025413087
12	0x3d7e81f1	0.06213564
13	0xbdb37f70	-0.08764541
14	0xbdba16d4	-0.09086385
15	0xbd3abc5f	-0.0455898
16	0xbc32d8c3	-0.010915938
17	0x3d307fb0	0.043090522
18	0xbd8b29ba	-0.06795068
19	0x3d4dbf8c	0.0502315
20	0x3d96e60b	0.07368096
21	0x3db7c2a1	0.089726694
22	0x3dfb428c	0.12268552
23	0xbbe47828	-0.0069723316
24	0xbd861789	-0.06547458
25	0xbd33d22c	-0.043901607
26	0x3d905d9c	0.070491046
27	0xbdb95cbc	-0.09050891
28	0x3b9102e0	0.0044253916
29	0xbd4e2c67	-0.050335314
30	0x3dc1b3b7	0.09458106
31	0xbb9157aa	-0.004435499
32	0x3d6b5eda	0.057463504
33	0x3da757cb	0.08171042
34	0x3e3000b0	0.17187762
35	0xbc86b161	-0.016442003
36	0x3dbca6bf	0.09211492
37	0x3c90f1e4	0.017693467
38	0x3e0898d8	0.13339555
39	0xbad5a2b7	-0.0016299103
40	0x3e06969c	0.1314339
41	0xbb2b720e	-0.0026160511
42	0xbd03fc31	-0.03222293
43	0x3d233a31	0.039850418
44	0x3e2043fe	0.15650937
45	0xbd32f5f8	-0.043691605
46	0xbcb75546	-0.022379529
47	0x3d5dfa33	0.054193687
48	0x3d00034f	0.031253155
49	0x3dd698f6	0.10478394
50	0xbc819bc5	-0.015821347
51	0x3e13e4f6	0.1444281
52	0xbd3f25a4	-0.046666756
53	0x3ca36f75	0.019950608
54	0x3d5c729b	0.053820234
55	0x3d792d44	0.060834184
56	0x3e04d18b	0.1297056
57	0xbd2149f7	-0.03937718
58	0x3dff137c	0.12454888
59	0x3d93f0f0	0.072236896
60	0x3d7957fa	0.060874917
61	0xbdb187fd	-0.08668516
62	0x3d63e516	0.055638395
63	0x3e053a30	0.13010478
64	0xbd72b637	-0.059255805
65	0xbd95b5cb	-0.07310065
66	0x3e1cf18b	0.15326516
67	0x3dc402f6	0.09570877
68	0x3dda3b3b	0.106558286
69	0xbd675f5d	-0.05648743
70	0x398d26f2	0.00026922632
71	0xbdb2e1f0	-0.087345004
72	0x3d88c0a5	0.06677369
73	0x3d9e1332	0.07718505
74	0x3dadd362	0.08487584
75	0xbdd5305b	-0.10409614
76	0x3e130a71	0.14359452
77	0x3d4b2904	0.049599662
78	0x3e1b910e	0.15192053
79	0x3cd97c68	0.02654858
80	0xbcb10749	-0.02160992
81	0x3dc1096c	0.09425625
82	0xbdc13120	-0.09433198
83	0x3d3e196e	0.04641097
84	0x3c4f7f19	0.01266458
85	0xbd8273c7	-0.06369739
86	0xbb77ab06	-0.0037791147
87	0xbd965944	-0.07341245
88	0x3d4b09f9	0.049570058
89	0xbd85e7ba	-0.06538339
90	0xbdc82d68	-0.097742856
91	0xbb6eb56f	-0.003642406
92	0x3dd4a3ca	0.10382803
93	0xbdc3bfc4	-0.09558061
94	0xbd9469db	-0.07246753
95	0x3dfb0ec9	0.122586794
96	0x3db9111f	0.09036469
97	0x3de881cd	0.113528825
98	0x3d86cc1f	0.06581902
99	0x3c96be08	0.01840116
100	0x3cbb2b96	0.022847932
101	0x3dac6ac3	0.08418801
102	0xbd768a23	-0.06019033
103	0xbca35b06	-0.019940864
104	0xbc591a4e	-0.0132509
105	0x3e022570	0.12709594
106	0x3e18c7dc	0.1491999
107	0x3da7271f	0.08161759
108	0x3d853979	0.06505103
109	0x3a01e3cd	0.00049549044
110	0x3e0b7236	0.13617787
111	0x3db37433	0.087623976
112	0x3c9d7519	0.019220876
113	0x3d9bac22	0.07601191
114	0x3da57047	0.08078056
115	0xbd34f772	-0.044181295
116	0x3b005c81	0.0019586387
117	0x3daf5f19	0.0856306
118	0x3e2560cc	0.16150206
119	0xbd993a82	-0.074818626
120	0x3d1dd0ea	0.038529314
121	0x3cd280a7	0.025696112
122	0x3d4588b4	0.048226073
123	0x3e1325f4	0.14369947
124	0xbd484147	-0.04889038
125	0x3cb513cf	0.022104172
126	0x3d6a7b94	0.05724676
127	0xbd254b80	-0.040355206
128	0xbd7e0551	-0.06201679
129	0x3d9fa604	0.07795337
130	0x3d5764b3	0.05258627
131	0x3c74e3ce	0.014946891
132	0xbbeee255	-0.0072901645
133	0xbde9ce2c	-0.11416277
134	0xbd51b7ba	-0.051200606
135	0xbc1c41a1	-0.0095371315
136	0x3d8390c5	0.06424097
137	0x3d91c8b4	0.07118359
138	0xbd9983a7	-0.07495814
139	0x3db73543	0.08945706
140	0x3dcc7faa	0.099852875
141	0x3d0c07ac	0.034187004
142	0x3d4be03a	0.049774386
143	0xbddf198a	-0.10893543
144	0x3cb79c80	0.022413492
145	0x3cc3c9f5	0.023900012
146	0x3da1baf9	0.0789699
147	0xbc954713	-0.018222367
148	0xbb4b6c45	-0.0031039875
149	0x3e01156f	0.12605833
150	0xbe10df13	-0.14147596
151	0xbdd7ca2b	-0.10536607
152	0x3cf439a3	0.02981264
153	0xbdcdb696	-0.10044591
154	0x3b57f9d2	0.00329553
155	0x3cb8ae56	0.022544067
156	0x3de5f420	0.11228204
157	0x3d27322b	0.04081933
158	0xbd16123c	-0.036638483
159	0x3cf68646	0.030093323
160	0xbdc692f0	-0.09695995
161	0xbd3673a3	-0.044543874
162	0xbd3f5379	-0.046710465
163	0xbdbefdf4	-0.093257815
164	0x3c76ed80	0.015071273
165	0xbdcc5c3b	-0.09978529
166	0x3c2d7281	0.010586382
167	0xbdcd817e	-0.10034464
168	0x3da288ea	0.079362705
169	0xbdc4e8f1	-0.096147425
170	0x3d918734	0.07105866
171	0x3c871420	0.016489089
172	0x3c79f7cd	0.015256834
173	0x3d544d3e	0.051831476
174	0x3d9f17dd	0.077682234
175	0x3d7ea1e8	0.062166125
176	0xbdc1c2d1	-0.094609864
177	0x3a964fec	0.001146791
178	0xbc8669a1	-0.01640779
179	0x3decfdc0	0.115718365
180	0xbd8e56e6	-0.06950168
181	0x3df87beb	0.121330105
182	0x3de32439	0.11090893
183	0xbddeb5bd	-0.108745076
184	0xbd3ce695	-0.046118338
185	0x3d02027f	0.03174066
186	0xbdad177e	-0.084517464
187	0x3cc326f6	0.023822289
188	0x3d15fb4c	0.03661661
189	0xbd90fe6f	-0.07079779
190	0xbde7c54d	-0.11316929
191	0x3e044457	0.12916695
192	0xbdb50013	-0.08837905
193	0x3d0261b4	0.03183146
194	0x3d2c57d6	0.042075954
195	0xbb42fa98	-0.0029751416
196	0x3e12cd6f	0.14336179
197	0xbd9f9c8d	-0.077935316
198	0xbd7201f8	-0.05908391
199	0x3cbc2a48	0.02296938
200	0x3e03ed78	0.12883556
201	0xbbf807a4	-0.00756927
202	0xbd3af244	-0.0456412
203	0xbd791474	-0.06081052
204	0x3d1a6fc4	0.037704244
205	0xbd84dd13	-0.06487479
206	0x3da74b97	0.081687145
207	0x3a266462	0.00063473557
208	0x3dcea99a	0.10090943
209	0x3c00e945	0.007868116
210	0x3d6edd23	0.05831636
211	0x3d27a18f	0.04092556
212	0x3e073339	0.13203134
213	0x3b799746	0.003808455
214	0xbd633204	-0.05546762
215	0x3dad4be1	0.084617384
216	0x3e20e8e1	0.15713836
217	0x3dec2d80	0.11532116
218	0x3c2f7e76	0.010711303
219	0x3e4d714b	0.20062749
220	0x3e04c30f	0.12965034
221	0x3da77dfe	0.08178328
222	0x3dacfa17	0.08446138
223	0x3c8b86fb	0.017032137
224	0x3d311813	0.04323585
225	0x3d0fcfa6	0.03511014
226	0x3e228ac7	0.15873252
227	0xbd9ca733	-0.07649078
228	0x3c9fa45e	0.019487556
229	0xbd94424c	-0.072392076
230	0x3e1ae407	0.15126048
231	0x3d0b1ea1	0.033964757
232	0x3de7778a	0.11302097
233	0x3d914c92	0.07094683
234	0xbd2d9a74	-0.042383626
235	0xbd8627ac	-0.065505356
236	0x3e3010e2	0.1719394
237	0xbc10fcaa	-0.008849302
238	0x3e12ba36	0.14328846
239	0x3da9ccb3	0.082909964
240	0x3d6adf4a	0.05734185
241	0x3e00f58d	0.1259367
242	0x3dfa0800	0.12208557
243	0x3d8d9e66	0.06914978
244	0x3d7f44be	0.062321417
245	0x3cbd4a45	0.023106704
246	0xbd5a9db6	-0.05337306
247	0xbd5de15b	-0.054169994
248	0x3da3dec0	0.080014706
249	0x3d64a598	0.055821985
250	0xbd20a4e5	-0.039219756
251	0xbd9e3c84	-0.07726386
252	0x3d49848c	0.049198672
253	0x3d398e1a	0.045301534
254	0x3d5b870c	0.053595588
255	0x3e0fa67d	0.14028354

lstm.bias_hh_l0 f4 [256]
0	0x3dc364df	0.09540724
1	0x3d61313c	0.054978594
2	0xbda02ffa	-0.07821651
3	0x3e074d30	0.13213038
4	0x3ddc7f8e	0.107665166
5	0x3dffd526	0.12491827
6	0x3cef7cba	0.029234279
7	0x3de22fca	0.11044271
8	0xbc6c5c94	-0.014426369
9	0x3e0db443	0.13838296
10	0x3d071536	0.032979213
11	0x3c401611	0.011724011
12	0xbd9b2da2	-0.07577063
13	0xbc83e367	-0.016099645
14	0x3da8c698	0.08241004
15	0x3e17a37b	0.14808457
16	0x3db47edf	0.08813261
17	0x3c92e198	0.017929837
18	0xbcdae11c	-0.026718669
19	0x3df2dbc0	0.1185832
20	0x3d6b500b	0.05744938
21	0x3dbcf9aa	0.09227307
22	0x3de74948	0.11293274
23	0x3d6b3a7f	0.057428833
24	0x3d3216bd	0.043478716
25	0xbd7afda2	-0.06127704
26	0x3da0c6c6	0.07850413
27	0x3e0e61ae	0.1390445
28	0x3deb316b	0.11484035
29	0xbda9b0e5	-0.08285693
30	0x3c12951c	0.008946683
31	0x3d9004d4	0.07032171
32	0xbdcd65a3	-0.10029151
33	0xbd46bb79	-0.04851863
34	0x3d237a42	0.039911516
35	0xbdae64cd	-0.0851532
36	0x3d61eb83	0.055156242
37	0x3d19ebd9	0.037578437
38	0x3d8f17cf	0.06986963
39	0xbaefbb3e	-0.0018290055
40	0x3dade2f2	0.08490552
41	0x3d8177ad	0.063216545
42	0x3e1d01e1	0.15332748
43	0x3d3b12cd	0.045672227
44	0x3dc6a262	0.09698941
45	0x3be502fd	0.0069888816
46	0xbd48a868	-0.04898873
47	0x3e0d1141	0.13776113
48	0xbdc6f2dd	-0.09714291
49	0xbbdbf834	-0.0067129377
50	0x3db40486	0.08789925
51	0x3d8320bd	0.06402729
52	0x3c32ff76	0.010925164
53	0xbd181cee	-0.037136964
54	0x3e352f21	0.1769376
55	0x3d825a76	0.0636491
56	0xbd865569	-0.065592594
57	0xbc09b99c	-0.008406069
58	0x3ddd0c88	0.10793406
59	0xbc03eaca	-0.008051584
60	0x3d384305	0.04498579
61	0xbd833f33	-0.06408539
62	0x3da37afe	0.07982443
63	0x3cd3f49a	0.025873471
64	0xbd30ed72	-0.043195195
65	0xbd8a73af	-0.06760346
66	0xbda9f971	-0.0829953
67	0xbb6cdb35	-0.00361414
68	0xbc3bdf75	-0.0114668505
69	0x3df30ca7	0.118676476
70	0x3bcc252f	0.0062300186
71	0x3deed144	0.11661008
72	0x3c88b71c	0.016688876
73	0x3d8ca73c	0.06867835
74	0xbd6bdacf	-0.05758172
75	0x3d9effb7	0.077636175
76	0x3c9186f9	0.017764555
77	0xbc61e321	-0.013787062
78	0x3d2c17b1	0.04201478
79	0x3d30b395	0.043140013
80	0x3dc293d8	0.09500855
81	0x3dfcd55d	0.12345383
82	0x3de1102c	0.10989413
83	0x3d411eca	0.047148503
84	0xbc90fca5	-0.017698595
85	0x3ddc750b	0.10764512
86	0xbda26c18	-0.079307735
87	0x3acc8552	0.0015603697
88	0x3cd2e0b4	0.025741912
89	0xbd856da0	-0.0651505
90	0xbcaea44a	-0.021318574
91	0x3df04490	0.11731827
92	0x3df3a270	0.11896217
93	0x3e07a298	0.13245618
94	0xbdbdd20f	-0.09268581
95	0xbca4610a	-0.020065803
96	0x3dc3e1c1	0.095645435
97	0xbcbe66e7	-0.023242427
98	0x3cee2f40	0.029075265
99	0xbd217db2	-0.039426513
100	0x3dc2e6d0	0.0951668
101	0x3de46fee	0.111541614
102	0x3dcaf651	0.099102624
103	0xbc07c6ff	-0.00828719
104	0xbd0cbc23	-0.03435911
105	0x3d9bae63	0.07601621
106	0x3dc1bd62	0.0945995
107	0x3dcdc9db	0.100482665
108	0x3d8d9592	0.06913294
109	0x3cbdc121	0.02316338
110	0xbc57d565	-0.013173436
111	0x3e059292	0.13044193
112	0x3da6cf8d	0.08145056
113	0xbda4c4ff	-0.080453865
114	0xbcb9b062	-0.022667114
115	0xbd85549e	-0.0651028
116	0xbda160bf	-0.07879781
117	0x3d6d6b1f	0.057963487
118	0xbd1e2235	-0.03860684
119	0x3dcc6b96	0.09981458
120	0x3e0d8569	0.13820423
121	0xbc456d8a	-0.012050042
122	0x3d8188b9	0.06324906
123	0x3d7a67f6	0.0611343
124	0x3d746254	0.059664086
125	0x3dd1b4cf	0.102395646
126	0x3df0e85f	0.11763071
127	0x3e0abfd0	0.13549733
128	0x3cc0bc0b	0.023527166
129	0xbb82e4fa	-0.0039945813
130	0xbd2eaffd	-0.042648304
131	0xbd3cf348	-0.04613045
132	0xbd2293a7	-0.039691593
133	0xbca89d0f	-0.020582704
134	0xbc4d0dce	-0.012515498
135	0x3d9c271e	0.076246485
136	0xbc9675fa	-0.018366802
137	0xbd18505d	-0.037186015
138	0x39b5e5af	0.00034694138
139	0x3db1b9ad	0.08677993
140	0xbda77ce6	-0.08178119
141	0x3dbe8ef9	0.093046136
142	0x3d22e17b	0.039765816
143	0xbd751237	-0.059831824
144	0xbd651a17	-0.055933084
145	0x3dd925ba	0.10602899
146	0xbd4dec43	-0.050274145
147	0x3dafee4b	0.08590373
148	0x3c341a22	0.010992559
149	0x3c77fb1e	0.015135555
150	0xbda02125	-0.07818822
151	0x3d869035	0.06570474
152	0x3da92500	0.0825901
153	0x3daa6bf2	0.0832137
154	0xbcb4264a	-0.021990914
155	0x3d3c5428	0.045978695
156	0xbdd5c59a	-0.1043808
157	0x3d0ef27b	0.034899216
158	0xbe03d597	-0.12874447
159	0x3d721fa3	0.059112202
160	0xbddd0e6a	-0.10793765
161	0xbba5dc76	-0.0050616814
162	0x3d977d9a	0.073970035
163	0xbe070562	-0.13185647
164	0x3d975d42	0.073908344
165	0x3dd2d323	0.102941774
166	0x3d9b9ca7	0.075982384
167	0xbd3fe688	-0.04685071
168	0x3dc909a6	0.098162934
169	0xbd8c8147	-0.06860595
170	0x3de3e697	0.11127966
171	0x3cd59cb9	0.026075708
172	0xbbffe01a	-0.0078086974
173	0x3d059f57	0.03262266
174	0xbdcf1967	-0.10112267
175	0xbd54f567	-0.051991846
176	0xbc8369be	-0.016041633
177	0x3d239a40	0.039942026
178	0x3c3eb680	0.011640191
179	0x3da8ccd1	0.08242191
180	0xbded1e08	-0.11577994
181	0xbd91b7fb	-0.071151696
182	0x3b235d7c	0.0024927547
183	0x3dccc24b	0.09997996
184	0x3ce1f0c5	0.027580628
185	0x3d369cd0	0.04458314
186	0xbdeebd5a	-0.1165721
187	0x3d0a1c60	0.033718467
188	0x3d25916d	0.040421892
189	0xbd01945d	-0.03163563
190	0x3da85329	0.082189865
191	0xbd10fe36	-0.035398684
192	0x3dbade2a	0.09124406
193	0x3dc4e02a	0.096130684
194	0xbd8ca8c0	-0.06868124
195	0xbd901393	-0.070349835
196	0xbd378fbf	-0.04481482
197	0x3e12d0db	0.14337485
198	0x3c580096	0.013183733
199	0x3e1a6cec	0.15080613
200	0xbd16f27a	-0.036852337
201	0x3d6bf857	0.057609882
202	0x3e08c4ee	0.13356373
203	0x3e0268c5	0.12735279
204	0xbcaf17dc	-0.021373682
205	0x3c50513c	0.01271468
206	0x3d860fb6	0.065459654
207	0xbcf51413	-0.029916799
208	0x3d200447	0.03906658
209	0xbcfb1b5a	-0.03065269
210	0xbd561e6f	-0.052275117
211	0x3d09fcdd	0.033688415
212	0xbd9cd4c7	-0.076577716
213	0x3e11cef7	0.14239107
214	0x3d174ae7	0.036936667
215	0x3e162611	0.14662959
216	0x3d15fc6c	0.03661768
217	0x3d7e501d	0.06208812
218	0x3c0f8e21	0.0087619135
219	0xbb2edc18	-0.002668148
220	0xbd150223	-0.03637899
221	0x3df6fdf3	0.12060156
222	0xbda31550	-0.079630494
223	0xbd70f654	-0.058828667
224	0x389fc12c	7.617692e-05
225	0x3dc6e92a	0.09712441
226	0x3db6ffa6	0.0893548
227	0x3d9ef5d1	0.077617295
228	0xbc9fa1c7	-0.019486321
229	0xbd386738	-0.045020312
230	0x3de7ad81	0.1131239
231	0x3d5f9b9b	0.054591756
232	0x3e02139e	0.12702796
233	0x3d0ee234	0.034883693
234	0x3cefacb5	0.029257158
235	0x3e09f383	0.13471799
236	0x3e30008c	0.17187709
237	0x3dc6ebeb	0.097129665
238	0x3d6ef62b	0.058340233
239	0x3deaa6c4	0.11457589
240	0xbc8dfec0	-0.017333388
241	0x3d9d4fc5	0.076812305
242	0xbdd430a3	-0.10360839
243	0x3c98e8e2	0.018665735
244	0x3dc616f4	0.09672347
245	0x3da5e2d2	0.08099903
246	0x3d3adc73	0.045620393
247	0x3cfbd893	0.03074292
248	0x3e22640f	0.15858482
249	0xbc48e832	-0.012262391
250	0x3e1298b5	0.14316066
251	0xbca55221	-0.020180764
252	0x3d9a8a0b	0.07545861
253	0x3e07fcb2	0.1327999
254	0x3e3b49d1	0.18289877
255	0xbda915a4	-0.08256081

fc1.weight f4 [64, 64]
0	0x3cd92036	0.026504617
1	0xbd7f61da	-0.062349178
2	0xbe1a65a6	-0.15077838
3	0xbdb078c0	-0.08616781
4	0xbc1a1a27	-0.009405649
5	0xbe1bae96	-0.15203318
6	0xbdaf932a	-0.08572991
7	0x3e062033	0.1309822
8	0xbe4278e3	-0.18991427
9	0xbd2ae937	-0.041726317
10	0xbcc4dd16	-0.024031203
11	0xbdca1d6a	-0.098688915
12	0xbd29f3cb	-0.041492265
13	0xbd49a5cc	-0.04923038
14	0x3da6e27d	0.08148668
15	0x3c0d7905	0.00863481
16	0x3c004d5c	0.007830944
17	0x3d4b178c	0.049583003
18	0x3e2f6374	0.17127782
19	0x3e0d3dac	0.13793057
20	0xbd6f9fcb	-0.058502
21	0xbdcc6f04	-0.09982112
22	0xbd5a3df0	-0.053281724
23	0x3dc9115a	0.09817763
24	0xbdef4025	-0.116821565
25	0x3d31440c	0.043277785
26	0x3ddf727d	0.10910509
27	0xbddcfecb	-0.107907854
28	0xbe1a8303	-0.1508904
29	0x3dadbce7	0.08483296
30	0xbce9a405	-0.028520593
31	0x3e136ff5	0.14398177
32	0x3d37ef7d	0.04490613
33	0xbaa74465	-0.0012761472
34	0xbe1bf8f0	-0.15231681
35	0xbd7f2d87	-0.062299278
36	0x3de5f874	0.11229029
37	0xbdf29287	-0.11844354
38	0x3d884527	0.06653815
39	0x3e023949	0.12717165
40	0x3d5bfab1	0.053705875
41	0x3c982e8d	0.018576885
42	0xbe41b388	-0.18916142
43	0x3d675a96	0.056482874
44	0xbca89c69	-0.020582395
45	0x3d0b92aa	0.034075417
46	0x3c1a1163	0.009403559
47	0xbd7ae889	-0.06125692
48	0xbd9dd512	-0.077066556
49	0xbe072860	-0.13198996
50	0xbc4da6e3	-0.012551996
51	0xbdadcf07	-0.08486753
52	0xbda516c6	-0.08060984
53	0x3d61e863	0.055153262
54	0x3d27a221	0.040926103
55	0xbd0c2fbf	-0.03422522
56	0x3cbc92f2	0.023019288
57	0x3dc6f556	0.09714763
58	0xbe211525	-0.15730722
59	0xbe2d80ad	-0.16943617
60	0xbd3af420	-0.045642972
61	0xbcf669e2	-0.030079786
62	0x3e468c39	0.19389428
63	0xbd9b718a	-0.07590015
64	0x3d3d628e	0.046236567
65	0xbd3d6c18	-0.046245664
66	0x3dc075a9	0.09397442
67	0xbda5de8c	-0.08099088
68	0xbde21235	-0.11038629
69	0xbdac9563	-0.08426931
70	0xbd67212b	-0.056428116
71	0xbd337974	-0.043817
72	0xbba41d18	-0.005008351
73	0x3d89f40e	0.06736003
74	0x3ccfc3ed	0.02536198
75	0x3db7fbce	0.08983575
76	0x3d9d0e75	0.07668773
77	0x3bcf15bb	0.006319729
78	0xbd9f374c	-0.07774219
79	0x3d838bee	0.06423174
80	0xbd9f9d77	-0.07793706
81	0xbd305300	-0.043047905
82	0x3cd3cff0	0.025855988
83	0xbdafdcf8	-0.08587068
84	0xbbeb8529	-0.007187505
85	0x3dd6ce37	0.10488551
86	0xbcec2a3b	-0.02882873
87	0x3cbfc4e0	0.023409307
88	0x3d169789	0.03676561
89	0x3e068dfe	0.13140103
90	0xbe00f3f6	-0.12593064
91	0x3c2cb344	0.010540787
92	0x3e15e54b	0.1463825
93	0x3dd14813	0.10218825
94	0xbd02ac4f	-0.031902608
95	0x3d9d1cb1	0.07671488
96	0x3defc88d	0.11708174
97	0x3d981c39	0.07427258
98	0x3e248d58	0.16069543
99	0x3da98c92	0.08278765
100	0xbde6c346	-0.11267714
101	0xbdf01692	-0.11723055
102	0x3ddfa1fd	0.10919569
103	0x3d6aa8bc	0.057289824
104	0x3dbdb286	0.09262566
105	0xbd0539de	-0.03252589
106	0x3cac15bd	0.02100646
107	0xbd1311b7	-0.035905566
108	0x3c047ff4	0.008087147
109	0x3db710de	0.08938764
110	0x3e0399c1	0.12851621
111	0x3e05be58	0.13060892
112	0x3d289774	0.041160062
113	0xbb9081aa	-0.0044099884
114	0xbd850021	-0.06494165
115	0x3d415579	0.047200654
116	0xbd90bcd1	-0.07067264
117	0xbd97460d	-0.07386408
118	0x3d9057a1	0.07047964
119	0xbd200aea	-0.03907291
120	0x3e04a4cc	0.1295349
121	0x3d9fb74c	0.07798633
122	0x3de56b16	0.11202066
123	0x3df5a047	0.11993461
124	0xbd93b706	-0.07212643
125	0x3d905614	0.07047668
126	0x3da8284a	0.082108095
127	0xbdd0da9b	-0.10197946
128	0x3dd52828	0.1040805
129	0xbd2ce3ce	-0.04220944
130	0xbdb67813	-0.08909621
131	0x3d446053	0.047943424
132	0xbd3f23ce	-0.046665005
133	0xbde662de	-0.11249326
134	0x3de350e8	0.11099416
135	0xbd2bc76e	-0.041938238
136	0xbd3308dc	-0.04370962
137	0xbe011c80	-0.12608528
138	0xbdb9c098	-0.090699375
139	0x3d719317	0.058978166
140	0xbd815e5b	-0.06316825
141	0xbd31bf04	-0.043395057
142	0xbdf73d28	-0.120722115
143	0xbd1fb9fe	-0.038995735
144	0xbdd76275	-0.10516826
145	0xbdb670bd	-0.08908222
146	0xbe105d62	-0.14098123
147	0xbdcb552e	-0.09928356
148	0x3c913f4a	0.017730374
149	0xbda722a8	-0.08160907
150	0x3b8a59f3	0.0042221486
151	0xbdd20483	-0.10254767
152	0xbd2c531c	-0.042071447
153	0x3d08ada4	0.03336872
154	0xbd4303a0	-0.04761088
155	0x3d8499b7	0.06474631
156	0xbd6ca995	-0.057778914
157	0xbd47ae61	-0.048750285
158	0xbda39709	-0.07987792
159	0x3c568bc4	0.013094846
160	0xbd10e912	-0.035378523
161	0x3d28e840	0.041237116
162	0x3d00d51d	0.03145324
163	0x3e008b4c	0.12553138
164	0xbd57a5d2	-0.052648373
165	0xbd8bf29b	-0.06833383
166	0xbdab9ef1	-0.08379925
167	0x3a290e4c	0.0006448969
168	0x3d11b640	0.035574198
169	0xbdb40d57	-0.08791607
170	0xbab95198	-0.0014138697
171	0x3d7fc49e	0.062443368
172	0x3d996e9b	0.074917994
173	0xbc8d92d3	-0.017281925
174	0x3de7f266	0.11325531
175	0xbdbf59c7	-0.093432955
176	0x3d9232be	0.071385846
177	0xbb7e6d53	-0.0038822487
178	0x3ca8a5ed	0.020586932
179	0xbdd5b3ca	-0.10434683
180	0x3dd68592	0.10474695
181	0x3d1b9338	0.037982196
182	0xbdbaf6a8	-0.09129077
183	0xbc8c02a0	-0.017091095
184	0xbdb3ffcf	-0.08789026
185	0xba621f03	-0.0008625837
186	0xbd153fa7	-0.036437657
187	0x3d5eb877	0.054375138
188	0x3da4bdea	0.08044036
189	0x3dc86ae1	0.097860105
190	0xbd84b1b5	-0.064792074
191	0x3d0e00ec	0.034668848
192	0xbdf6816c	-0.12036404
193	0xbd7bf597	-0.06151351
194	0x3d65f075	0.05613752
195	0xbda09539	-0.07840962
196	0xbd6c44a2	-0.05768264
197	0xbd967436	-0.07346384
198	0xbb87e49f	-0.004147127
199	0xbdd20671	-0.10255135
200	0xbd3115d5	-0.04323371
201	0xbde065c2	-0.10956909
202	0x3e002d97	0.12517391
203	0x3db4b202	0.08823015
204	0x3dc9a612	0.098461285
205	0xbbce4223	-0.006294505
206	0xbdd909ff	-0.1059761
207	0xbde51360	-0.11185336
208	0xbc14ca21	-0.009081394
209	0xbd7e91d0	-0.062150776
210	0x3cd03ea9	0.025420504
211	0x3debb885	0.11509804
212	0xbdf9d1b4	-0.12198201
213	0xbc1d0573	-0.009583819
214	0x3dd832a5	0.10556535
215	0xbde9d078	-0.114167154
216	0x3d728820	0.05921185
217	0x3b314f51	0.0027055333
218	0x3d3baf6f	0.045821603
219	0xbcb12397	-0.021623416
220	0xbdabe0d5	-0.08392493
221	0xbdea5f3b	-0.11443945
222	0x3d84c809	0.06483466
223	0xbde4ce7b	-0.111721955
224	0xbde448e4	-0.11146715
225	0xbdaa3a42	-0.08311893
226	0xbcafd81b	-0.021465352
227	0x3c9b41cf	0.018952278
228	0x3c7679f9	0.015043729
229	0xbda9b9bf	-0.082873814
230	0xbde33347	-0.11093765
231	0xbd215abb	-0.039393168
232	0xbddb9a0d	-0.10722742
233	0x3d644171	0.055726472
234	0x3d3ebe2d	0.046568085
235	0x3d957ee8	0.07299596
236	0x3b7ad11f	0.0038271619
237	0x3d96bf95	0.0736076
238	0xbd775349	-0.06038216
239	0x3d8cb4a8	0.06870395
240	0x3de7890f	0.11305439
241	0x3d35f44b	0.04442243
242	0x3d93033b	0.071783505
243	0xbd8f285a	-0.06990118
244	0x3bf74dca	0.007547115
245	0xbcebdca9	-0.028791742
246	0x3c760a4b	0.0150171025
247	0x3d7cd1fd	0.061723698
248	0xbde46516	-0.11152093
249	0xbdbd6891	-0.0924846
250	0xbd9425e1	-0.07233787
251	0x3d368a24	0.044565335
252	0x3cb2e97c	0.02183985
253	0x3dda800d	0.10668955
254	0x3d3f8e35	0.04676648
255	0x3bf06736	0.0073365225

fc1.bias f4 [64]
0	0x3d1789e1	0.036996726
1	0x3d3531cf	0.044236954
2	0x3dae86a0	0.085217714
3	0xbcde109e	-0.027107533
4	0xbd9bfcef	-0.07616603
5	0x3dadda28	0.08488876
6	0xbd05e7ce	-0.03269177
7	0x3dcf238a	0.101142004
8	0x3d81e4c8	0.06342465
9	0xbcb04a72	-0.021519873
10	0x3dfc210a	0.12310989
11	0x3df847af	0.121230476
12	0xbaf0a58c	-0.0018359884
13	0xbd91f789	-0.07127292
14	0x3df9dc3a	0.12200208
15	0x3d4b04d9	0.04956517
16	0xbd64ee79	-0.055891488
17	0xbcf53d68	-0.029936507
18	0xbd4f1b48	-0.050563127
19	0x3dc50ff3	0.09622183
20	0x3dda556e	0.10660826
21	0xbdfe27fb	-0.124099694
22	0xbd4a7d65	-0.04943599
23	0x3d43dae8	0.047816187
24	0x3cacbf83	0.021087414
25	0x3ddb017f	0.10693645
26	0x3dc7f782	0.09764005
27	0x3dc1d447	0.09464317
28	0xbd056886	-0.032570384
29	0x3cbc256d	0.022967065
30	0x3d98b4b1	0.07456339
31	0xbc360b29	-0.011111059
32	0x3d788af1	0.06067938
33	0xbd0f3cfd	-0.034970272
34	0x3e117000	0.14202881
35	0xbdb3caf4	-0.087789446
36	0x3c894d5f	0.016760526
37	0x3bb63273	0.0055602132
38	0x3d458004	0.04821779
39	0xbde8ca98	-0.11366767
40	0xbc371024	-0.011173282
41	0xbc0bd204	-0.008533958
42	0x3dd74f71	0.10513199
43	0xbd2a2c58	-0.041546196
44	0x3defc477	0.117073946
45	0x3e022039	0.12707604
46	0x3d3d4bc3	0.04621483
47	0x3df2fdf0	0.11864841
48	0x3d586c6c	0.052837774
49	0x3dc7bb82	0.09752561
50	0x3de1475d	0.109999396
51	0x3e222063	0.15832667
52	0x3c8fb9a6	0.017544579
53	0x3d817062	0.063202634
54	0xbd770cca	-0.06031493
55	0x3c889e03	0.016676908
56	0x3d2cebc6	0.04221704
57	0xbc3c9063	-0.011509034
58	0x3dfe2b89	0.124106474
59	0x3cf23f0f	0.029571084
60	0x3e0cdaed	0.13755389
61	0x3d305c06	0.04305651
62	0xbd97dd26	-0.074152276
63	0x3d515d2e	0.051114254

fc3.weight f4 [2, 64]
0	0x3d034c8f	0.032055434
1	0xbcd8f862	-0.026485626
2	0x3cc78e66	0.024359893
3	0xbcb90d77	-0.022589428
4	0xbdd4690e	-0.103716
5	0x3e1f3e33	0.15551071
6	0x3e243f13	0.16039686
7	0xbc4d415d	-0.012527791
8	0xbe1da972	-0.1539667
9	0xbdc9c2fc	-0.098516434
10	0xbdbadef7	-0.091245584
11	0x3c289df7	0.010291568
12	0x3e070049	0.13183703
13	0xbd29690a	-0.04135994
14	0x3e1eda69	0.15513004
15	0xbdcf8322	-0.101324335
16	0xbe397c57	-0.18113838
17	0xbd7dcf48	-0.061965257
18	0x3e04df19	0.1297573
19	0x3e0be01a	0.13659707
20	0x3d927e10	0.07152951
21	0x3e512978	0.20425975
22	0xbdcb4f0c	-0.09927186
23	0x3df9b81e	0.12193321
24	0x3d79425c	0.0608543
25	0xbd24f684	-0.040274158
26	0x3e08b54c	0.1335041
27	0xbe435cef	-0.1907842
28	0xbe4b19ba	-0.19834033
29	0xbe32d8cd	-0.17465515
30	0xbe27916f	-0.16364072
31	0x3d312f6c	0.043258116
32	0x3d5bab13	0.053629946
33	0xbe03b178	-0.12860668
34	0xbde1ec72	-0.110314265
35	0xbe14b08f	-0.14520477
36	0x3db33d45	0.087519206
37	0x3e34bc7e	0.17650029
38	0xbc8599cd	-0.01630869
39	0xb7a544b8	-1.9701532e-05
40	0xbd228479	-0.039677117
41	0xbe27092c	-0.16312093
42	0xbde184e9	-0.11011679
43	0xbcd2de75	-0.025740841
44	0x3e1b2eac	0.15154523
45	0xbdb4ec01	-0.08834077
46	0xbdc33684	-0.095318824
47	0xbc41d1d3	-0.011829811
48	0x3e0fcf59	0.1404394
49	0xbdcfa6d8	-0.10139245
50	0xbe0b6a30	-0.13614726
51	0xbdaf863f	-0.08570527
52	0x3e14e2b1	0.14539601
53	0xbe12bf30	-0.14330745
54	0x3e24b368	0.16084063
55	0x3e102f21	0.14080478
56	0x3d8f8522	0.07007815
57	0xbcaf1121	-0.021370472
58	0x3d25fe41	0.04052568
59	0xbd940941	-0.072283275
60	0xbdc46a4f	-0.09590589
61	0x3d976794	0.07392803
62	0x3d2cd560	0.042195678
63	0x3dbe11ac	0.092807144
64	0xbe2e2a58	-0.1700834
65	0x3dc11439	0.09427685
66	0x3dea10cf	0.11428987
67	0xbd40b444	-0.047046915
68	0x3d96744c	0.073464006
69	0xbcad3178	-0.021141753
70	0xbdd09f3f	-0.10186624
71	0x3e238c44	0.15971476
72	0x3d3a46ab	0.04547755
73	0x3dba1a57	0.09087055
74	0x3de830dc	0.11337444
75	0xbde85618	-0.11344546
76	0xbe2ad3b5	-0.16682322
77	0x3dbaca03	0.09120562
78	0xbcef1349	-0.029184
79	0x3d876c9c	0.066125125
80	0x3de64262	0.1124313
81	0x3b6afdc0	0.0035856813
82	0xbd620bf7	-0.05518719
83	0xbdf26143	-0.118349575
84	0x3dba288e	0.090897664
85	0xbd043ed8	-0.032286495
86	0xbc37c696	-0.01121678
87	0xbe356cc1	-0.17717268
88	0xbe1a1392	-0.15046528
89	0xbe262bb8	-0.16227615
90	0xbdd54f38	-0.104155004
91	0x3b40da2d	0.0029426918
92	0x3d169995	0.03676756
93	0xbc5618f2	-0.013067471
94	0x3e0291c7	0.12750922
95	0xbe04401d	-0.12915082
96	0xbd7ee561	-0.06223047
97	0x3d1f982a	0.038963474
98	0x3b3e282c	0.0029015644
99	0x3e1b6a6c	0.15177315
100	0xbdad23a6	-0.08454065
101	0x3d88b94e	0.06675969
102	0x3e5a129f	0.21296166
103	0xbdd8b332	-0.10581054
104	0xbe00ae6a	-0.12566534
105	0x3ccf4d35	0.02530537
106	0x3dffe584	0.124949485
107	0xbe13cafc	-0.14432901
108	0xbd4dab7a	-0.05021236
109	0x3d5d395b	0.054009777
110	0x3d8c5c05	0.06853489
111	0xbe2595e4	-0.1617046
112	0xbd004409	-0.031314883
113	0x3dd07550	0.101786256
114	0x3d26ac0b	0.040691417
115	0xbbbdd385	-0.0057930374
116	0xbda34df0	-0.0797385
117	0x3d53f00c	0.0517426
118	0xbe1a0697	-0.15041576
119	0xbe09ec99	-0.13469161
120	0x3d9316d8	0.071820915
121	0x3e28279a	0.16421357
122	0xbda0c082	-0.07849218
123	0x3e2bd6ee	0.16781208
124	0x3d257e90	0.040403903
125	0xbd90c4cf	-0.07068788
126	0x3cf833b8	0.030298099
127	0x3d64da4d	0.05587225

fc3.bias f4 [2]
0	0xbdd59943	-0.10429623
1	0x3cc55212	0.024086986
