model/save/v7.3_2022-08-30_12-52/model.pt (torch, 761811 bytes, 14 tensors)

lstm.weight_ih_l0 f4 [256, 512]
0	0xbc1d65b0	-0.009606764
1	0xbd2827af	-0.04105347
2	0xbddbcbc6	-0.10732226
3	0x3cc5a13a	0.02412473
4	0xbcbf37c9	-0.02334203
5	0x3c3c5c34	0.011496592
6	0xbcf9f02a	-0.030510027
7	0x3dc1fc7f	0.09471988
8	0xbc1a0a7e	-0.009401916
9	0xbd66605e	-0.056244247
10	0xbd567860	-0.052360892
11	0x3dee9c16	0.11650865
12	0x3d535e50	0.051603615
13	0xbe02b63c	-0.1276483
14	0xbda3edb2	-0.08004321
15	0x3dba9301	0.0911007
16	0x3db66cbc	0.08907458
17	0xbd96714b	-0.07345828
18	0xbde554d0	-0.11197817
19	0xbdb2e615	-0.08735291
20	0x3d7a11b5	0.061052043
21	0x3c7e5e20	0.015525371
22	0x3e06a683	0.13149457
23	0x3db23e05	0.087032355
24	0xbcf98f6f	-0.030463902
25	0xbd7d9e02	-0.061918266
26	0x3dc373c0	0.09543562
27	0x3d9e01f0	0.07715213
28	0xbda09f6f	-0.078429095
29	0x3d5b3a5d	0.053522456
30	0xbda81df0	-0.08208835
31	0x3db1b2bd	0.0867667
32	0xbd3b5299	-0.04573307
33	0xbd63563f	-0.055502173
34	0xbda4ff54	-0.080565125
35	0xbc1054dd	-0.0088092955
36	0xbcb7a711	-0.02241853
37	0xbda0bd26	-0.07848577
38	0xbd96357b	-0.07334419
39	0xbd0f2532	-0.03494758
40	0xbdb626d2	-0.08894123
41	0xbd0d04fa	-0.034428574
42	0x3e41519d	0.18878789
43	0xbd277706	-0.040884994
44	0x3d2917ea	0.04128257
45	0x3da48575	0.080332674
46	0xbc902e9d	-0.017600352
47	0x3c5a52c0	0.013325393
48	0x3d9ec005	0.077514686
49	0x3dde001e	0.10839866
50	0x3c77e485	0.015130167
51	0x3dd1f3d6	0.10251586
52	0xbd649680	-0.05580759
53	0xbdcc866d	-0.09986577
54	0xbdc17b7f	-0.09447383
55	0x3e1468cc	0.14493102
56	0xbb20884f	-0.0024495309
57	0xbd09260c	-0.03348355
58	0x3d566fc4	0.05235268
59	0x3d0dbe62	0.03460539
60	0xbdef233a	-0.11676641
61	0xbdffd66c	-0.124920696
62	0x3ce65f9a	0.028121758
63	0xbdaa8edb	-0.08328029
64	0x3db98b8c	0.090598196
65	0xbda4f359	-0.080542274
66	0x3e3464d4	0.17616588
67	0xbd65c92f	-0.056100067
68	0xbda45e43	-0.080257915
69	0x3dbb1128	0.09134132
70	0x3e1b27cb	0.15151899
71	0x3dcf8733	0.10133209
72	0x3e1668c7	0.14688407
73	0x3d3e4c59	0.04645953
74	0x3d997ca4	0.074944764
75	0xbb8e9146	-0.004350814
76	0xbd3ef5eb	-0.046621244
77	0x3c6f5dbc	0.01460975
78	0x3cbd6b09	0.023122327
79	0x3df34c1c	0.11879751
80	0x3d095fbe	0.033538572
81	0x3d9a4f4c	0.07534656
82	0xbdd8ffb2	-0.10595645
83	0x3df657fa	0.12028499
84	0x3d5a5a9b	0.053309064
85	0x3d16cfdd	0.036819328
86	0x3ca72c8f	0.02040699
87	0x3cdcaa51	0.026936682
88	0x3d2aca1f	0.041696664
89	0x3dcb18ef	0.09916865
90	0xbdb8d85d	-0.09025643
91	0x3dedb5b5	0.116069235
92	0xbc23cf6c	-0.009998184
93	0xbd78dc0d	-0.06075673
94	0x3d26b1af	0.040696796
95	0xbdfcda7b	-0.12346359
96	0xbae3a6f1	-0.0017368478
97	0x3d9693df	0.07352423
98	0x3dbf5aac	0.09343466
99	0xbd491801	-0.049095158
100	0x3d3bc5ec	0.04584305
101	0x3d70687d	0.058693398
102	0x3de1d88b	0.110276304
103	0x3c4652b6	0.012104681
104	0xbd845c01	-0.06462861
105	0x3c746e73	0.014918911
106	0xbdb39bbd	-0.08769939
107	0xbdc6ef04	-0.09713557
108	0xbd1cf50f	-0.038319644
109	0x3db08dbf	0.08620786
110	0x3c349bdf	0.011023491
111	0xbd600fd2	-0.054702587
112	0xbcaa2ee6	-0.020774316
113	0xbd1e1b9e	-0.038600557
114	0xbdbac1c3	-0.09118988
115	0xbbe0cd54	-0.0068604145
116	0x3dd214c5	0.10257868
117	0xbd06d705	-0.032919902
118	0xbdad5ac3	-0.08464577
119	0xbd835a62	-0.064137235
120	0x3d106f1f	0.035262223
121	0x3bc3d1b2	0.0059759254
122	0xbd99dd23	-0.075128816
123	0xbdea8c02	-0.114524856
124	0x3db16e8a	0.08663662
125	0xbe03598a	-0.12827125
126	0x3cca22fa	0.024674881
127	0x3d79ecfa	0.061017014
128	0x3b8a333e	0.0042175343
129	0xbd1b2bba	-0.037883498
130	0xbcfc82bb	-0.030824056
131	0xbd4bb809	-0.049736056
132	0xbc497de7	-0.012298084
133	0x3cc4e13a	0.024033178
134	0x3df1fc5d	0.118157126
135	0xbc3efc00	-0.011656761
136	0x3dd2cdc5	0.10293154
137	0xbdea826d	-0.11450658
138	0x3bae2c26	0.0053153215
139	0x3dc61ddf	0.09673666
140	0x3e199d0d	0.15001316
141	0xbd83530d	-0.06412325
142	0x3d4da6ec	0.050208017
143	0xbdc49c0f	-0.09600078
144	0xbdc8519f	-0.09781193
145	0xbd847033	-0.06466713
146	0x3d51f644	0.051260248
147	0xbd45b777	-0.04827067
148	0xbdb3dd36	-0.08782427
149	0xbda62470	-0.08112419
150	0x3e001bcc	0.12510604
151	0xbdaaaf3a	-0.08334203
152	0xbc4c1217	-0.012455485
153	0xbd0d5283	-0.034502517
154	0xbde6b2fc	-0.11264607
155	0x3df45cb8	0.11931747
156	0x3cfb5023	0.03067786
157	0xbd3f3c2a	-0.046688236
158	0x3cf6f72c	0.030147158
159	0x3d696ab2	0.05698652
160	0xbcff5045	-0.031166205
161	0xbe0aef47	-0.1356784
162	0x3dad7132	0.08468856
163	0x3dbfbefe	0.09362601
164	0xbe0bf4c2	-0.13667586
165	0xbd55c093	-0.052185606
166	0xbd95893e	-0.073015675
167	0xbd73ddbb	-0.05953763
168	0xbc095373	-0.008381712
169	0x3dda6e84	0.106656104
170	0xbe16ed07	-0.14738856
171	0xbd2ab6a1	-0.041678075
172	0x3aab4a75	0.0013068455
173	0xbd71ff01	-0.05908108
174	0xbdec779b	-0.115462504
175	0xbdb0cc37	-0.08632701
176	0xbc76fc11	-0.015074746
177	0xbdfdbf9e	-0.12390064
178	0x3de8e232	0.11371268
179	0xbe1704af	-0.1474788
180	0x3d8f6a05	0.070026435
181	0x3cd716d2	0.026255999
182	0x3ccabfcf	0.024749665
183	0x3ad250e5	0.0016045837
184	0xbda3dd25	-0.08001164
185	0x3dad0acf	0.08449327
186	0x3d34c178	0.04412982
187	0xbd78e7fb	-0.06076811
188	0xbdf7265a	-0.12067862
189	0x3d7b3cf1	0.061337415
190	0xbd54927d	-0.051897515
191	0x3d822344	0.06354383
192	0x3d6c0292	0.05761964
193	0x3dd91e78	0.106015146
194	0xbdc32c0a	-0.09529884
195	0x3d7aaa73	0.06119771
196	0xbd54096d	-0.0517668
197	0x3d66e028	0.056366116
198	0xbd70bec9	-0.058775697
199	0x3bfe7361	0.007765219
200	0xbe0edf3e	-0.13952348
201	0xbdd9b8f2	-0.10630979
202	0x3dddf6b5	0.10838071
203	0xbda6962b	-0.08134111
204	0x3dd7888b	0.105240904
205	0xbd8422ea	-0.06451972
206	0x3db2eee7	0.08736973
207	0x3d9df0ea	0.07711966
208	0xbdcd77cf	-0.10032617
209	0xbddb0f8f	-0.10696327
210	0xbd9d4d82	-0.07680799
211	0xbbb31542	-0.0054651806
212	0x3dbb8380	0.09155941
213	0xbe323e34	-0.17406541
214	0xbdb9ddcc	-0.090755075
215	0xbc9560be	-0.018234607
216	0x3dad1550	0.08451331
217	0x3b29752c	0.0025857193
218	0x3d52c60d	0.051458407
219	0xbd9d3b45	-0.076773204
220	0x3dec68ac	0.11543402
221	0xbcf151c6	-0.029457938
222	0xbd6cbbb4	-0.057796195
223	0xbd43b42b	-0.047779243
224	0x3d2a9775	0.041648347
225	0xbda2a7a9	-0.07942135
226	0xbd6a1e6a	-0.05715791
227	0xbdd4b5d4	-0.103862435
228	0xbdb9cda6	-0.090724275
229	0x3d8a906b	0.06765827
230	0xbdcbe1bc	-0.09955165
231	0x3d959030	0.07302892
232	0x3d96455f	0.0733745
233	0xbd9c6d21	-0.07638002
234	0x3ccb084c	0.02478423
235	0xbdf4f144	-0.1196008
236	0xbdc6f630	-0.09714925
237	0x3d86e6bb	0.06586977
238	0xbdad2272	-0.084538355
239	0x3c07b320	0.008282453
240	0x3c891662	0.016734306
241	0xbcba234a	-0.022721905
242	0xbcedaea2	-0.029013935
243	0xbccbe41d	-0.024889046
244	0xbdeaac86	-0.114586875
245	0x3dbaf7f1	0.09129322
246	0x3d7e581f	0.062095758
247	0x3dcef948	0.101061404
248	0xbd4ed933	-0.050500106
249	0xbdf2ca47	-0.118549876
250	0x3d8f5a77	0.06999677
251	0xbc98fc05	-0.01867486
252	0xbd98dd56	-0.074640915
253	0x3d886eff	0.06661796
254	0xbd879e3c	-0.06621978
255	0xbd391f7e	-0.04519605

lstm.weight_hh_l0 f4 [256, 64]
0	0xbd942349	-0.072332926
1	0x3c5c1272	0.013432132
2	0x3c14f4e8	0.009091593
3	0x3da7513e	0.081697926
4	0xbda4a427	-0.08039122
5	0xbe04abc8	-0.12956154
6	0x3dba46e4	0.090955526
7	0x3d42de82	0.04757548
8	0x3dc9e0da	0.0985734
9	0xbc4926a1	-0.012277276
10	0x3c0e6022	0.008689912
11	0xbdb17a8e	-0.086659536
12	0x3d1ec04b	0.038757604
13	0x3d971077	0.07376187
14	0xbd543295	-0.05180605
15	0xbd90d231	-0.07071341
16	0xbdbcbe00	-0.09215927
17	0x3dc6fd0e	0.09716235
18	0xbbc3a06d	-0.005970052
19	0x3d80fafc	0.062978715
20	0xbd637d63	-0.0555395
21	0xbe074be2	-0.13212541
22	0x3dc95ca4	0.09832123
23	0xbd1b91c3	-0.037980806
24	0xbd8a2d39	-0.06746907
25	0xbd614a9c	-0.055002794
26	0x3d9b6c95	0.0758907
27	0x3db7ac5a	0.0896842
28	0xbe06b1a3	-0.131537
29	0x3dbab688	0.09116846
30	0x3e019ef7	0.12658297
31	0x3c2d09bb	0.010561402
32	0x3c684f43	0.014179054
33	0x3d23e596	0.040013872
34	0xbda74560	-0.08167529
35	0x3dbdbe24	0.09264782
36	0x3ca0c5e7	0.019625617
37	0x3d950d19	0.07277889
38	0xbcc3cf2b	-0.023902496
39	0xbd0bee1d	-0.03416263
40	0xbd81875a	-0.063246444
41	0xbdd5b68a	-0.10435207
42	0x3d81ea3d	0.063435055
43	0xbd800a97	-0.0625202
44	0xbd83760f	-0.06419002
45	0xbc3157c6	-0.0108241495
46	0x3c8200e5	0.015869567
47	0xbd670542	-0.0564015
48	0x3da5e389	0.081000395
49	0x3cf61732	0.030040357
50	0x3d764372	0.060122915
51	0xbd3e41d3	-0.046449494
52	0x3d9a89ba	0.075458005
53	0x3d2c4733	0.04206009
54	0xbb2f173a	-0.0026716725
55	0x3d922aac	0.07137045
56	0xbe0364c5	-0.1283141
57	0x3d395aff	0.045252796
58	0xbd0c4ca1	-0.034252767
59	0xbcdabe32	-0.02670202
60	0x3d0a76c2	0.033804663
61	0xbc0f80a8	-0.008758701
62	0x3dc06944	0.09395078
63	0x3c9a6871	0.01884863
64	0xbc951dc5	-0.018202672
65	0x3d85f2d0	0.065404534
66	0xbc059376	-0.008152833
67	0xbc0977c8	-0.0083903745
68	0x3d543ee7	0.0518178
69	0xbd413077	-0.04716536
70	0xbd451b37	-0.048121657
71	0x3e32e49d	0.17470022
72	0xbceff287	-0.02929045
73	0xbd8e5ece	-0.06951676
74	0xbc82d5bd	-0.015971059
75	0x3cfabf63	0.030608838
76	0x3dbd9795	0.092574276
77	0x3d67455d	0.056462634
78	0x3cdafff2	0.026733372
79	0x3d09955d	0.03358971
80	0xbe007dc5	-0.12547977
81	0xbd426e7a	-0.04746864
82	0x3c8bb0a6	0.017052006
83	0x3c98b7e8	0.01864238
84	0x3d0ad506	0.03389456
85	0xbd4f9f6b	-0.050689142
86	0xbd55b889	-0.05217794
87	0xbd5e04c2	-0.054203756
88	0xbca814a8	-0.020517662
89	0xbd4e7997	-0.050408926
90	0xbc45ba31	-0.012068317
91	0x3d1225b4	0.035680488
92	0x3d9b6524	0.075876504
93	0x3dd91605	0.10599903
94	0xbdf87173	-0.12131014
95	0xbd43adc8	-0.047773153
96	0xbdd7573d	-0.10514686
97	0x3d6088ba	0.054817893
98	0xbdb14b76	-0.08656971
99	0xbc19de1a	-0.009391332
100	0x3bf02185	0.0073282146
101	0xbb85c91a	-0.004082811
102	0x3e2a4dff	0.16631316
103	0x3c9b71c9	0.018975155
104	0x3e0015c1	0.12508298
105	0xbdfe4148	-0.12414795
106	0x3db57cac	0.0886167
107	0xbda830c3	-0.082124256
108	0x3cc03f8e	0.023467805
109	0x3ce4e079	0.027939068
110	0xbe09b930	-0.1344955
111	0xbdaa74c3	-0.08323052
112	0x3cc8019e	0.024414834
113	0xbd43de74	-0.04781957
114	0x3d16c04b	0.03680448
115	0x3e132156	0.14368185
116	0xbdccd4d3	-0.100015305
117	0xbe2dd015	-0.16973908
118	0xbdb2fba8	-0.08739406
119	0xbcce91f6	-0.025216084
120	0xbd432b56	-0.04764875
121	0xbdf6e3a2	-0.12055136
122	0x3da4cb02	0.08046533
123	0x3c063d9f	0.008193403
124	0x3dd43d4f	0.10363256
125	0x3d9848fa	0.07435794
126	0xbde7a713	-0.11311164
127	0x3ddf9631	0.109173186
128	0x3e1ab58d	0.15108319
129	0x3d085cce	0.03329163
130	0x3e10aad2	0.14127663
131	0x3d22d1fc	0.039751038
132	0xbe02e210	-0.12781549
133	0xbca030d5	-0.019554535
134	0xbd646069	-0.055756006
135	0x3e240f7b	0.1602153
136	0x3d3af7c4	0.045646444
137	0xbd5818bc	-0.052757964
138	0xbb2f2df5	-0.0026730273
139	0xbe18bf2b	-0.14916675
140	0xbd3433f6	-0.043994866
141	0xbd08ca34	-0.03339596
142	0xbccaa3a7	-0.024736239
143	0x3c528904	0.01285005
144	0xbe43c62b	-0.19118564
145	0x3d98bf95	0.074584164
146	0xbd2457b4	-0.040122703
147	0xbbd6b4d0	-0.0065523162
148	0xbdcae726	-0.09907369
149	0xbe0065a7	-0.12538777
150	0xbdd12dc7	-0.102138095
151	0x3ce5d137	0.028053863
152	0xbe0ac59c	-0.13551944
153	0xbd2cf84c	-0.04222898
154	0xbe06ef2a	-0.13177171
155	0x3b69cac6	0.003567384
156	0xbdcbea08	-0.09956747
157	0x3e06fbcf	0.13181995
158	0x3daa757f	0.08323192
159	0xbd482e2b	-0.048872154
160	0xbe16bc28	-0.14720213
161	0xbd233074	-0.03984113
162	0x3dff3858	0.124619186
163	0xbc12ec05	-0.008967404
164	0x3d400288	0.046877414
165	0xbaafeba5	-0.0013421668
166	0xbd225a7c	-0.039637074
167	0x3d20d2e6	0.03926363
168	0x3db498b2	0.08818187
169	0xbdaa836f	-0.0832585
170	0x3d5c2160	0.053742766
171	0x3d7e001a	0.062011816
172	0x3d74bef9	0.05975244
173	0xbe0225f7	-0.12709795
174	0xbe45d5cf	-0.19319843
175	0xbdae388d	-0.0850688
176	0x3cd16c93	0.025564468
177	0xbc84bcfc	-0.016203396
178	0xbd96bb26	-0.073599145
179	0x3d4ba324	0.04971613
180	0xbaa76085	-0.0012769854
181	0xbd93a496	-0.07209127
182	0xbd2836a4	-0.041067734
183	0x3d1cf336	0.03831788
184	0xbde47db6	-0.1115679
185	0x3de61581	0.1123457
186	0xbdd762fc	-0.10516927
187	0x3d1b4213	0.03790481
188	0xbd5820e9	-0.05276576
189	0x3e1d6145	0.15369137
190	0xbda57a26	-0.080799386
191	0x3e01d1bc	0.12677664
192	0x3a8f5051	0.001093397
193	0x3ddcd6fb	0.10783192
194	0x3cd72565	0.026262948
195	0xbe218054	-0.1577161
196	0x3ca93892	0.020656858
197	0xbd063e13	-0.032774042
198	0x3cc45bdd	0.023969585
199	0xbd240d7a	-0.040051915
200	0xbdc56945	-0.09639219
201	0x3dae513f	0.0851159
202	0xbd449f1c	-0.0480033
203	0xbd4029d3	-0.046914887
204	0xbd6bbe8a	-0.05755476
205	0x3d59a57a	0.053136326
206	0xbd67eebe	-0.056624167
207	0x3db0c711	0.08631719
208	0x3d0d1460	0.03444326
209	0xbdb1db63	-0.08684423
210	0x3d209af6	0.039210282
211	0x3dbe932d	0.09305415
212	0xbd893c3c	-0.06700942
213	0x3df0e4bd	0.11762378
214	0xbd7bda59	-0.06148753
215	0xbdc7551f	-0.097330324
216	0x3c3188e4	0.01083586
217	0x3bb6b43e	0.0055756858
218	0x3daa7cee	0.0832461
219	0xbcf27257	-0.029595537
220	0x3d8c895d	0.068621375
221	0x3dbf192e	0.093309745
222	0xbc8b272f	-0.016986458
223	0xbe2434b0	-0.16035724
224	0xbdba24af	-0.09089028
225	0xbe114a08	-0.14188397
226	0xbd653066	-0.05595436
227	0x3d631124	0.05543627
228	0x3de7ded7	0.113218
229	0xbd902746	-0.07038741
230	0xbdaf46ee	-0.08558451
231	0xbdfad24a	-0.12247141
232	0x3d8c72e5	0.06857852
233	0x3d42f8f8	0.047600716
234	0x3dfce0fb	0.12347599
235	0x3e08990b	0.13339631
236	0x3ded07b0	0.11573732
237	0x3d1423bd	0.036166895
238	0xbda66a4c	-0.08125743
239	0xbda8ce6f	-0.08242499
240	0xbcbd5553	-0.023111975
241	0x3d998ab4	0.07497159
242	0xbd458101	-0.04821873
243	0xbd02fba5	-0.03197827
244	0xbdd65668	-0.104656994
245	0xbdd66946	-0.10469298
246	0x3dc712bf	0.097203724
247	0xbd74a383	-0.05972625
248	0xbcd683be	-0.026185866
249	0xbc98d97e	-0.018658396
250	0x3d3c4f61	0.04597414
251	0xbd0fb8fc	-0.035088524
252	0x3c22c9c1	0.009935797
253	0x3e0d593a	0.13803568
254	0xbc8cc1d5	-0.01718227
255	0xbd9c55e2	-0.07633568

lstm.bias_ih_l0 f4 [256]
0	0x3da7e37f	0.08197688
1	0xbce78729	-0.028262692
2	0x3e00cf51	0.12579085
3	0xbdd39fb4	-0.10333195
4	0xbd4a9756	-0.04946073
5	0xbdd6ccbd	-0.104882695
6	0x3d970a9b	0.0737507
7	0x3dfc5df0	0.12322605
8	0x3de8d329	0.113684006
9	0x3bb35a67	0.0054734233
10	0xbb8396e4	-0.0040157903
11	0x3d201590	0.039083064
12	0x3db7d655	0.089764275
13	0xbdc5c19e	-0.0965607
14	0xbda3943e	-0.07987259
15	0xbd9078a0	-0.070542574
16	0xbc65922d	-0.014011902
17	0x3da7b6a9	0.081891365
18	0xbd91407b	-0.07092377
19	0x3d1a8085	0.037720222
20	0x3d54dad8	0.05196652
21	0x3d906a81	0.07051564
22	0x3dff85ef	0.12476718
23	0x3d263892	0.040581293
24	0xbbcba26f	-0.006214432
25	0xbd343de8	-0.04400435
26	0x3dd14bd9	0.10219545
27	0xbdec8a51	-0.11549819
28	0x3b17f837	0.002318872
29	0xbd804314	-0.06262794
30	0x3db56488	0.088570654
31	0xbb164c97	-0.0022933835
32	0x3d9c65bb	0.07636591
33	0x3d8a98e5	0.067674436
34	0x3e0c0353	0.13673143
35	0xbcc45f87	-0.023971332
36	0x3df91b8a	0.12163456
37	0x3c994cbd	0.01871335
38	0x3e06e299	0.13172378
39	0x39d8465d	0.00041251155
40	0x3e0034bd	0.12520118
41	0x3bd7d7de	0.0065870127
42	0xbd46e4cf	-0.048558053
43	0x3cb9316c	0.022606574
44	0x3e22852d	0.15871115
45	0xbd883bc5	-0.06652025
46	0x3c165aea	0.009176949
47	0x3d8a4548	0.067514956
48	0x3dadc9c4	0.08485749
49	0x3d8dca29	0.069233246
50	0x3c83001a	0.01599126
51	0x3e07651a	0.13222161
52	0xbd2e8b92	-0.042613573
53	0x3d06c3e9	0.03290168
54	0x3d42cafd	0.047556866
55	0x3d6e67b0	0.058204353
56	0x3e014548	0.12624085
57	0xbd45de5d	-0.048307765
58	0x3dfefe82	0.12450887
59	0x3d8b5350	0.06803
60	0x3d8e84b1	0.069589026
61	0xbd9fa686	-0.07795434
62	0x3cdc8e86	0.02692343
63	0x3e10d46d	0.14143534
64	0xbd6298c5	-0.055321474
65	0xbda6663b	-0.08124968
66	0x3e21103f	0.15728854
67	0x3de19e89	0.11016566
68	0x3df933bd	0.121680714
69	0xbcf45e4d	-0.029830122
70	0xbbba6e92	-0.0056894505
71	0xbd8d5685	-0.06901268
72	0x3d849a9d	0.06474803
73	0x3d9d0bbf	0.07668256
74	0x3dae8172	0.085207835
75	0xbdb11add	-0.08647702
76	0x3ded997d	0.11601541
77	0x3d143ba6	0.036189698
78	0x3e079d2c	0.1324355
79	0x3b180d55	0.0023201306
80	0xbcf0bb60	-0.029386222
81	0x3de8213f	0.11334466
82	0xbdb599f8	-0.08867258
83	0x3d4759a5	0.048669476
84	0x3ca1bd19	0.01974349
85	0xbd731b35	-0.05935212
86	0xbb1de6c7	-0.0024093853
87	0xbd936eda	-0.07198878
88	0x3d9eded7	0.07757347
89	0xbd7507f7	-0.05982205
90	0xbdc13977	-0.09434789
91	0xbc90fb27	-0.017697884
92	0x3dcaab79	0.09895987
93	0xbdc0e679	-0.09418959
94	0xbd9b0a12	-0.0757028
95	0x3e084e78	0.13311183
96	0x3de10d08	0.10988814
97	0x3de914dd	0.113809325
98	0x3d82858c	0.06373128
99	0x3cf500d7	0.029907627
100	0x3ce75cee	0.028242555
101	0x3d90a4ba	0.07062669
102	0xbd84dd1b	-0.06487485
103	0xbd18c3ab	-0.03729598
104	0xbc36aa13	-0.011148947
105	0x3e0ade1e	0.13561293
106	0x3e02c01b	0.12768595
107	0x3dee3826	0.11631803
108	0x3d54b142	0.05192686
109	0x3bc64076	0.006050165
110	0x3e132815	0.14370759
111	0x3db756f5	0.089521326
112	0x3ce4669e	0.027880963
113	0x3da30009	0.07958991
114	0x3da044f4	0.07825652
115	0xbcdc397c	-0.02688288
116	0x3c853c4d	0.016264105
117	0x3da6b79f	0.08140492
118	0x3e0bac38	0.13639915
119	0xbdc1aafe	-0.09456442
120	0x3ceaaa62	0.028645698
121	0x3be8ae00	0.0071008205
122	0x3d0a161f	0.033712503
123	0x3e057f90	0.13036942
124	0xbd3f82c9	-0.046755586
125	0x3d3d54da	0.0462235
126	0x3d288cf5	0.041150052
127	0xbd3a36ab	-0.04546229
128	0xbd8f11e1	-0.06985832
129	0x3d9f31eb	0.07773193
130	0x3d33c3eb	0.043888014
131	0x3cb7d5e2	0.022440854
132	0xbc878e94	-0.016547479
133	0xbdf0f8c7	-0.117662005
134	0xbd3b5949	-0.045739446
135	0xba7c8cae	-0.0009634
136	0x3d54b8a3	0.051933896
137	0x3da355e8	0.0797537
138	0xbd8da1bf	-0.06915616
139	0x3dbc29b0	0.09187639
140	0x3d9eafa1	0.07748342
141	0x3c07087a	0.008241767
142	0x3d21bbbb	0.039485674
143	0xbdeaecb1	-0.114709266
144	0x3cc00b38	0.02344285
145	0x3c2004c9	0.009766766
146	0x3daf7cd7	0.08568733
147	0xbcb29e72	-0.021804068
148	0xbc764ad5	-0.01503249
149	0x3dd0e813	0.10200515
150	0xbde81134	-0.11331406
151	0xbdd0d5ea	-0.10197051
152	0x3d18b02c	0.037277386
153	0xbdc0ab56	-0.0940768
154	0x3bb4fd16	0.0055233343
155	0x3cc72a2c	0.024312101
156	0x3df4bfaf	0.11950623
157	0x3cd297c0	0.025707126
158	0xbc19d2e3	-0.009388658
159	0x3ce3249d	0.02772742
160	0xbde7aa4a	-0.11311777
161	0xbd16bb93	-0.03679998
162	0xbd3bc1cc	-0.045839116
163	0xbdc30ab0	-0.09523523
164	0x3c8ce70c	0.017200015
165	0xbdd29262	-0.102818266
166	0xbbca8ce0	-0.0061813444
167	0xbdeb38ae	-0.1148542
168	0x3da8964d	0.082317926
169	0xbdb6b849	-0.08921868
170	0x3da1a414	0.078926235
171	0x3cc5298b	0.02406766
172	0x3be9f7c8	0.0071401335
173	0x3d3968a5	0.045265812
174	0x3db3b188	0.08774096
175	0x3dacd305	0.08438686
176	0xbd7aa442	-0.061191805
177	0x3a22e6c0	0.0006214194
178	0xbccb7114	-0.024834193
179	0x3de72700	0.112867355
180	0xbda502c5	-0.08057169
181	0x3dec4501	0.11536599
182	0x3df175e5	0.11790065
183	0xbdb5c7ca	-0.08875997
184	0xbd4875ba	-0.048940398
185	0x3cdd7cb5	0.027037004
186	0xbd8ac849	-0.067764826
187	0x3d22f86a	0.039787687
188	0x3ced34a1	0.02895576
189	0xbd457778	-0.048209637
190	0xbde8526e	-0.11343847
191	0x3de1667b	0.11005875
192	0xbdd7e3ac	-0.10541472
193	0x3bb05d6b	0.00538223
194	0x3df4cf01	0.11953545
195	0x3bd55ace	0.006511069
196	0x3e16e8cd	0.14737244
197	0xbd97c230	-0.07410085
198	0xbd9e2dab	-0.07723554
199	0x3d1da4b2	0.038487144
200	0x3dc7a223	0.09747722
201	0x3c934a60	0.0179798
202	0xbd2cffe0	-0.04223621
203	0xbbf8f3ff	-0.007597446
204	0x3c913d05	0.017729292
205	0xbd7f2c86	-0.06229832
206	0x3db5e17d	0.08880899
207	0xbd4bc18f	-0.04974514
208	0x3dd90c03	0.10597994
209	0x3d5a958e	0.053365283
210	0x3d6c55d4	0.05769904
211	0x3d218114	0.03942974
212	0x3e1805e8	0.14846003
213	0xbc037dbf	-0.008025586
214	0xbd2693ff	-0.040668484
215	0x3dc94333	0.0982727
216	0x3e5ad8a3	0.21371703
217	0x3de9bf31	0.1141342
218	0x3cafa841	0.021442534
219	0x3e0f0c47	0.13969527
220	0x3e185bba	0.14878741
221	0x3db12736	0.08650057
222	0x3db175e1	0.08665062
223	0x3ce661de	0.028122839
224	0x3d70a0b2	0.058747
225	0x3ca911e0	0.020638406
226	0x3e0d596c	0.13803643
227	0xbd8f95f4	-0.07011023
228	0x3ca240ce	0.019806292
229	0xbd78e0d9	-0.060761306
230	0x3e182ba7	0.14860402
231	0x3cd317d3	0.025768196
232	0x3de98494	0.114022404
233	0x3dcd7450	0.100319505
234	0xbd883465	-0.066506185
235	0xbd905169	-0.07046778
236	0x3df17fda	0.11791964
237	0xbd31f9e8	-0.04345122
238	0x3e276ee5	0.16350897
239	0x3e0b93b4	0.13630563
240	0x3dbeff27	0.0932601
241	0x3dc5301e	0.09628318
242	0x3e192fb7	0.14959608
243	0x3da70c3c	0.081566304
244	0x3d1d03a8	0.038333565
245	0x3d1ac8e5	0.037789244
246	0xbd8c2bcb	-0.0684429
247	0xbd848763	-0.064711355
248	0x3d75059e	0.05981981
249	0x3d1c4a08	0.03815654
250	0xbc8671f8	-0.016411766
251	0xbdbd080a	-0.09230049
252	0x3d3ee85a	0.046608306
253	0x3d585bbe	0.052821867
254	0xbbebe483	-0.0071988716
255	0x3e0bd69f	0.1365609

lstm.bias_hh_l0 f4 [256]
0	0x3d89b06c	0.06723103
1	0x3dad70c8	0.08468777
2	0xbd082fce	-0.033248715
3	0x3e100a80	0.14066505
4	0x3dbf9cfc	0.09356114
5	0x3dfcc2e0	0.12341857
6	0x3c8ae217	0.016953511
7	0x3e14fedc	0.14550346
8	0xbd1d4a43	-0.0384009
9	0x3e0eef40	0.13958454
10	0x3d19ccef	0.037548956
11	0x3d9c1948	0.076220095
12	0xbd452fc0	-0.04814124
13	0xbcccebaf	-0.025014726
14	0x3dbf492c	0.09340128
15	0x3dfc2ca1	0.123132
16	0x3dae2785	0.085036315
17	0x3d685e39	0.056730483
18	0xbcf33caf	-0.029692022
19	0x3dd93c37	0.10607188
20	0x3d125ed4	0.035734966
21	0x3d95a186	0.07306199
22	0x3deb8cab	0.1150144
23	0x3dd70119	0.10498256
24	0x3dd268b6	0.10273878
25	0xbd7b6a14	-0.06138046
26	0x3de1b504	0.11020854
27	0x3de99597	0.11405485
28	0x3de6e0b3	0.11273327
29	0xbdc2ddd7	-0.09514969
30	0x3b40756b	0.0029366862
31	0x3d9467d1	0.07246364
32	0xbda6af7a	-0.08138938
33	0xbd801cbf	-0.06255483
34	0x3b9c28d4	0.0047656093
35	0xbdbdd08e	-0.09268294
36	0x3dad6a8d	0.084675886
37	0x3d1e193c	0.038598284
38	0x3d8bab74	0.068198115
39	0x395fc7f7	0.0002134143
40	0x3da11f6e	0.07867323
41	0x3d94510e	0.072420225
42	0x3e0c480e	0.13699362
43	0x3ce8e2e9	0.028428512
44	0x3dcb2444	0.099190265
45	0xbc81c322	-0.015840117
46	0xbc8ece2f	-0.0174323
47	0x3e1ab5c2	0.15108398
48	0xbd32554d	-0.04353838
49	0xbd2d1c6b	-0.04226343
50	0x3df52b61	0.119711645
51	0x3d544262	0.05182112
52	0x3c7567df	0.014978378
53	0xbcc6210d	-0.024185682
54	0x3e2ec4ef	0.17067312
55	0x3d79ef5c	0.061019287
56	0xbd8d6e36	-0.06905787
57	0xbc8e0521	-0.01733643
58	0x3ddcf78e	0.10789405
59	0xbc48d852	-0.012258606
60	0x3d5bf475	0.05369993
61	0xbd62bb71	-0.05535454
62	0x3d515874	0.051109746
63	0x3d1862de	0.037203662
64	0xbd20d019	-0.039260957
65	0xbd9b241f	-0.07575249
66	0xbda1bba9	-0.078971215
67	0x3c31a324	0.010842118
68	0x3b6f8af1	0.0036551321
69	0x3e14d220	0.14533281
70	0x398e43ba	0.0002713481
71	0x3e0a2e2b	0.13494174
72	0x3c703cdb	0.014662947
73	0x3d8b9fb7	0.068175726
74	0xbd6a7e98	-0.057249635
75	0x3dc31538	0.095255315
76	0xbc20cb6b	-0.009814124
77	0xbcdeccaa	-0.0271972
78	0x3cb891c5	0.022530446
79	0x3c9aec7e	0.018911596
80	0x3db2a6cc	0.0872322
81	0x3e11f6bc	0.14254278
82	0x3deca754	0.11555353
83	0x3d4a5f01	0.04940701
84	0xbc2dfe41	-0.010619701
85	0x3de55b36	0.11199038
86	0xbd9f9dd2	-0.07793774
87	0x3b439298	0.0029842015
88	0x3d5c2427	0.053745415
89	0xbd7413d8	-0.059589237
90	0xbc92d452	-0.017923508
91	0x3dd37b34	0.103262335
92	0x3de9aa1f	0.11409401
93	0x3e090f53	0.13384752
94	0xbdc47246	-0.095921084
95	0xbc1c51f8	-0.009541027
96	0x3debddaa	0.115168884
97	0xbcbc1a54	-0.022961773
98	0x3cdd142d	0.02698716
99	0xbce4b8e8	-0.027920201
100	0x3dcdf2dd	0.10056088
101	0x3dc8a9e7	0.09798031
102	0x3dc15e45	0.094418086
103	0xbcd20f94	-0.025642194
104	0xbd04203e	-0.03225731
105	0x3dad2037	0.0845341
106	0x3d95ad8c	0.07308492
107	0x3e0a6d56	0.13518271
108	0x3d656966	0.05600872
109	0x3ceb4290	0.028718263
110	0xbbb8f2d6	-0.0056441827
111	0x3e0783eb	0.13233916
112	0x3db88bb5	0.09011022
113	0xbd9d7131	-0.07687605
114	0xbcce5d0e	-0.025190856
115	0xbd43ce79	-0.04780433
116	0xbd8414c6	-0.06449275
117	0x3d5c1ca2	0.053738244
118	0xbd827a99	-0.0637104
119	0x3da3fb1a	0.08006878
120	0x3e03667a	0.1283206
121	0xbcfb0c20	-0.03064543
122	0x3d479eac	0.048735306
123	0x3d43cfba	0.047805525
124	0x3d7d20c9	0.061798844
125	0x3e018d42	0.12651542
126	0x3dcff0e1	0.10153366
127	0x3e058516	0.1303905
128	0x3c807faa	0.015685875
129	0xbb8a24f2	-0.00421583
130	0xbd5250cf	-0.051346596
131	0xbd1e4178	-0.038636655
132	0xbd487ec5	-0.04894902
133	0xbcc54753	-0.024081862
134	0xbbe728f9	-0.007054445
135	0x3dadb61e	0.08482002
136	0xbcfb46e5	-0.030673454
137	0xbcea6af3	-0.02861545
138	0x3bc97eb1	0.006149136
139	0x3db6ae1a	0.08919926
140	0xbdd54cef	-0.104150645
141	0x3d896c4c	0.06710109
142	0x3cf17996	0.029476922
143	0xbd865c33	-0.06560554
144	0xbd60e306	-0.054904006
145	0x3dbc339d	0.09189532
146	0xbd3268b3	-0.04355688
147	0x3da89885	0.08232216
148	0xba755a95	-0.0009359506
149	0xbc121a8a	-0.00891746
150	0xbd4ce87a	-0.050026394
151	0x3d8d8476	0.069100305
152	0x3db86edb	0.09005519
153	0x3db77732	0.089582816
154	0xbca1e642	-0.019763116
155	0x3d43921b	0.04774676
156	0xbdc6fa0b	-0.09715661
157	0x3ca218ce	0.019787218
158	0xbdcfdc62	-0.101494566
159	0x3d686eb4	0.0567462
160	0xbdfe25b3	-0.12409534
161	0x3b2fc863	0.002682232
162	0x3d99467a	0.074841455
163	0xbe090bce	-0.1338341
164	0x3d9bb954	0.07603708
165	0x3dcc9cfc	0.0999088
166	0x3d728ae1	0.059214476
167	0xbd7b54a0	-0.06136
168	0x3dcf1709	0.101118155
169	0xbd7ca15a	-0.061677314
170	0x3df4035b	0.119147025
171	0x3d09d913	0.033654284
172	0xbc827617	-0.01592545
173	0x3cd5751a	0.026056815
174	0xbdba7fad	-0.091063835
175	0xbcf3e2b6	-0.02977119
176	0x3c8e5958	0.017376587
177	0x3d217350	0.03941661
178	0x3b529d9a	0.0032137395
179	0x3da2f620	0.07957101
180	0xbe01e503	-0.12685017
181	0xbd9deee5	-0.07711581
182	0x3c1b67c9	0.0094851935
183	0x3df5b03e	0.11996506
184	0x3ccad2b6	0.024758678
185	0x3d2358cc	0.039879605
186	0xbdcc6e23	-0.099819444
187	0x3d4b8186	0.04968407
188	0x3d063031	0.032760803
189	0xbc143b8d	-0.009047401
190	0x3da7c634	0.08192101
191	0xbd5f42ac	-0.054506943
192	0x3d97fa9e	0.07420848
193	0x3d8eb502	0.06968118
194	0x3c0fd2af	0.008778258
195	0xbd794cb6	-0.060864173
196	0xbd2722d7	-0.04080471
197	0x3e16be19	0.14720954
198	0xbba2cae3	-0.0049680336
199	0x3e2a5106	0.1663247
200	0xbd8bb1ff	-0.068210594
201	0x3daa4f6a	0.08315928
202	0x3e0c41a7	0.1369692
203	0x3e38e65a	0.18056622
204	0xbd295d49	-0.04134873
205	0x3c7a8993	0.015291589
206	0x3d94a5ba	0.07258172
207	0xbda47301	-0.08029748
208	0x3d34c95c	0.044137344
209	0x3c733656	0.014844498
210	0xbd58a5a3	-0.05289234
211	0x3d03dc73	0.03219266
212	0xbd765f9c	-0.060149774
213	0x3e05b0bb	0.13055699
214	0x3d53e8e9	0.051735792
215	0x3e2421da	0.16028538
216	0x3dbeddb7	0.093196325
217	0x3d7972a7	0.060900357
218	0x3c9fb018	0.019493148
219	0xbd8240b7	-0.063599996
220	0xbc8d3dfc	-0.01724147
221	0x3e0053a5	0.12531908
222	0xbd9e9988	-0.077441275
223	0xbd438909	-0.04773811
224	0x3c7f6181	0.015587212
225	0x3da9458d	0.08265219
226	0x3d8c9cae	0.06865822
227	0x3dac072b	0.08399805
228	0xbc9d056c	-0.019167624
229	0xbd08c313	-0.033389162
230	0x3de23cb8	0.110467374
231	0x3d3e091c	0.046395406
232	0x3e031a0e	0.12802908
233	0x3d839904	0.0642567
234	0x3ba8411a	0.005134714
235	0x3e04de93	0.1297553
236	0x3df15f2c	0.11785731
237	0x3d800e9c	0.062527865
238	0x3da0e33f	0.07855844
239	0x3e2c00b1	0.16797139
240	0x3c983f7d	0.018584961
241	0x3d41299b	0.04715882
242	0xbd9bd953	-0.07609811
243	0x3cfea0fd	0.031082625
244	0x3d94f66f	0.07273566
245	0x3dc3f4de	0.09568189
246	0x3cfa4426	0.030550074
247	0x3ca57d1b	0.020201256
248	0x3e0db5e1	0.13838913
249	0xbcf52ac0	-0.029927611
250	0x3e29f3d5	0.16596921
251	0xbd1040aa	-0.03521792
252	0x3d953bbd	0.07286785
253	0x3e0fb01e	0.14032027
254	0x3dfa11f0	0.122104526
255	0xbdb0b53f	-0.0862832

lstm.weight_ih_l1 f4 [256, 64]
0	0x3d94d0a1	0.07266355
1	0xbdcb89e4	-0.0993841
2	0xbd5ef142	-0.0544293
3	0xbd9812be	-0.0742545
4	0xbd97daff	-0.07414817
5	0xbe0146c8	-0.12624657
6	0xbd79105d	-0.06080662
7	0x3e05eff8	0.13079822
8	0xbe198042	-0.14990333
9	0xbdc9aba4	-0.09847191
10	0x3d7d44d6	0.061833225
11	0xbdb08c0b	-0.08620461
12	0x3d842526	0.06452398
13	0xbd7ceb2f	-0.061747726
14	0x3dcc2991	0.09968866
15	0xbc9a0fa5	-0.018806288
16	0x3d43b822	0.047783025
17	0x3cf3c687	0.029757751
18	0x3e02b5d7	0.12764679
19	0x3da38635	0.07984582
20	0x3ce4ea4e	0.027943756
21	0xbd93d449	-0.072182246
22	0xbd46d6c5	-0.048544664
23	0x3d8560d1	0.06512607
24	0xbde17600	-0.11008835
25	0x3d79eb94	0.06101568
26	0x3cf62f54	0.030051865
27	0xbd1bbdef	-0.03802293
28	0xbe00b7a8	-0.1257006
29	0x3d7ae4df	0.061253425
30	0xbc93277b	-0.017963162
31	0x3ddeed68	0.108851254
32	0x3d4d0d72	0.05006165
33	0x3d22de8e	0.039763026
34	0xbd81f24a	-0.06345041
35	0xbd732335	-0.059359748
36	0x3dda8cc4	0.1067138
37	0xbe01a50e	-0.1266062
38	0x3d7827c8	0.060584813
39	0x3d90b65a	0.07066031
40	0x3d219292	0.03944642
41	0xbb5bd484	-0.0033543417
42	0xbdb87622	-0.09006907
43	0x3e072082	0.13195994
44	0x3dc8e97e	0.0981016
45	0x3cf6f8c9	0.030147927
46	0xbd50c77b	-0.05097149
47	0xbd600d3c	-0.05470012
48	0xbd9b3879	-0.07579131
49	0xbd1c7926	-0.038201474
50	0xbafc0574	-0.0019227699
51	0xbdad15ef	-0.08451449
52	0xbd7042ec	-0.05865757
53	0x3d81fbf6	0.06346886
54	0x3db2d465	0.08731917
55	0xbca5ce97	-0.020240111
56	0x3d80c9f0	0.062885165
57	0x3d92a468	0.07160264
58	0xbdef8c20	-0.116966486
59	0xbde71849	-0.11283929
60	0xbd418ca3	-0.047253262
61	0x3c9e9eca	0.019362826
62	0x3db77055	0.089569725
63	0x399099ed	0.00027580504
64	0x3d981f82	0.07427885
65	0x3d2ae644	0.041723505
66	0x3db21fbb	0.08697458
67	0xbde95d2d	-0.11394725
68	0xbe04a656	-0.12954077
69	0xbe113b35	-0.14182742
70	0xbdc28215	-0.094974674
71	0xbd24c7be	-0.04022955
72	0xbd8e207b	-0.06939789
73	0x3d4a04db	0.049321037
74	0x3d62aff5	0.055343587
75	0x3da5470d	0.080701925
76	0x3d6ddec4	0.058073774
77	0x3d65b8b7	0.05608436
78	0xbdac8d18	-0.08425349
79	0x3d4c88ab	0.049935024
80	0xbda771dc	-0.08176014
81	0xbd47a474	-0.04874082
82	0x3dad8465	0.08472518
83	0xbd86d087	-0.06582742
84	0xbd7f8f95	-0.06239279
85	0x3d8c3d1d	0.06847594
86	0xbd5a498c	-0.053292796
87	0x3dc09a10	0.09404385
88	0xbc029b1f	-0.007971554
89	0x3e1428bf	0.14468668
90	0xbe0790a9	-0.13238777
91	0x3d6c2a3e	0.057657473
92	0x3db3686f	0.087601535
93	0x3e106a59	0.14103068
94	0x3c5ecb0e	0.013598217
95	0x3dd89c28	0.105766594
96	0x3d9aa02f	0.07550084
97	0x3b9c25dd	0.004765256
98	0x3e18ad38	0.14909828
99	0x3d862c51	0.065514214
100	0xbdb21e52	-0.086971894
101	0xbdce34ab	-0.10068639
102	0x3e0c64f8	0.13710392
103	0x3c8a644a	0.016893525
104	0x3e07a4b9	0.1324643
105	0xbd08c289	-0.03338865
106	0x3c5caa50	0.01346834
107	0xbde5e829	-0.11225922
108	0x3bf7f280	0.00756675
109	0x3da31685	0.0796328
110	0x3dd6de20	0.10491586
111	0x3d98b254	0.074558884
112	0x3c7c1139	0.015384966
113	0xbc966d9a	-0.018362809
114	0xbd93909c	-0.072053164
115	0x3da7fcba	0.08202501
116	0xbdd4df0e	-0.10394107
117	0xbdb10440	-0.08643389
118	0x3c824e18	0.015906379
119	0xbd87ea87	-0.066365294
120	0x3d4867cd	0.048927117
121	0x3d89f8e5	0.06736926
122	0x3d8d4b52	0.06899132
123	0x3c873b18	0.01650767
124	0xbd9dbb60	-0.077017546
125	0x3d9ae193	0.07562556
126	0x3d928048	0.07153374
127	0xbd810069	-0.06298906
128	0x3e09f24d	0.13471337
129	0x3d02b878	0.031914204
130	0xbe1060f6	-0.14099488
131	0x3c31b980	0.010847449
132	0xbcdfe226	-0.027329516
133	0xbe1a9188	-0.15094578
134	0x3d8fc1df	0.070194
135	0xbd559cb2	-0.05215139
136	0xbd93c111	-0.07214559
137	0xbdd443ae	-0.103644714
138	0xbdc8720c	-0.09787378
139	0x3da01fd9	0.078185745
140	0xbd7dbab9	-0.06194565
141	0xbc5037ad	-0.012708587
142	0xbdf4f53c	-0.11960837
143	0xbd6c2342	-0.057650812
144	0xbe0959bb	-0.13413136
145	0xbdae17a2	-0.08500601
146	0xbdb2d0bc	-0.08731219
147	0xbdc775e8	-0.09739286
148	0xbcd0cd3f	-0.025488494
149	0xbdbdacb5	-0.09261457
150	0xbb8bf920	-0.0042716414
151	0xbd771eb0	-0.060332
152	0xbd1dc116	-0.03851422
153	0x3d3c7570	0.046010435
154	0xbd8352fc	-0.064123124
155	0x3da2d233	0.079502486
156	0xbd8576f5	-0.0651683
157	0xbd1e1ba9	-0.038600598
158	0xbdaf1d9b	-0.08550569
159	0x3b57f3f8	0.0032951813
160	0xbd3362e3	-0.043795478
161	0xbb0bbb28	-0.002132127
162	0x3d01f935	0.031731803
163	0x3db5df2c	0.08880457
164	0xbd20c49a	-0.039249994
165	0xbd45a198	-0.04824981
166	0xbd8a1b6f	-0.06743514
167	0xbc224fdd	-0.009906736
168	0x3d219965	0.03945293
169	0xbdde9a0a	-0.10869224
170	0xbc07a972	-0.008280145
171	0x3d584849	0.05280331
172	0x3d8bac31	0.06819952
173	0xbd0ef7c9	-0.034904275
174	0x3e06d810	0.13168359
175	0xbe14fce8	-0.14549601
176	0x3d728abb	0.059214335
177	0x3cf867f9	0.030323016
178	0x3c8319c7	0.016003503
179	0xbdaae1a1	-0.083438165
180	0x3da482b7	0.080327444
181	0x3d4ebbd4	0.050472096
182	0xbe07cac5	-0.13260944
183	0xbd00f325	-0.03148188
184	0xbe04acd5	-0.12956555
185	0xbcc66a6c	-0.024220668
186	0xbd8757de	-0.06608556
187	0x3be42108	0.0069619454
188	0x3d7181ff	0.058961865
189	0x3d9286da	0.07154627
190	0xbd391ba4	-0.045192376
191	0x3d8ad01e	0.067779765
192	0xbd8b2699	-0.06794471
193	0xbcb8b169	-0.022545533
194	0x3d24943e	0.040180437
195	0xbe02c125	-0.12768991
196	0xbddfb60d	-0.10923395
197	0xbde3bdd8	-0.11120194
198	0xbd70ca72	-0.058786817
199	0xbd846dc7	-0.06466251
200	0xbda2fee2	-0.07958771
201	0xbe0b74ca	-0.1361877
202	0x3e1a655f	0.15077733
203	0x3de0a5e2	0.1096914
204	0x3e2f5c7f	0.17125128
205	0x3d4723e9	0.04861823
206	0xbdb5d6d7	-0.08878868
207	0xbe350884	-0.1767903
208	0xbc51a617	-0.012795947
209	0xbd8ff853	-0.07029786
210	0x3d96789d	0.07347224
211	0x3e1bccd0	0.15214849
212	0xbddedf8d	-0.10882483
213	0xbcb57363	-0.022149747
214	0x3d463db6	0.048398696
215	0xbd9729a1	-0.07380987
216	0x3d65fe79	0.056150887
217	0x3d59b469	0.05315057
218	0xbc0c43bd	-0.008561072
219	0x3af270f1	0.0018496794
220	0xbdeb9e6d	-0.11504827
221	0xbd73cec8	-0.059523374
222	0x3d9bde33	0.076107405
223	0xbd4fcd4b	-0.050732892
224	0xbe284cb5	-0.16435511
225	0xbe0ccfd3	-0.13751154
226	0x3cc30245	0.023804793
227	0xbd295bc6	-0.041347288
228	0x3d7b5bb0	0.061366737
229	0xbdf17e89	-0.11791713
230	0xbd6325b0	-0.055455863
231	0xbdbc2f2c	-0.09188685
232	0xbd87360a	-0.06602104
233	0x3b0ba3a4	0.0021307254
234	0x3dd4be28	0.10387832
235	0x3db6ed98	0.08932036
236	0x3d7ce4f6	0.06174179
237	0x3d67d26b	0.056597155
238	0xbd9873b1	-0.074439414
239	0x3cc3af4f	0.023887305
240	0x3d74157b	0.059590798
241	0x3d9ad32b	0.07559808
242	0x3cdeab54	0.027181305
243	0xbd5686e3	-0.05237473
244	0xbd025181	-0.03181601
245	0xbd5fa84f	-0.05460387
246	0xbc938a17	-0.018010182
247	0x3c93ccca	0.018041987
248	0xbe13fa0c	-0.14450854
249	0xbdf25d5c	-0.11834213
250	0xbdf015c0	-0.117228985
251	0x3ba8ec93	0.005155155
252	0x3d89b4ec	0.06723961
253	0x3e136607	0.14394389
254	0x3b3601f2	0.0027772156
255	0x3d45149b	0.048115354

lstm.weight_hh_l1 f4 [256, 64]
0	0x3d3e81c8	0.046510488
1	0xbb3ab512	-0.0028489274
2	0xbe0744e9	-0.13209881
3	0x3dd5b507	0.10434919
4	0x3defb517	0.11704462
5	0x3c63a162	0.013893457
6	0xbd2e4a99	-0.04255161
7	0xbd444058	-0.047912925
8	0x3dc95e3c	0.09832427
9	0x3cccd6c2	0.025004748
10	0x3de33dfb	0.11095806
11	0xbd904bb7	-0.070456915
12	0xbca68f0e	-0.020331886
13	0xbd9dfc27	-0.0771411
14	0x3caa3fef	0.020782439
15	0x3bb7a4b1	0.0056043495
16	0x3dd32031	0.103088744
17	0xbddc8bce	-0.10768853
18	0x3c9d580c	0.019207023
19	0x3c9c7165	0.01909704
20	0xbd7b746c	-0.061390325
21	0x3cdb601e	0.02677923
22	0x3de23a04	0.11046222
23	0xbd88e9fc	-0.06685254
24	0x3d5a3807	0.053276088
25	0xbd58dc9b	-0.05294476
26	0xbdad0d64	-0.0844982
27	0xbc8c1a53	-0.017102396
28	0x3d7a9ec6	0.061186574
29	0xbcbc1466	-0.022958945
30	0xbdd432e6	-0.103612706
31	0x3d3fb54e	0.046803765
32	0x3b6075f3	0.003424999
33	0x3dd17b95	0.102286495
34	0xbe039422	-0.12849477
35	0xbcbc9469	-0.023019986
36	0x3ceac760	0.028659523
37	0xbd6b5c3c	-0.05746101
38	0x3d15194c	0.036401078
39	0xbce365e5	-0.027758548
40	0xbd9fdb65	-0.07805518
41	0xbd856d34	-0.065149695
42	0xbd8a20dc	-0.06744549
43	0x3d73e590	0.0595451
44	0xbc968704	-0.018374927
45	0xbdc36a01	-0.09541703
46	0xba1d40c3	-0.0005998725
47	0x3df21f31	0.118223555
48	0xbd36a226	-0.04458823
49	0xbd0732fb	-0.033007603
50	0x3dac8068	0.08422929
51	0x3d30c2e2	0.043154605
52	0xbbd796a1	-0.0065792357
53	0x3df16d6b	0.11788448
54	0xbd295b75	-0.041346986
55	0x3d41090f	0.04712778
56	0xbd9f5da7	-0.07781535
57	0xbd5f1a09	-0.05446819
58	0x3cbd70ec	0.023125134
59	0xbd7c9ca8	-0.061672837
60	0xbd3ec04a	-0.0465701
61	0x3d26a7a0	0.040687203
62	0xbd40e349	-0.047091756
63	0xbd09e9fd	-0.033670414
64	0xbd44e72b	-0.04807202
65	0x3cfb7bb3	0.030698633
66	0x3b8bcb92	0.004266211
67	0x392316bd	0.00015553362
68	0x3db2d503	0.08732035
69	0xbd1a7856	-0.037712418
70	0xbdac2d77	-0.08407109
71	0xbcf9f0f6	-0.030510407
72	0x3d39ea63	0.045389544
73	0x3e333e6c	0.17504281
74	0x3db87ee9	0.09008581
75	0x3d7bdbf8	0.061489075
76	0x3d8162c4	0.06317666
77	0x3e2eed39	0.17082681
78	0x3d079a2d	0.033106018
79	0x3d3978bf	0.045281168
80	0xbd8c1ac9	-0.06841046
81	0xbd42a76d	-0.04752295
82	0xbd8241d3	-0.06360211
83	0x3de3cc33	0.11122932
84	0xbd7e4562	-0.062077887
85	0x3d8e8a07	0.069599204
86	0x3ba5ab75	0.0050558397
87	0x3da13e42	0.07873203
88	0x3be35578	0.006937679
89	0x3e18d458	0.14924753
90	0xbca300fa	-0.019897927
91	0xbdf81da9	-0.12115032
92	0xbd1d223c	-0.038362727
93	0xbe083dbc	-0.133048
94	0x3d7157e3	0.058921706
95	0x3dc80512	0.09766592
96	0x3d99b32c	0.075048774
97	0xbc948cd5	-0.01813356
98	0xbdf256ef	-0.118329875
99	0x3d04f304	0.03245832
100	0xbd3bb5fe	-0.04582786
101	0xbd7193b6	-0.05897876
102	0x3d9a737d	0.07541559
103	0x3b329ef6	0.0027255393
104	0x3e100759	0.14065303
105	0x3e17821f	0.14795731
106	0xbcf4a272	-0.029862616
107	0xbe19123f	-0.14948367
108	0x3d7cc315	0.061709482
109	0x3cb988bc	0.022648208
110	0xbd564e85	-0.052320976
111	0x3d94b0b8	0.07260269
112	0xbe0ed3b6	-0.13947949
113	0x3d160666	0.036627196
114	0x3de61cfb	0.11235996
115	0xbda2157f	-0.07914256
116	0x3e215d79	0.15758313
117	0xbb111602	-0.0022138362
118	0xbc319555	-0.010838826
119	0xbd5e3f3f	-0.054259535
120	0x3db9d7ee	0.090743884
121	0xbd4abdb8	-0.049497336
122	0xbd6af899	-0.057365987
123	0xbd90debd	-0.07073734
124	0xbd19f70c	-0.037589118
125	0x3dac7c7e	0.084221825
126	0xbc610c5f	-0.01373586
127	0xbcce4cbe	-0.025183078
128	0xbd8af524	-0.06785038
129	0xbde7495c	-0.11293289
130	0x3dcc8788	0.09986788
131	0x3d463a44	0.04839541
132	0xbd177dd3	-0.03698523
133	0x3cb4f80a	0.02209093
134	0xbc88bcaf	-0.016691534
135	0xbdcd93b5	-0.100379385
136	0x3d343a88	0.044001132
137	0x3df092c2	0.11746742
138	0x3ddfc0d3	0.1092545
139	0xbd6715a0	-0.056417108
140	0xbd7c2841	-0.061561827
141	0x3e07a8e0	0.13248014
142	0x3dc501d1	0.09619487
143	0xbda42946	-0.08015685
144	0x3d9df0a0	0.07711911
145	0xbc2edcf7	-0.010672799
146	0xbe07d355	-0.1326421
147	0x3dfa2720	0.12214494
148	0x3d3a32c1	0.04545856
149	0x3d376116	0.044770323
150	0x3dfd01d5	0.12353865
151	0xbddd34d5	-0.108010925
152	0xbd7a2933	-0.061074447
153	0x3d58c546	0.05292251
154	0xbc5b4d64	-0.013385151
155	0xbdfb3659	-0.12266225
156	0x3d8a3d9c	0.06750032
157	0x3d9cd660	0.07658076
158	0xbc35a063	-0.011085602
159	0xbd1f2c0e	-0.038860373
160	0xbc700708	-0.014650114
161	0xbdd5ac96	-0.10433309
162	0x3d2e53e2	0.042560466
163	0xbe115016	-0.14190707
164	0x3d4d5f0f	0.050139483
165	0x3da862bc	0.08221957
166	0x3da541c3	0.08069184
167	0xbdd84177	-0.105593614
168	0x3d5080b7	0.050904002
169	0xbcf3d2d9	-0.029763626
170	0xbe0e683c	-0.1390695
171	0xbd124d6b	-0.035718363
172	0x3cc5335f	0.024072347
173	0x3caf543f	0.021402476
174	0xbd72dc04	-0.059291855
175	0x3b7319e1	0.0037094282
176	0x3d1533e8	0.036426455
177	0xbd463cbe	-0.048397772
178	0xbdda73e5	-0.106666364
179	0xbd48939a	-0.04896889
180	0x3dc382cb	0.09546431
181	0x3cf2f264	0.029656596
182	0x3d2400fc	0.04004
183	0xbc78d58d	-0.015187633
184	0x3dd5a994	0.10432735
185	0x3d84d72e	0.06486355
186	0xbbe93d75	-0.007117922
187	0x3e102767	0.14077531
188	0xbc53b15f	-0.0129207065
189	0x3d717eb8	0.05895874
190	0x3c9d3c6d	0.019193852
191	0xbdd6b295	-0.104832806
192	0xbe1aac20	-0.15104723
193	0xbe18befc	-0.14916605
194	0xbdaa0539	-0.083017774
195	0x3e12b1b5	0.14325602
196	0x3dfe4468	0.12415391
197	0x3d143216	0.03618058
198	0x3d7e6d05	0.062115688
199	0xbd3ef51d	-0.046620477
200	0xbc93c19e	-0.01803666
201	0x3dd0146b	0.101601444
202	0x3e221106	0.15826806
203	0xbe31fc38	-0.1738137
204	0xbd925fd7	-0.07147186
205	0x3dcc9b3e	0.099905476
206	0x3cd6fb90	0.026243001
207	0x3cffaecd	0.031211281
208	0x3e157469	0.14595188
209	0xbd8eec4a	-0.06978662
210	0xbd92ace3	-0.07161882
211	0x3d8434ae	0.0645536
212	0x3df835b6	0.121196195
213	0x3d077316	0.03306874
214	0x3d91294a	0.070879534
215	0xbdc367f0	-0.09541309
216	0x3e263ba4	0.16233689
217	0x3c6e024c	0.014526915
218	0x3e05a39b	0.13050692
219	0xbe179e6e	-0.1480653
220	0x3d4ada82	0.04952479
221	0x3df0474b	0.11732348
222	0xbcc9c2ec	-0.024629079
223	0x3e0ef16e	0.13959286
224	0x3e1debbb	0.15421955
225	0x3bd9cd4d	0.006646788
226	0x3c5f71cc	0.013637971
227	0x3d516ff8	0.051132172
228	0x3e055247	0.13019668
229	0xbe249770	-0.16073394
230	0xbc9039fd	-0.017605776
231	0xbd75a274	-0.05996938
232	0x3def1d98	0.116755664
233	0x3dc159ae	0.09440933
234	0xbd33b7f2	-0.043876596
235	0xbdf908ba	-0.121598676
236	0xbcb81905	-0.022472868
237	0xbd6af123	-0.057358872
238	0xbdb07632	-0.08616294
239	0x3e1446c4	0.1448012
240	0x3d9ec9bc	0.077533215
241	0xbd777761	-0.060416583
242	0x3e16e6cf	0.14736484
243	0xbdefcf98	-0.11709517
244	0x3d8cefd0	0.06881678
245	0xbe0ffa1d	-0.14060254
246	0xbd2006e9	-0.03906909
247	0x3dfd523d	0.12369201
248	0x3dae974b	0.085249506
249	0x3d2bb0dd	0.041916717
250	0x3e0084f3	0.12550716
251	0x3d171c1f	0.036892053
252	0x3e021fbd	0.1270742
253	0x3df16d32	0.117884055
254	0x3d6cd8e4	0.05782403
255	0x3d5027f0	0.050819337

lstm.bias_ih_l1 f4 [256]
0	0xbd98a63b	-0.07453581
1	0x3dee8c13	0.11647811
2	0x3d4fa93b	0.0506985
3	0xbd514576	-0.051091634
4	0x3e2ec646	0.17067823
5	0x3d22a5b9	0.039708827
6	0xbdccd1b3	-0.100009345
7	0x3e681349	0.22663607
8	0xbd56b943	-0.052422773
9	0x3e04fbc0	0.1298666
10	0x3e84ad13	0.25913295
11	0x3c0808e4	0.008302901
12	0x3d93b14d	0.07211552
13	0x3d6fdb4d	0.05855875
14	0x3dfb5d2c	0.122736305
15	0x3d795f6a	0.06088201
16	0x3daea3ca	0.08527334
17	0xbd4cb3fb	-0.04997633
18	0xbd9ae617	-0.075634174
19	0x3df33aac	0.11876425
20	0xbc495fee	-0.012290938
21	0xbaeb45ed	-0.0017949917
22	0xbd374f45	-0.04475333
23	0xbdaa2eb7	-0.083096914
24	0x3c1716ad	0.009221715
25	0x3db82120	0.08990693
26	0x3dd8c4dc	0.10584423
27	0x3db9b815	0.09068314
28	0x3d6161ce	0.055024914
29	0xbc80321f	-0.0156489
30	0x3e27dcb0	0.1639278
31	0x3d4aa8ae	0.04947727
32	0x3d70c4ca	0.058781423
33	0x3e12d923	0.14340644
34	0xbdb230f2	-0.08700742
35	0x3e0cb16f	0.1373956
36	0x3e2b933e	0.16755387
37	0xbd2bc03a	-0.04193137
38	0x3d705ef8	0.05868432
39	0x3d57efb3	0.05271883
40	0x3deba3c9	0.11505849
41	0x3e439285	0.19098862
42	0xbd9b1459	-0.075722404
43	0x3d38036c	0.04492514
44	0xbc7ba02c	-0.015358012
45	0xbdca8bb2	-0.09889926
46	0xbd6e6b91	-0.058208052
47	0xbd8b0e07	-0.06789785
48	0x3de66e42	0.11251499
49	0xbd4bf4af	-0.049793895
50	0x3debf309	0.11520965
51	0xbcb39fe5	-0.02192683
52	0x3dafac0a	0.08577736
53	0xbd48639f	-0.04892313
54	0x3dbcdccb	0.092218004
55	0x3de8d4a3	0.11368682
56	0x3d4bb0f2	0.049729295
57	0xbd264e10	-0.04060179
58	0x3de1de2c	0.11028704
59	0x3df0463f	0.117321484
60	0x3d95b9c5	0.07310823
61	0x3c33948a	0.010960707
62	0xbd80c4b1	-0.06287516
63	0xbdab32d8	-0.08359307
64	0x3da74589	0.0816756
65	0x3dd39f39	0.10333104
66	0xbd35c6c5	-0.044379015
67	0xbde21f69	-0.11041147
68	0x3d17a18b	0.037019294
69	0xbd1ed4a3	-0.038777005
70	0x3c0e212c	0.008674901
71	0x3d85226f	0.06500708
72	0xbc00c9ae	-0.007860584
73	0xbd8e5191	-0.06949151
74	0x3e047581	0.12935449
75	0x3d3f145e	0.046650283
76	0xbd194e4b	-0.03742818
77	0xbd6c1813	-0.057640146
78	0x3d78e077	0.06076094
79	0x3c92571e	0.017863806
80	0x3d74de1a	0.059782125
81	0xbd8feb5a	-0.070273116
82	0xbc2b3a95	-0.010450979
83	0xbd815dfe	-0.06316756
84	0xbb5d59ec	-0.0033775521
85	0x3df92c7f	0.1216669
86	0x3d79239f	0.060824987
87	0xbb955513	-0.004557261
88	0x3ddf5c0f	0.10906231
89	0xbd359cc5	-0.04433896
90	0x3d84918c	0.06473073
91	0xba8fea11	-0.0010979791
92	0xbd864227	-0.06555586
93	0xbcbe61d3	-0.023240006
94	0xbd83cc5c	-0.06435463
95	0xbd172040	-0.03689599
96	0x3d78a12f	0.06070059
97	0xbd0a37d8	-0.033744663
98	0xbb325cd6	-0.002721598
99	0x3d14d679	0.03633735
100	0xbdab7123	-0.083711885
101	0x3c1883db	0.009308781
102	0x3c16abb9	0.009196215
103	0xbcdbd61e	-0.026835497
104	0xbd547194	-0.05186613
105	0x3e07fe17	0.13280521
106	0x3dc2cfac	0.095122665
107	0xbbdf2d2d	-0.0068108053
108	0x3dea3bdf	0.11437201
109	0xbd47c78b	-0.048774283
110	0x3debea06	0.11519246
111	0xbd7a4076	-0.06109663
112	0xbd09e231	-0.03366298
113	0x3e116d93	0.14201955
114	0x3d4bbe8d	0.04974227
115	0x3e148b49	0.14506258
116	0x3dc2d25a	0.095127776
117	0xbd5d08de	-0.053963535
118	0x3da6d1d9	0.08145494
119	0x3c6a92fb	0.014317269
120	0xbdd569a7	-0.10420542
121	0xbd02d9d8	-0.031946033
122	0x3dc6968d	0.09696684
123	0x3ab4607f	0.0013761668
124	0xbd686499	-0.056736562
125	0x3c9bd889	0.01902415
126	0xbbf0f21e	-0.0073530814
127	0x3d2d52b5	0.042315204
128	0x3c95adf1	0.018271418
129	0x3d705766	0.0586771
130	0xbd1a2bfb	-0.0376396
131	0xbba389bc	-0.0049907845
132	0x3dbedb1d	0.09319136
133	0x3ce9d1c5	0.028542409
134	0xbcfce415	-0.030870477
135	0x3dead4f2	0.11466397
136	0xbd0bd260	-0.034136176
137	0x3db349bf	0.087543
138	0xbcccd88e	-0.025005605
139	0xbdfa1b07	-0.12212186
140	0xbdee26e1	-0.11628509
141	0xbd79090f	-0.060799655
142	0x3d1994e8	0.037495524
143	0xbccf5bd4	-0.025312342
144	0x3dac432b	0.08411249
145	0xbdec3bb6	-0.115348265
146	0xbd25dbdc	-0.040492877
147	0xbdaa4db8	-0.08315605
148	0xbd8eec6d	-0.069786884
149	0xbdbbffa6	-0.091796204
150	0x3df88397	0.12134474
151	0x3d9dee17	0.07711428
152	0x3e01a531	0.12660672
153	0x3dac196c	0.08403286
154	0x3cd49417	0.025949521
155	0xbc9556f3	-0.018229937
156	0xbd8d8098	-0.06909293
157	0xbdca55d7	-0.09879654
158	0x3ca56739	0.020190822
159	0x3da26c4b	0.079308115
160	0x3de9cf2e	0.114164695
161	0x3c931934	0.017956354
162	0xbc087d68	-0.00833068
163	0xbdd25807	-0.10270696
164	0x3c978f39	0.018500911
165	0x3d538b5f	0.051646587
166	0x3dc0fc9d	0.09423182
167	0xbde3c418	-0.11121386
168	0x3d6fdcff	0.058560368
169	0x3d85e1d3	0.06537213
170	0xbb053f08	-0.002033176
171	0x3d3d105a	0.046158172
172	0xbd26bc8f	-0.040707167
173	0xbdf6e07e	-0.12054537
174	0xbd2c4017	-0.04205331
175	0x3d98943c	0.074501485
176	0x3dfcf0eb	0.12350639
177	0x3cb6ee2a	0.022330362
178	0x3d510869	0.05103341
179	0x3d0d1c23	0.03445066
180	0xbcc34c49	-0.023840087
181	0x3c116470	0.008874044
182	0xbde2f010	-0.110809445
183	0xbd6b2a44	-0.057413355
184	0xbc7a6055	-0.015281756
185	0x3d6e89bc	0.058236822
186	0x3d855a98	0.0651142
187	0x3dafa6de	0.08576749
188	0xbc9aa3c6	-0.018876921
189	0x3d301393	0.042987417
190	0x3cd86d4a	0.0264193
191	0xbdb3b75b	-0.08775207
192	0x3e032b58	0.12809503
193	0x3c69c729	0.014268675
194	0x3d003b8e	0.031306796
195	0x3e2dcaca	0.16971889
196	0x3dc05dfb	0.09392925
197	0xbd7cf15f	-0.061753627
198	0x3dea15a1	0.11429907
199	0xbd0fa442	-0.035068758
200	0xbbf733f0	-0.007544033
201	0x3da3e703	0.08003046
202	0x3e827465	0.25479427
203	0xba00c56c	-0.00049122307
204	0x3dbbea88	0.09175593
205	0xbd6d2420	-0.05789578
206	0x3e15b475	0.1461962
207	0x3e1ef72c	0.15523976
208	0xbdc11897	-0.09428518
209	0x3e035d00	0.12828445
210	0x3d6d2355	0.057895023
211	0x3c534ff0	0.012897477
212	0x3d1046ef	0.035223898
213	0xbd50570e	-0.05086427
214	0xbd5d7e27	-0.054075386
215	0xbdae75e9	-0.08518583
216	0xbcd4b509	-0.02596523
217	0x3e1ef669	0.15523686
218	0xbd1ef4f9	-0.038807843
219	0x3e42d2ca	0.19025722
220	0xbc981255	-0.018563429
221	0x3d53b936	0.051690303
222	0x3d6df6b4	0.058096603
223	0x3e095f3b	0.13415234
224	0x3e10b32c	0.14130849
225	0x3dad82a6	0.08472185
226	0xbcbd3b1b	-0.023099473
227	0xbd33c58b	-0.043889564
228	0xbb6b0599	-0.003586149
229	0xbbdd3d2d	-0.0067516775
230	0x3e0900cd	0.13379212
231	0x3e047bd9	0.12937869
232	0x3df87304	0.121313125
233	0x3d960462	0.07325055
234	0x3d78030f	0.060549792
235	0x3e1f78c9	0.1557342
236	0x3e1c719f	0.15277718
237	0x3d52c14f	0.051453885
238	0x3cb70797	0.022342486
239	0xbd021e7d	-0.031767357
240	0xbb4fd873	-0.0031714707
241	0x3e010686	0.12600145
242	0x3db653c4	0.08902696
243	0xbc8fa843	-0.017536288
244	0x3cf616a7	0.030040098
245	0x3d87e829	0.06636078
246	0x3da9fa36	0.08299677
247	0xbcbb4327	-0.02285917
248	0xbcd0a256	-0.025468033
249	0xbba7de58	-0.005122941
250	0xbd69684e	-0.05698424
251	0xbd3f1628	-0.04665199
252	0xbcc55af7	-0.024091227
253	0x3d3c940e	0.046039633
254	0x3e16be0b	0.14720933
255	0x3e009796	0.12557825
