model/save/v8.4_2022-09-03_00-05/model.pt (torch, 286107 bytes, 8 tensors)

lstm.weight_ih_l0 f4 [128, 512]
000000 c5 fc e7 bc 6a a9 7c bd 04 65 94 bd 1b 1d 03 3e
       -0.028318772 -0.061685003 -0.0724583 0.12804072
000010 42 03 cb 3d ca 7d 8f 3d 92 d1 a7 bd ca 03 06 3e
       0.09912731 0.07006414 -0.08194269 0.13087383
000020 af 2e 57 bc 51 1e 72 bd f6 12 ed bd 78 fb 04 3e
       -0.013133689 -0.059110943 -0.11575882 0.12986553
000030 56 f7 b2 3d 9b a3 96 bd 2f 17 eb bd 0f 91 53 3e
       0.08738582 -0.07355424 -0.11479031 0.20660804
000040 35 9b bf 3d 35 d2 37 be 5c 40 a1 bd 3f 6c fc bd
       0.09355775 -0.17951281 -0.07873604 -0.12325334
000050 e6 bb b8 3d 43 bc cb 3d 2a b9 12 3e c2 01 29 3e
       0.09020214 0.099480174 0.14328447 0.16504577
000060 e5 a7 27 be 3c 2f ec bd f9 28 08 3e c4 c3 65 bc
       -0.1637264 -0.11532447 0.1329688 -0.014023725
000070 79 cc d0 bd 03 67 cb 3d ed 34 06 bd ca 39 09 3e
       -0.1019525 0.09931757 -0.032765318 0.13400951
000080 54 c4 4d 3d e9 14 37 bd 46 b0 07 be cc 38 c2 3d
       0.05023606 -0.044697676 -0.13250837 0.094834894
000090 b9 2e d7 3b cf 87 2d be 5f 61 f4 bd cf 0c 81 bd
       0.006566849 -0.16946338 -0.119326346 -0.06301271
0000a0 06 b7 90 bd 13 ee bb bd 0c 7a 6c 3e dc b9 1e bd
       -0.07066159 -0.091762684 0.23093432 -0.038751468
0000b0 6b 6f 75 3d 10 66 53 3e 50 87 00 3d ab eb 48 bd
       0.05992071 0.20644403 0.031379044 -0.049052875
0000c0 30 22 37 3e c3 07 52 3d 07 17 b6 bb 7e 33 a3 3d
       0.17884135 0.051276933 -0.0055569443 0.07968806
0000d0 37 d6 87 bc d9 ab c8 bd fb 97 a8 3b 6a 79 40 3e
       -0.016581638 -0.09798402 0.0051450706 0.18796316
0000e0 ea 98 ed 3c 21 f1 0f bd 6d e7 52 3e ff ac 58 3e
       0.02900358 -0.035142068 0.20596094 0.21159743
0000f0 af 8d c5 bd 0c 08 04 be ad e2 fb 3c 20 95 98 be
       -0.096461646 -0.12893695 0.030747736 -0.29801273
000100 13 9f 4c 3e 75 eb b0 bd 1d 8f 6c 3e c1 3f f9 bd
       0.19982557 -0.0863866 0.23101468 -0.12170363
000110 d4 45 b9 bd 1a 24 4a 3e 75 49 94 3e fc cc 57 3e
       -0.09046522 0.19740334 0.28962293 0.21074289
000120 88 b3 71 3e 65 13 37 3c 71 09 f2 3d 0b 11 69 3d
       0.23603642 0.011174058 0.11818207 0.05690102
000130 34 c5 ca bd d0 94 34 3d eb 41 a3 bc 32 62 4f 3d
       -0.09900895 0.04408723 -0.019928893 0.050630756
000140 b2 dd 0f 3d 56 b7 c1 3d 9d 6c f7 bd ff 19 0d 3e
       0.035123535 0.09458797 -0.12081263 0.13779448
000150 5a 65 ee 3d 12 b3 3b 3d aa 07 72 3d 1a ff 45 bd
       0.11640425 0.04582507 0.05908934 -0.048338987
000160 a1 5b 15 3e 70 80 ca 3d 34 98 d1 bd 0b 7a 1a 3e
       0.14585735 0.09887779 -0.102341086 0.15085618
000170 7e de 97 3c 5f a9 93 bd bc cf 6c 3d 4a 6b 8d bd
       0.01853871 -0.07210039 0.0578153 -0.069052294
000180 1c 97 31 3d f2 b9 26 3e 37 f4 d9 3d 6e 1b 7a 39
       0.043357 0.1628187 0.106422834 0.00023852076
000190 c2 dd f3 3d f5 ab 14 3d c8 ee 09 3e d1 6d de 3d
       0.11907531 0.036296804 0.13469994 0.108607896
0001a0 7c e9 b5 bd 81 1a 88 3d 89 d5 99 be 05 ca 22 3c
       -0.08882424 0.0664568 -0.30045727 0.0099358605
0001b0 b8 1d 73 bd 78 19 95 3d 5b 7c dc 3c ee bd 1d bd
       -0.059354514 0.072802484 0.026914766 -0.03851121
0001c0 c0 45 65 bc 0b af 0a 3d 26 a0 11 be e0 ed 8a bc
       -0.0139936805 0.03385834 -0.14221248 -0.01695913
0001d0 ee 98 d3 3d cd 8e 77 3c 4a b2 1a bc 5d be d8 bd
       0.103319034 0.01510973 -0.0094419215 -0.10583184
0001e0 26 25 ef 3c 0b 3e d7 3c 4f 56 c5 bd 46 5a 06 be
       0.029192518 0.026274702 -0.09635603 -0.13120374
0001f0 2b 0e bd 3d ed 58 9b bd 88 77 7a 3d 85 d0 55 3e
       0.09231218 -0.075853206 0.06114915 0.20880325
000200 11 5b a7 bd 41 58 9e bd e5 aa 21 be 17 2d 7c 3c
       -0.081716664 -0.07731677 -0.15787847 0.01539161
000210 91 87 3d 3c 24 02 cd 3c cc a0 17 3e e1 36 7b 3d
       0.011567966 0.025025435 0.14807433 0.061331633
000220 12 4a 4a 3d ad 0e 9b bd 66 6c f3 bd 71 b7 1a 3e
       0.049387045 -0.075711586 -0.1188591 0.1510904
000230 d5 fb 8e 3e 17 7e a2 bc ce eb f0 3c e9 44 96 bd
       0.27926508 -0.019835515 0.029409315 -0.07337362
000240 84 4f b0 bd 34 6d a1 bd 34 1b 9e 3d 0e bf 19 bd
       -0.086089164 -0.07882157 0.07720032 -0.03753572
000250 92 ab 91 bd 9b a8 18 bc 3c 63 3c 3e 49 a2 ef bc
       -0.071128026 -0.009317542 0.1839723 -0.029252188
000260 0a 18 fa 3d a3 71 c8 bb 83 83 35 be 05 77 35 3e
       0.12211616 -0.006117062 -0.17725949 0.17721184
000270 76 84 a3 bc 36 c2 9a bc ff 7d 00 3c 39 4d 0a 3b
       -0.019960623 -0.018891435 0.00784254 0.0021103157
000280 03 3c a4 3d d8 4c 41 be 86 82 2e 3e f9 76 58 3e
       0.08019259 -0.1887697 0.17041978 0.21139134
000290 25 bf 02 be 8a 20 bc 3c e7 2c b3 bd c6 80 17 3d
       -0.12768228 0.022964735 -0.08748799 0.036988042
0002a0 5b f2 c1 3c 76 ee 61 3e 80 e9 af bd 59 b8 ea 3d
       0.023675134 0.22063622 -0.085894585 0.11460943
0002b0 73 2b ea 3b 57 3c 5c 3d be 00 cb bd fd 69 01 be
       0.007146293 0.053768482 -0.09912251 -0.12638088
0002c0 6f f2 7c 3c 62 82 b1 bd 3f 18 c4 3d 8c d8 fd bd
       0.01543866 -0.08667447 0.09574937 -0.12394819
0002d0 df 86 5d 3e 40 77 9e 3d d4 11 f5 bc 2a cc 48 bc
       0.2163348 0.07737589 -0.029915728 -0.012255708
0002e0 d9 2e 31 3c c5 42 77 3d f3 bf aa 3d 31 20 fb bd
       0.010814392 0.06036641 0.08337393 -0.122619994
0002f0 5c 7c ec bd 3c 9a c8 3d 6b d0 a2 bd 5a df 59 3d
       -0.11547157 0.09795043 -0.07949909 0.05319152
000300 66 b1 07 3e f6 d4 02 3e 19 f9 bf bd fe f6 c8 3d
       0.13251266 0.1277655 -0.093736835 0.09812735
000310 2f a7 a6 bd 36 70 33 3e eb 34 24 3c 15 bf 20 3e
       -0.081373565 0.17523274 0.010022382 0.15697892
000320 bd 4b b9 bd 2a 33 82 bd 86 11 8a 3e b4 ba 42 bd
       -0.09047649 -0.06357415 0.26966494 -0.047541335
000330 ef b9 06 3e 90 3e 74 3d 45 dc 43 3e 86 40 4e 3e
       0.13156866 0.059629977 0.19126995 0.20141801
000340 f4 5a 1a be d2 32 fa bd d8 60 fa bd 9a 4d 2b 3d
       -0.15073758 -0.122167245 -0.12225503 0.041822053
000350 bd a4 30 3e ab a5 23 be 43 5b f0 bd fa 60 ce 3c
       0.17250343 -0.15981166 -0.11736157 0.025192726
000360 97 b4 6d 3e cf 3f 42 bd dd 9a 4c 3c 00 08 1c be
       0.23213421 -0.047424134 0.012488094 -0.15237427
000370 54 e6 46 3e 85 71 18 bd c3 09 60 39 4c ac fd bd
       0.194238 -0.037217636 0.00021365941 -0.12386379
000380 51 c6 32 3d a2 b9 84 bd 99 31 a1 bc 30 9b 13 be
       0.04364616 -0.06480719 -0.01967697 -0.14414668
000390 0f 3a dc bd ac a9 82 3d 4e 19 7e bd c1 36 2c 3e
       -0.10753261 0.063800186 -0.06203585 0.16817762
0003a0 80 b9 f4 3d 82 51 75 bd d0 79 b6 3c bf 74 45 be
       0.11949444 -0.059892185 0.022274882 -0.19282816
0003b0 71 83 e1 bd dd a0 16 3e c2 18 ef bd d3 13 53 bd
       -0.110113986 0.14709802 -0.11674644 -0.051532578
0003c0 d9 dd b8 3d d4 eb cd bc 6b 17 4e bd 62 68 9a 3c
       0.09026689 -0.025136866 -0.050315302 0.018848602
0003d0 43 e8 be bd 74 73 18 3e 49 8d 86 3d ab 71 96 3e
       -0.09321644 0.14887792 0.06569917 0.29383597
0003e0 2e 9d a4 bd fd 48 19 be 93 cd 3b 3e bc d3 74 3c
       -0.08037792 -0.14969249 0.18340139 0.0149430595
0003f0 a1 ce b9 bd 3f f6 8e 3d e9 b2 0d 3d 68 7e 84 bd
       -0.090726145 0.069805615 0.03459445 -0.064694226

lstm.weight_hh_l0 f4 [128, 32]
000000 0c e6 9c 3d 08 f8 97 3d d2 71 fd 3d b0 ea 48 3e
       0.076610655 0.07420355 0.12375225 0.19620776
000010 50 ee 28 bc 3a 4d 8c bc 40 f7 24 3e dd 17 b8 3d
       -0.010310724 -0.017126668 0.16109943 0.089889266
000020 d5 aa b4 3d ab 11 88 be 31 f9 d9 3d 82 9e e8 bd
       0.08821646 -0.2657598 0.106432326 -0.11358358
000030 56 3e 29 3d 2b 3d 41 be af 89 47 be b5 f4 33 3d
       0.041319214 -0.1887099 -0.19486116 0.043934543
000040 e4 44 99 3b 95 7e 36 3e cd d1 34 bd aa bc 8c 3d
       0.004677402 0.17821725 -0.044145394 0.06871922
000050 7d 43 99 3c b7 6d 12 be 2d b4 b5 bd d7 78 e4 3d
       0.018708939 -0.14299665 -0.088722564 0.11155861
000060 e9 27 0b be 8c d6 05 3e 58 a0 df bd f4 ec df 3c
       -0.13589443 0.13070124 -0.10919255 0.027334668
000070 d9 b1 9d bc 87 4c 1e be 24 73 93 bd ee 3d ce 3d
       -0.019249843 -0.1545888 -0.07199696 0.10070406
000080 b8 5b 50 be 48 ba 3b bd 0b 84 24 3d fe a3 9c 3d
       -0.20347488 -0.04583195 0.04016499 0.076484665
000090 09 1a 35 bd 06 c7 79 3c 57 4c 8b 3d 2e d6 62 3e
       -0.044214282 0.015245205 0.0680167 0.22152016
0000a0 4e 18 a9 bc 7a b1 df 3d 2d cd ed 3d 4e c9 c3 3d
       -0.020641472 0.10922523 0.116114 0.0955988
0000b0 50 63 6a bd 30 8d 5a be ae 99 b0 bd 8c ee 6e bd
       -0.057223618 -0.21342921 -0.08623062 -0.058332965
0000c0 4f 01 8d bd e1 7d 29 bd c4 cb 76 3d ad 6c 1c bb
       -0.06885015 -0.041379813 0.06025292 -0.0023868487
0000d0 46 4d 55 bd 6e ca 62 3e 3b d5 c7 bd 75 2f 8d bd
       -0.052075647 0.22147533 -0.09757467 -0.06893817
0000e0 ad b5 d7 3b e9 92 18 3d 35 eb 48 be 54 d3 db 3d
       0.0065829367 0.03724948 -0.19620974 0.10733667
0000f0 5b ba 47 3d ce e6 18 3d 3c b6 82 bd dd b4 0b be
       0.048761707 0.037329488 -0.06382415 -0.13643213
000100 cc a0 c4 bc 4a 89 1a 3e 78 1d 46 be 02 2a 1a 3e
       -0.024002455 0.15091434 -0.19347179 0.15055087
000110 20 87 ad bc 04 e8 5e 3e b3 c0 0e 3e bf ff 22 3e
       -0.021182597 0.21768194 0.13940696 0.15917872
000120 e2 e0 4b bd f7 5d d0 bd f0 61 51 be 10 44 1a bd
       -0.04977501 -0.10174172 -0.20447516 -0.037662566
000130 8f c8 94 3d 92 78 cd 3d ba 08 90 bc 75 15 88 3c
       0.07264816 0.100327626 -0.017582286 0.016611794
000140 b3 95 8c bd eb 77 4b 3e 58 68 f4 3c 73 16 ee 3d
       -0.0686449 0.19869964 0.029834911 0.116253756
000150 fd 72 5d bd 68 31 af 3c 1e bd 4d be 87 80 68 3e
       -0.05406474 0.021385863 -0.20091674 0.2270528
000160 5c 7d 31 3e 58 ba c6 3c 0b bd d4 bd fb 72 89 bb
       0.17332977 0.024258777 -0.103876196 -0.004194615
000170 6c 91 84 be 8c 9d a2 bd 4b 8c 8d bb 44 07 93 3d
       -0.25892198 -0.07940206 -0.0043197027 0.0717912
000180 bd 56 da 3d 17 bd 4e 3e f3 2e ef bd 34 dd 56 bc
       0.10661075 0.2018932 -0.11678877 -0.013114262
000190 1f f7 79 3d d3 01 75 3c 9a 99 3b 3e f1 73 a3 3d
       0.06102669 0.014954048 0.18320313 0.079810984
0001a0 8e c9 cb bd 4a 89 5e bd 84 63 22 be 15 ee c6 3c
       -0.09950553 -0.054330148 -0.15858275 0.024283448
0001b0 20 a6 02 3d 7b 72 8a bd 1b 30 59 be b7 46 df bc
       0.03189671 -0.06760117 -0.21209757 -0.0272554
0001c0 62 67 98 bd f6 e4 41 bd c3 6f bd 3b 96 31 32 3e
       -0.07441594 -0.047337495 0.0057811453 0.17401728
0001d0 fa fb e0 ba 3c c1 2a 3e 7a 85 07 be 03 e4 51 3e
       -0.0017164939 0.16675276 -0.13234511 0.20497136
0001e0 f6 91 57 3e 23 99 49 bd 23 c7 56 be af 15 f2 3d
       0.21051773 -0.04921831 -0.20974402 0.11820542
0001f0 cf 1c 76 be 5c b9 4d bd 44 7f 1c 3e 6f b3 05 be
       -0.24034427 -0.0502256 0.15282923 -0.1305673
000200 2a c4 f5 bd 89 8f 5c 3d 74 6f 25 be 6c 21 15 3e
       -0.12000306 0.053847823 -0.16155797 0.1456353
000210 af f6 c7 bd 98 05 3d 3e 63 64 fc bd 86 40 f9 3d
       -0.09763848 0.18459165 -0.12323835 0.1217051
000220 46 86 ff bd 02 08 19 be 46 05 bf 3d a3 f2 07 3e
       -0.124767825 -0.14944461 0.09327178 0.13276152
000230 2d ac 2f be c3 1e cb bc 4d d3 ff bd 48 3e 4f 3d
       -0.17155524 -0.024794942 -0.12491474 0.050596505
000240 df ab 5c bc 04 c5 83 bd 97 6c 90 bb 2b 81 c1 3b
       -0.013468712 -0.06434062 -0.004407476 0.0059052906
000250 da fb 2e be 79 d7 77 bd 42 77 9e bd 4b 64 24 bd
       -0.17088261 -0.060508225 -0.077375904 -0.04013471
000260 f8 91 3b bd 8f 6c c3 bd 50 c2 db bd 1c 44 e2 3d
       -0.045793504 -0.0954219 -0.107304215 0.11048147
000270 b2 03 0d 3e db 31 c4 bd 10 67 f3 3c 45 b7 e4 3d
       0.13770941 -0.09579822 0.02971223 0.111677684
000280 ee 8f 27 be f7 73 05 3d 04 d8 8a bd 7e 32 9d 3d
       -0.16363499 0.032581296 -0.06779483 0.07675646
000290 cb 4a 25 3d 40 f8 dd bd ed f9 f1 3c 02 53 25 3e
       0.04035453 -0.108383656 0.02953812 0.16144946
0002a0 f6 05 27 be 78 0f 85 bd df 2f ee bd cb 08 07 3e
       -0.16310868 -0.06497091 -0.116302244 0.13186948
0002b0 01 42 35 bd cc 9c 6d be e3 5d 27 bd 01 e0 a4 bc
       -0.0442524 -0.23204345 -0.04086102 -0.020126345
0002c0 7d b9 2c bd d5 5e d8 3d 3f 55 a3 3c 81 f0 8a 3c
       -0.042169083 0.10564963 0.01993811 0.016960384
0002d0 f7 ed 06 be 6b 6f 55 bd 30 01 61 3c 1f 11 bb bd
       -0.13176714 -0.05210821 0.013733193 -0.09134125
0002e0 db 62 74 3d c5 21 56 3e 2a e8 bf bd 8d d1 6b 3d
       0.05966459 0.2091132 -0.09370454 0.05757289
0002f0 66 06 25 3e 64 17 0e be 42 23 7e 3e c0 f0 62 be
       0.16115722 -0.1387611 0.24818137 -0.22162151
000300 10 73 fb bb d2 1b 81 3d 2f af 09 be 8a af 2e 3e
       -0.0076736286 0.063041344 -0.13445733 0.1705915
000310 9a 35 fe 3d cb 1f df 3d a1 bf 87 3d 62 61 13 3e
       0.124125674 0.10894736 0.06628347 0.14392617
000320 51 63 de 3d c3 67 a6 3c e1 70 31 3e 96 5d b7 bd
       0.10858787 0.02031315 0.17328216 -0.08953397
000330 99 5b b7 bd 51 dc ca bd d7 d5 cb 3c d6 d5 16 3d
       -0.08953018 -0.09905303 0.02488224 0.036825024
000340 a2 d4 cf 3d 73 d5 15 be f8 8f 2b be fe 06 d4 bc
       0.10147978 -0.14632206 -0.16754138 -0.02588224
000350 43 64 fb bd 6e ed 37 3e 8b 9d 14 bd 94 74 80 bd
       -0.12274983 0.17961666 -0.036283057 -0.062722355
000360 11 29 c3 3d 33 dc 3e bd df 09 37 be db 57 ad bd
       0.09529317 -0.046596717 -0.1787486 -0.08464023
000370 03 03 db 3d f7 3f 0a be 73 4d 2b 3c 4f 24 64 be
       0.10693934 -0.13500963 0.010455477 -0.22279476
000380 e5 75 8e bb 14 2a 3d 3e 63 a6 47 3b 40 88 4a 3e
       -0.00434755 0.18473083 0.0030464164 0.19778538
000390 a9 a1 45 bd ff b3 52 3b d0 85 a8 3c b2 5d c7 bd
       -0.048249874 0.0032150743 0.02057162 -0.09734668
0003a0 17 a5 b3 3d 6a a9 f9 3c 66 2f a8 bd ef 07 60 3d
       0.08771723 0.03047629 -0.082121655 0.054695066
0003b0 3f 28 c1 bd d0 e9 8d 3d da ba 86 bd f6 4a 74 3d
       -0.094315045 0.06929362 -0.06578608 0.0596418
0003c0 ff 39 87 3e e5 b2 a7 3d 89 c1 57 bd 7b a5 84 3d
       0.26411435 0.08188418 -0.052674804 0.064768754
0003d0 3e 1f a2 bd 8a 78 39 bd ef 64 39 be 25 7f 1e be
       -0.07916115 -0.04528097 -0.1810491 -0.1547819
0003e0 e7 ef 4b 3e 93 2b ef 3d 5d 13 06 be 3d e3 21 3e
       0.19915734 0.11678233 -0.13093324 0.15809341
0003f0 0a 8d f7 bd ee a3 8f bd 6f bf af 3d fc 3f 58 be
       -0.12087448 -0.07013689 0.08581435 -0.21118158

lstm.bias_ih_l0 f4 [128]
000000 f2 00 a8 bd 08 67 65 3e ed 9a 56 3e 4c 3c 99 3d
       -0.08203305 0.22402585 0.20957537 0.07482204
000010 bb a8 ee 3d 4d 77 26 3d ae 29 87 3d 40 50 08 be
       0.116532765 0.040641118 0.06599747 -0.13311863
000020 52 b4 c1 bd 39 1a 08 3e b6 bd 89 bc bc 15 73 bd
       -0.094582215 0.13291253 -0.016814094 -0.0593469
000030 9f a8 90 3d 13 5c 54 3e 41 85 3b 3d b1 b0 79 3e
       0.07063412 0.20738249 0.045781378 0.24383809
000040 93 19 83 3d 64 e9 35 bd ad 4d 1a 3c 37 da 2c bd
       0.06401362 -0.04441203 0.009417933 -0.042200293
000050 f7 c4 47 3e f6 a2 a3 3e 16 f0 c1 3d e5 75 2f 3e
       0.1950873 0.31960267 0.09469621 0.17134817
000060 87 4a 47 3e af fb b5 3c fa bd fd bc 45 4a 07 3e
       0.19462024 0.022214739 -0.030974377 0.13211925
000070 41 2b 83 3e 8a 62 72 3d 99 8d 26 3d 18 52 ae 3c
       0.25618938 0.059176005 0.04066238 0.02127938
000080 58 74 93 3d 39 48 9f 3d 33 67 69 bd f2 11 6f 3d
       0.07199925 0.07777447 -0.056983184 0.058366723
000090 5e ff 3a 3e b6 89 3c 3e 71 25 65 3e e6 5a eb 3d
       0.18261477 0.18411908 0.22377564 0.11491947
0000a0 f5 16 13 be 4f b2 02 3e bf 0c 33 bd 90 5f 74 3d
       -0.14364226 0.12763332 -0.043713327 0.059661448
0000b0 45 8c 0f 3e c7 f6 61 3e f6 f9 c2 3d 23 ca 2a 3e
       0.14018352 0.22066794 0.095203325 0.16678672
0000c0 f6 8d 16 3e ac db 5b 3e 2e b0 24 bd a9 13 81 3e
       0.14702591 0.21470517 -0.04020708 0.25210312
0000d0 d0 0b 4c bd 7d 32 ee 3c e9 d3 81 3d d7 c5 23 3e
       -0.049815953 0.029076809 0.06339247 0.15993439
0000e0 3d 08 26 bc 4e 8a 62 3e 90 2b e0 3b 47 d8 66 3e
       -0.0101338 0.22123072 0.0068411306 0.22543441
0000f0 36 36 75 3d 68 00 ec bb b3 dd c7 3d 8d e7 f0 3b
       0.059866153 -0.007202197 0.09759083 0.0073518218
000100 2e da f9 3d 99 5c 04 3e 63 83 31 be 63 8f 1e be
       0.121998176 0.12925948 -0.17335276 -0.15484385
000110 03 15 a8 3d 46 be f6 3d 79 b5 64 bd f9 c2 dd 3d
       0.08207133 0.120480105 -0.05583713 0.10828204
000120 77 41 0f be fd 28 54 bd 99 1f 33 3e af 5d 09 3e
       -0.13989817 -0.051796902 0.17492522 0.13414644
000130 47 54 0e bd ca 1e 92 bd 82 c0 64 bc 2d 5a 11 be
       -0.034748342 -0.07134779 -0.013961913 -0.14194556
000140 93 33 0f be b0 5b b5 bc 4b 23 0c 3e fe d6 77 3c
       -0.13984518 -0.022138447 0.13685338 0.015126942
000150 0b fb a6 bd af b4 33 3e a5 1a b4 bd 50 15 1e 3e
       -0.081533514 0.17549394 -0.087941445 0.15437818
000160 1a f5 3f 3e 83 92 0c 3e 7d 21 51 bd 9c bf 10 3e
       0.18745843 0.13727765 -0.051057328 0.14135593
000170 47 bc 26 be ca cc 23 bd 74 bb a1 ba c2 91 cd bd
       -0.1628276 -0.039990224 -0.001233919 -0.10037567
000180 07 12 13 3d 81 55 4f 3e db 87 c6 3d 4f cd c5 3b
       0.035905864 0.20247461 0.09693881 0.0060364376
000190 50 23 9c 3d 32 81 5e 3e 82 fc 66 3e 4b 44 51 3e
       0.07623923 0.21728972 0.22557262 0.20436208
0001a0 7f e5 66 3e 95 db ae bd 37 dd 49 bd 6b 59 87 bd
       0.22548483 -0.08537976 -0.049283233 -0.06608852
0001b0 a3 ec 97 3d 3a ad 13 bd a5 8a 5e bd 69 da 53 3e
       0.07418182 -0.036053874 -0.05433144 0.20688786
0001c0 f4 e3 d7 bc 0a 49 35 3e cb d0 bb 3a 86 7e af 3d
       -0.026353814 0.17703643 0.0014329193 0.08569054
0001d0 a3 eb 2b 3e 2c f8 3c 3e a2 a2 44 3e e9 3a 95 3d
       0.16789107 0.18454045 0.19202664 0.07286627
0001e0 c3 84 75 bd 27 54 b2 bd b2 0b 85 bd 5c f6 6e 3e
       -0.059941065 -0.08707457 -0.06496371 0.23336166
0001f0 7e 78 1a 3b 33 5c ce 3d 24 5f fa 3a 0f 43 45 3d
       0.0023570354 0.10076179 0.001910184 0.048159655

lstm.bias_hh_l0 f4 [128]
000000 da 50 9f 3d 9b 44 17 3e 71 73 ec 3c a7 16 66 3d
       0.07779093 0.14772265 0.02886364 0.056173947
000010 0e f7 eb bd 16 7a 47 3d 97 79 39 3c ed e8 3c 3e
       -0.11521731 0.048700415 0.011320493 0.18448229
000020 68 7c 15 3d ce 3a c2 bc 36 42 94 3d 0b 2d 24 bd
       0.036495596 -0.02370968 0.07239191 -0.04008202
000030 fb 20 8f 3d ed fc 89 3c 4f 64 0a 3e 45 99 99 bc
       0.069887124 0.016844237 0.13514827 -0.018749842
000040 e6 b6 04 be 72 95 29 3e 46 c1 b8 3b 33 f8 3a bc
       -0.12960395 0.16560915 0.0056382744 -0.011411714
000050 0f 3b 7b bc 84 bf 4b 3e eb 5e 9f 3d a6 9f 4b 3e
       -0.015333905 0.19897276 0.07781776 0.1988512
000060 f2 ea 1e 3d 1e 6c 75 bd 36 41 f9 3d 2f 3e 0e 3e
       0.03879828 -0.05991756 0.12170641 0.13890909
000070 65 03 c6 3d 36 79 f6 3d f1 df 25 3e 08 24 ea bc
       0.09668616 0.12034838 0.16198708 -0.028581634
000080 7e 2d d1 3d be d4 0a 3e 8b f3 bb bd c3 1b 07 3d
       0.10213755 0.13557717 -0.091773115 0.03298546
000090 ab 16 54 bd f7 e9 42 3e 8e bc 5e 3e 58 79 28 3d
       -0.05177943 0.19034563 0.21751615 0.041131347
0000a0 be 1a b3 bd 94 8f 8a 3d 65 0a 5c 3d 59 c4 a1 bc
       -0.08745335 0.067656666 0.05372085 -0.019746946
0000b0 7c cd 0f be 29 a7 52 3e 35 df c5 3c 81 d6 90 bd
       -0.1404323 0.20571579 0.024154285 -0.070721634
0000c0 fe 5e 8b 3c 66 41 6c bd 37 ad 4b 3e d8 58 60 3e
       0.01701307 -0.057679556 0.19890295 0.21908891
0000d0 de a2 54 3d 43 57 17 3e a7 09 2c bd 4f d1 0e 3e
       0.051913135 0.14779381 -0.042001393 0.13947032
0000e0 de e0 5a 3e a5 47 f1 bc 65 0b 8c bd 49 a6 5b 3e
       0.21374843 -0.029453108 -0.06838111 0.21450152
0000f0 d4 14 c5 bd 10 48 27 3e b1 d8 a1 bb 95 ec cc 3d
       -0.09623113 0.16336083 -0.0049391617 0.10006062
000100 78 e8 c2 bd 12 e2 0f be 8a 04 86 bd ac 06 1e 3e
       -0.09516996 -0.14051083 -0.065438345 0.15432233
000110 34 f6 4f 3d 40 b2 0a bd 8f e7 40 3e db b5 8d bd
       0.050771907 -0.0338614 0.18838333 -0.06919452
000120 2c ef c9 bc 16 21 93 bd 76 38 d3 3d d2 bc af bd
       -0.024650179 -0.07184045 0.103135034 -0.085809365
000130 bf 26 ee 3b 60 51 f0 bd 33 b6 b5 bd 96 3d 59 3d
       0.0072678025 -0.11734271 -0.08872642 0.05303725
000140 f9 bc 18 3e 78 c2 09 3e 59 54 28 be 66 54 9b 3c
       0.14915837 0.1345309 -0.16438426 0.018961143
000150 01 d2 27 3e a0 ad 10 3c 76 3b b5 bc 95 33 46 3b
       0.16388704 0.008830458 -0.02212308 0.0030243148
000160 dc dc 15 be 75 bc d3 bd f2 49 77 bd 74 7d f2 3b
       -0.14635032 -0.1033868 -0.060373254 0.007400209
000170 db 51 22 3e 3e 3d 20 bd 06 12 90 bd 12 58 1b bd
       0.15851538 -0.039120905 -0.07034688 -0.037925787
000180 99 34 b2 bd 38 58 ae bd 2c bc e1 3d 07 99 8a bd
       -0.087014385 -0.0851292 0.11022219 -0.06767469
000190 5a a2 ae bd 07 51 80 3e 7f e2 1c 3e 7c ad e8 bd
       -0.0852706 0.2506182 0.15320776 -0.113612145
0001a0 f0 b0 3c bd 79 b6 9b 3c 22 57 62 bd f1 fd 60 bd
       -0.04606718 0.019007908 -0.055258878 -0.054929677
0001b0 96 df cf bd b2 0f c8 3c 2a c4 f8 3d c5 42 04 3e
       -0.101500675 0.024421547 0.1214679 0.12916096
0001c0 6c 5b bf 3d c8 e4 8b 3c 05 c4 ed 3d 7a f0 eb 3c
       0.09343609 0.017076865 0.116096534 0.028801192
0001d0 ec f0 8d 3b c3 a7 16 bd 75 c3 1b 3e ff 8b 20 3e
       0.0043316986 -0.036781084 0.1521128 0.15678404
0001e0 e0 ec c8 3c 1f 36 61 3c 1a 87 82 bd 0c 3b 82 bd
       0.024527013 0.013745814 -0.06373425 -0.063589185
0001f0 86 de 44 bd b5 82 8f 3c a6 8b 89 bc 72 85 23 3e
       -0.048063777 0.01751838 -0.016790222 0.15968874

fc1.weight f4 [32, 32]
000000 54 52 fa bd 19 6a 03 3d cc 25 22 bd 28 b8 b8 bd
       -0.12222734 0.032083604 -0.039586827 -0.090195
000010 f4 a5 02 3e 36 cf e8 bd 4f 24 1e 3e da b6 1f be
       0.12758619 -0.11367647 0.15443538 -0.15597096
000020 9b db d5 bd 0c 77 53 3c d7 ee be 3c bd b2 07 be
       -0.10442277 0.012906801 0.023307247 -0.13251777
000030 7d 1e 8b bd ea e1 2d 3e 04 b3 73 3d 58 2d a9 3d
       -0.067929246 0.1698071 0.059496894 0.08260602
000040 37 47 37 be 88 3d 05 be d2 00 8d bd a8 57 39 3d
       -0.1789826 -0.13011754 -0.06884922 0.04524961
000050 60 88 da 3d c2 70 83 bc e1 df d6 bd 6d 65 8d bd
       0.10670543 -0.016044978 -0.1049192 -0.06904111
000060 3c 02 c1 3d 7a 9f d2 bc 9b bb 1e 3e ca bb 8d bd
       0.09424254 -0.02571081 0.15501253 -0.069205835
000070 1e 5e f4 3d 5a 5d d0 3d 11 55 34 be 32 98 d3 3d
       0.11932014 0.101740554 -0.17610575 0.10331763
000080 5f 05 1f be e9 aa f5 3d 6c 4b 00 bd dc ae c9 3c
       -0.15529393 0.11995489 -0.031321928 0.024619512
000090 94 8f 0f 3e f4 59 62 3e f3 a1 06 bd 56 4c b6 bd
       0.14019614 0.22104627 -0.03286929 -0.08901279
0000a0 df aa c7 3c e8 5b 4d 3e 9a 2a 97 be 94 4b 8a 3e
       0.02437347 0.2005459 -0.2952469 0.27010787
0000b0 12 db 01 be d9 9d da bc b2 51 78 bd f8 d5 15 be
       -0.12681225 -0.026686596 -0.060624786 -0.14632404
0000c0 6d d0 8b 3e 83 94 7b bb 94 28 a0 bb 6f f2 58 3e
       0.27307454 -0.003838808 -0.00488765 0.21186231
0000d0 6a f0 aa be 2a e8 51 3d 5e a4 90 3d 83 18 84 3e
       -0.33386546 0.0512468 0.070626006 0.2579995
0000e0 c0 e9 01 3d 46 70 53 bd 89 a9 08 be 5f 50 30 bc
       0.031717062 -0.051620744 -0.13345923 -0.010761349
0000f0 91 28 e5 bd b2 85 7d be 4b 91 13 3e 57 04 0f be
       -0.11189378 -0.24758032 0.14410894 -0.139665
000100 67 3a 3e be 96 24 18 bd 00 ee 25 3c ee c3 1e 3e
       -0.18576966 -0.037144266 0.010127544 0.15504429
000110 f4 38 8f 3e 65 c2 ea 3d 8e 2c 77 bd cf 45 8a 3d
       0.2797314 0.11462859 -0.060345225 0.06751596
000120 9c fc a5 bd 06 19 22 3e bd 95 1b be 3c c5 18 3e
       -0.08104822 0.15829858 -0.1519384 0.14918989
000130 34 f6 36 be 92 89 93 3c 5a 34 36 bd 1b 5f 85 bd
       -0.17867357 0.018009935 -0.04448352 -0.065122806
000140 de c0 db bd 64 21 0d bd 33 e9 48 be aa 21 96 3d
       -0.10730146 -0.034455672 -0.19620208 0.0733064
000150 13 69 b6 3d 08 f2 b1 bd ef 58 35 be b7 7d d2 bd
       0.0890676 -0.08688742 -0.17709707 -0.102778845
000160 e8 db 70 3e 46 f6 c6 3d 82 b8 0e be f1 12 cd 3d
       0.23521388 0.09714942 -0.13937572 0.100133784
000170 3d 1c 81 3d 63 ee 94 3c c8 10 75 3e 60 25 09 be
       0.06304214 0.018180078 0.23932183 -0.13393164
000180 b5 67 03 3e a2 f1 84 3d 03 94 16 be 72 92 03 3e
       0.1283253 0.064914 -0.147049 0.12848833
000190 be 64 e2 bd 78 20 9f 3c af 29 f6 bd c2 04 d9 bd
       -0.11054371 0.019424662 -0.12019669 -0.105966106
0001a0 d4 a8 31 be e0 c4 32 be 0d 58 93 3d c7 2a 12 3e
       -0.17349559 -0.17457914 0.07194529 0.14274131
0001b0 86 6b da 3c 71 8b b1 3c 4d 78 15 be 81 2c ae bd
       0.0266626 0.021672936 -0.14596672 -0.08504582
0001c0 5c 85 11 3e 3b bf 4b bc 92 3d 0d be c2 7f ab bd
       0.14211029 -0.01243573 -0.13793018 -0.08373977
0001d0 f7 13 f1 bd 68 85 3b be 4b 0c b3 3d 9a 54 07 bd
       -0.11771386 -0.18312609 0.08742579 -0.033039667
0001e0 a8 bc 83 3d 02 e6 1f 3c 96 39 d7 3d e4 57 bd 3d
       0.06432468 0.009759428 0.105090305 0.092452794
0001f0 1d 3e 12 bd f4 0b 05 be 0e e6 a1 3d 4c 97 10 3e
       -0.035703767 -0.12992841 0.079052076 0.14120215
000200 62 81 b0 bd 42 fd c2 bc 9a 3b d8 bc 55 ff 2c 3e
       -0.08618428 -0.023802403 -0.026395608 0.16894276
000210 db 9c 40 3e 7e 81 9c bc 2a 2b 32 bd 69 07 40 3e
       0.18809836 -0.019104715 -0.043498196 0.18752827
000220 8f 54 eb bc 6c b5 28 3e 9d a2 c2 3d a3 ef 2f 3e
       -0.028726844 0.16475457 0.09503672 0.17181258
000230 bd 65 59 be 38 6a 3d be 9a 10 04 be d8 13 03 be
       -0.21230216 -0.1849755 -0.12896958 -0.12800539
000240 70 0f 38 3e f1 e1 95 3d 5d 40 1b be 57 70 0b 3e
       0.17974639 0.073184855 -0.15161271 0.13617073
000250 c4 18 3b be 77 4b e9 3d 04 39 1c 3c ad 02 ac bd
       -0.18271166 0.11391347 0.009535078 -0.08398948
000260 8b e2 2b 3e c1 c8 8a 3e d9 3e 4e 3d b6 af 17 3e
       0.16785638 0.27106288 0.050352905 0.14813122
000270 d3 cf 92 bd b3 82 d4 bd db ca 5a 3d 1b 60 88 be
       -0.071685456 -0.103764914 0.053416114 -0.26635823
000280 8a 99 85 bd cf 88 46 3e 48 ec 0b 3d 50 3d 76 bd
       -0.06523426 0.19388126 0.034160882 -0.060117066
000290 21 67 06 bc 3e 53 3c be 74 e7 90 3d 98 11 25 be
       -0.008203299 -0.1839113 0.07075396 -0.16119993
0002a0 5d 3c 7b bd b5 d0 c1 bd 5f 8f a7 bc 6f 1b 28 3d
       -0.061336864 -0.09463636 -0.020454107 0.041041788
0002b0 c7 51 b9 bd 5c cb 90 3d 6b be c4 bd cc 2e 0e bd
       -0.09048801 0.07070038 -0.09606632 -0.034712598
0002c0 4b 25 f6 3d 3f 4a 07 be 6c e7 a0 3d 44 f4 6d 3d
       0.12018832 -0.13211916 0.0785664 0.058094278
0002d0 73 75 3f ba 7f dc c3 bd c6 3a 21 be b2 f1 03 be
       -0.0007303573 -0.09563541 -0.15745077 -0.12885168
0002e0 ed 53 88 bd 22 40 e6 3d 28 4b 6d 3d 34 a0 a0 bd
       -0.066566326 0.11242701 0.057933003 -0.07843056
0002f0 a7 fc bd 3c 89 3d 6f 3d 84 5b 07 be c3 70 15 be
       0.023191763 0.058408294 -0.13218504 -0.14593796
000300 3c d3 3a be 86 4f c7 3d 03 de de bd 97 df 2b 3e
       -0.18244642 0.09731965 -0.10882189 0.16784512
000310 3b 8b 46 3d 0f b7 30 3e 40 d4 6d 3e 4e 6f 58 3e
       0.048472624 0.17257331 0.23225498 0.2113621
000320 ac 90 49 3e 56 0c ca 3d c3 21 9d be 53 43 53 3e
       0.19684094 0.09865634 -0.3068982 0.20631151
000330 da 54 36 be 75 94 c7 bc b6 fb 31 be 27 3e 6e be
       -0.17805806 -0.024362782 -0.17381176 -0.23265897
000340 1e 32 46 3e 2f 9a d5 3d 75 25 18 be e8 d6 90 bc
       0.19355056 0.10429799 -0.14858039 -0.0176806
000350 b3 06 88 be 64 08 34 3e 2b e1 eb 3c 69 2f 76 bc
       -0.2656761 0.17581326 0.028793892 -0.015025952
000360 ff 02 61 3e 92 c7 9d 3c 4c 1e 82 be cd d9 bf 3d
       0.21973799 0.019260202 -0.2541374 0.09367714
000370 12 f0 86 bd 7b ba cb bd 00 9b 20 3e 2f 5e 86 bd
       -0.065887585 -0.09947678 0.15684128 -0.06560933
000380 fc cc 35 3e f6 91 5b 3d 7b eb 2c 3d 26 e4 4a be
       0.17753977 0.053605996 0.04221676 -0.19813594
000390 3d 44 0b be 70 d5 80 bd 19 c1 23 be e0 67 f5 3d
       -0.1360025 -0.0629071 -0.1599163 0.11982703
0003a0 a8 09 96 3d 15 fc 0f be 36 a3 83 bd 2e 12 db bb
       0.073260605 -0.14061005 -0.064276144 -0.006685517
0003b0 56 02 9e bd 88 6d 10 3e 48 0e 14 be bc fb 13 3d
       -0.07715289 0.14104283 -0.14458573 0.036128744
0003c0 db e6 18 3e 5c 89 84 3c 2c 64 78 bd ac 2d 44 3d
       0.14931814 0.01617878 -0.060642406 0.04789512
0003d0 17 75 13 be 2e d8 13 bc 9f bf 37 3e 44 b9 cd bd
       -0.14400135 -0.009023709 0.17944191 -0.10045102
0003e0 22 f7 90 bd ca 62 a4 3d b7 69 f1 bc 7b 2a fc 3d
       -0.07078387 0.08026655 -0.029469354 0.1231279
0003f0 8b f5 d4 3d 4e 20 06 bb b5 b9 e1 3d 80 7e 9f 3d
       0.10398396 -0.0020466032 0.11021749 0.077878

fc1.bias f4 [32]
000000 df 44 1d be 9f e4 22 3e 0a fc 52 3e b6 57 0d be
       -0.15358303 0.15907525 0.20603958 -0.1380299
000010 88 33 4e 3e 6c 3b 12 be 76 51 37 3e e3 4a bc bb
       0.20136845 -0.1428048 0.17902169 -0.005746232
000020 d6 cd d2 3d 40 e8 91 3d 3e 7b fc 3d 21 60 8d 3d
       0.10293166 0.07124376 0.12328194 0.06903101
000030 40 2a f3 3d 6b 64 b4 bd be a4 82 bd 02 ce 25 bd
       0.11873293 -0.08808216 -0.06379078 -0.040479667
000040 19 80 7f bc 9f ac 48 3d 6f 41 d6 bd 40 b5 f7 3d
       -0.015594506 0.04899275 -0.10461699 0.120951176
000050 54 d9 24 be 30 da 12 3e e0 f0 03 3e b6 a1 32 3d
       -0.16098529 0.14341044 0.12884855 0.04361125
000060 eb 8e c9 bc 52 59 3a 3d 7b a8 54 3e a2 fb f1 ba
       -0.024604281 0.04549534 0.20767395 -0.0018461833
000070 60 db 9e bd 98 39 27 3e fc fb fa bd ce 2b 34 3e
       -0.07756686 0.16330564 -0.122550935 0.17594835

fc3.weight f4 [3, 32]
000000 41 eb 3a bc 2f 4b a8 3e f3 a0 d3 bd 25 67 ed 3d
       -0.011408628 0.3286986 -0.10333433 0.11591939
000010 bd 7b f0 3c e2 da d5 3d 1e d4 31 3e 24 56 12 3e
       0.029355878 0.10442139 0.17366073 0.14290673
000020 fa 97 08 be c6 0a 80 be 22 96 89 3e 00 7b fd bd
       -0.13339224 -0.2500822 0.26872355 -0.12376976
000030 2d 17 2a 3d c9 47 a4 3e 49 23 82 3e d7 c0 a4 3d
       0.04152601 0.32086018 0.25417545 0.08044594
000040 c4 43 82 be 8d 3f 92 bd 07 18 6d 3d d6 74 86 be
       -0.25442326 -0.071410276 0.057884242 -0.26261014
000050 2a da 4f 3d ce 9d 63 bd d4 f3 7a 3b 7d f9 b9 bd
       0.050745167 -0.055570416 0.0038292306 -0.09080789
000060 ba 66 28 3e f1 cd e9 bd 9b eb 97 3e 3a 23 97 be
       0.16445437 -0.11416233 0.2967194 -0.29519063
000070 c9 fd 75 3e c8 3a 89 3d b2 95 84 bd 69 9e 2e bc
       0.24022593 0.06700665 -0.064738646 -0.010657885
000080 c2 1b 13 3e c7 17 8e bd 8e 34 b3 bc 6c 0a cc 3c
       0.14366058 -0.06938129 -0.021875646 0.024907313
000090 74 4b a7 bc 89 32 de bd 54 bc 5c be d7 cc e6 3d
       -0.020421721 -0.108494826 -0.21556216 0.11269539
0000a0 c4 e9 f3 3d ca b0 62 3c b1 88 92 bd 56 1d 09 bd
       0.11909822 0.013836095 -0.07154978 -0.033475243
0000b0 d8 83 a0 be ad 8d 9a be 7d fa 65 be 94 a3 88 bd
       -0.3135059 -0.30186215 -0.22458835 -0.06671825
0000c0 25 e4 9b 3e db d3 d2 bd 93 c5 33 3e 04 89 6d 3e
       0.30447498 -0.102943145 0.17555837 0.23196799
0000d0 3f 4f 8d be a7 76 c1 bd ff 50 c1 39 e6 11 18 3d
       -0.27599522 -0.09446459 0.00036872175 0.037126444
0000e0 6c 1b 2f bd 50 54 15 be 3b 39 7b bd b3 c6 43 3e
       -0.04275076 -0.14582944 -0.061333876 0.19118766
0000f0 71 31 86 be 4f 08 57 be 5f 91 63 3e 1a 94 3a be
       -0.26209596 -0.20999263 0.22223423 -0.18220559
000100 a8 6c 9c 3d 8e 0f dc bd db a6 7c be b5 86 1c 3e
       0.07637912 -0.10745154 -0.24673025 0.15285762
000110 57 e1 71 be c4 d2 f4 bd cd 8a 6b be df 3d d5 3d
       -0.23621117 -0.11954263 -0.23002167 0.104121916
000120 5b e5 7a 3d 9a 47 fb bd 00 6a 08 be bb 53 6e 3c
       0.061253887 -0.12269516 -0.13321686 0.01454633
000130 71 63 16 be fb 93 c5 bd bd e2 4d be c4 e8 c7 bd
       -0.14686371 -0.09647366 -0.20106025 -0.097611934
000140 14 ca 86 be 8e 65 b7 3d f6 18 61 3d 2e 9a 64 be
       -0.26326048 0.08954917 0.054955445 -0.2232444
000150 4b b3 49 3a 4e e6 38 be b1 3d b7 3d e4 81 49 3a
       0.0007694258 -0.18056604 0.089473136 0.0007686897
000160 43 96 e7 bd 5e 1d 18 3e 97 10 58 be db 4d 34 3d
       -0.11307957 0.14854953 -0.21100079 0.04401956
000170 ef 22 2e be 3d a0 23 be 6a 8a 13 bc bc 32 1c be
       -0.17005514 -0.15979095 -0.009005168 -0.15253729

fc3.bias f4 [3]
000000 70 ec 61 3d 6d 9a eb bd bb 90 e2 bd
       0.055157125 -0.11504064 -0.110627614
