model/save/v8.5_2022-09-03_00-21/model.pt (torch, 611227 bytes, 8 tensors)

lstm.weight_ih_l0 f4 [256, 512]
0	0xbdac2413	-0.08405318
1	0xbcc62861	-0.024189176
2	0xbc8a0fea	-0.016853292
3	0x3db804a7	0.08985262
4	0x3d4091c9	0.04701403
5	0x3b3644e1	0.002781205
6	0xbd176132	-0.036957927
7	0x3da873ec	0.08225235
8	0xbd59d3bc	-0.05318044
9	0xbd9443eb	-0.07239517
10	0xbdcc1d0a	-0.09966476
11	0x3d28e906	0.041237853
12	0x3b904b86	0.0044035343
13	0xbdb435b7	-0.08799308
14	0xbdddc466	-0.10828476
15	0x3e04357c	0.12911028
16	0x3d814ae6	0.06313114
17	0xbda64b7a	-0.08119865
18	0xbd334fc9	-0.04377726
19	0xbdda54e3	-0.10660722
20	0x3de204a0	0.110360384
21	0x3d163a33	0.036676597
22	0x3dfcd459	0.123451896
23	0x3d5c7342	0.053820856
24	0xbde818d7	-0.11332863
25	0xbd393bb2	-0.045222946
26	0x3dfb780e	0.12278758
27	0x3bb31507	0.005465153
28	0xbdb7dca2	-0.08977629
29	0x3c1424e6	0.009042
30	0xbdb2c646	-0.08729224
31	0x3d12ff25	0.035887856
32	0xbcc546c8	-0.024081603
33	0xbdc0eec3	-0.0942054
34	0xbd9ce129	-0.076601334
35	0xbd242373	-0.04007287
36	0xbd376515	-0.044774134
37	0xbdf6a00a	-0.12042244
38	0xbd5e6c32	-0.0543024
39	0xbda36a20	-0.07979226
40	0xbdd9de02	-0.10638048
41	0xbd97c9d1	-0.0741154
42	0x3d13992f	0.03603476
43	0xbda4687b	-0.080277406
44	0x3d0a7712	0.03380496
45	0x3b97b501	0.0046297316
46	0xbd025a79	-0.031824563
47	0xbc07aed8	-0.008281432
48	0x3d2a5236	0.04158231
49	0x3d9e3e2c	0.07726702
50	0xbc6958e6	-0.014242386
51	0x3d7dcec5	0.06196477
52	0xbd81f9d1	-0.06346477
53	0xbdeeb15c	-0.11654922
54	0xbdadc923	-0.084856294
55	0x3dbfcbfd	0.093650796
56	0xbd109524	-0.03529848
57	0xbc79115f	-0.0152018955
58	0x3d9b4799	0.075820155
59	0x3c15c8bb	0.009142096
60	0xbdd93ea1	-0.10607649
61	0xbe138724	-0.14407021
62	0x3c2a1658	0.010381304
63	0xbe25f157	-0.16205345
64	0x3d5df7ed	0.05419152
65	0xbe0eb4a6	-0.139361
66	0x3da645b7	0.08118766
67	0xbdf042d9	-0.117315
68	0xbdc100d9	-0.0942399
69	0x3ddb8354	0.10718408
70	0x3dd6fcbe	0.104974255
71	0x3d95fb8d	0.0732337
72	0x3dbd025f	0.09228968
73	0x3c8d1ce6	0.017225694
74	0x3d28bccd	0.04119568
75	0xbcaf3082	-0.021385435
76	0xbd8cebc1	-0.06880904
77	0xbc17d25e	-0.009266464
78	0xbd5527d5	-0.05203994
79	0x3dff05f4	0.12452307
80	0x3d3cd671	0.046102945
81	0x3d7fd5d2	0.062459774
82	0xbdfe22ce	-0.12408982
83	0x3dad9339	0.08475346
84	0xbd19fd9e	-0.037595384
85	0x3cdf559f	0.027262507
86	0xbcfd8681	-0.030947926
87	0x3d02d729	0.031943474
88	0x3d6d29c8	0.057901174
89	0x3da634d4	0.08115545
90	0xbddac031	-0.10681189
91	0x3d83994d	0.06425724
92	0xbdad4bf3	-0.08461752
93	0xbdeba552	-0.11506142
94	0x3ca005a1	0.019533934
95	0xbde19dc8	-0.110164225
96	0xbd047fe8	-0.032348543
97	0x3d3c378b	0.045951407
98	0x3e0822b4	0.13294488
99	0xbda889fc	-0.082294434
100	0x3b931387	0.004488412
101	0x3ce67b50	0.028134972
102	0x3de6d38c	0.11270818
103	0x3d47adfc	0.04874991
104	0xbd7f054f	-0.062260922
105	0x3b7ed1e6	0.0038882433
106	0xbdeca6d4	-0.115552574
107	0xbdd65660	-0.104656935
108	0xbcc45211	-0.023964914
109	0x3dbae81c	0.091263026
110	0x37e8083f	2.7660395e-05
111	0xbd19a259	-0.037508342
112	0xbd74b7b3	-0.0597455
113	0xbcc75edf	-0.02433723
114	0xbd299205	-0.04139902
115	0x3c11ee71	0.0089069465
116	0x3dc64bdb	0.09682437
117	0xbd27bc39	-0.040950987
118	0xbdbf1a57	-0.09331196
119	0xbd9332b2	-0.07187404
120	0x3d2ae25b	0.041719776
121	0xbbf4efd4	-0.007474879
122	0xbdcb269d	-0.09919474
123	0xbdb39479	-0.08768553
124	0x3d38502a	0.044998325
125	0xbdcc5bac	-0.099784225
126	0x3c8c56c1	0.017131211
127	0x3d0d902c	0.03456132
128	0xbd0a7422	-0.03380216
129	0xbda65ec4	-0.08123544
130	0xbd9306a8	-0.07179004
131	0xbdae490e	-0.08510028
132	0xbcf87089	-0.030327098
133	0x3d03f1ea	0.03221313
134	0x3dfd171c	0.123579234
135	0xbb7b8c3b	-0.0038383144
136	0x3da01eb2	0.07818355
137	0xbde5c317	-0.11218851
138	0xbd02d9b4	-0.0319459
139	0x3d9c0574	0.076182276
140	0x3dc0e1ed	0.09418092
141	0xbdaafe74	-0.08349314
142	0x3d75559b	0.059896093
143	0xbdece115	-0.115663685
144	0xbe031185	-0.12799652
145	0xbd7ea6f1	-0.062170926
146	0x3d610c75	0.05494352
147	0xbd359650	-0.044332802
148	0xbd94b818	-0.072616756
149	0xbd800231	-0.06250418
150	0x3db047a1	0.08607412
151	0xbdaca33d	-0.08429573
152	0x3d1909ce	0.037362866
153	0x3d2cdc09	0.04220203
154	0xbdd55ebc	-0.1041846
155	0x3df7efb4	0.121062666
156	0xbc5a5e34	-0.013328124
157	0xbc8ea361	-0.01741189
158	0x3c949029	0.018135147
159	0x3d94bb27	0.07262259
160	0xbc81606c	-0.015793048
161	0xbde4efb0	-0.11178529
162	0x3dc13a4a	0.09434946
163	0x3db90a3b	0.090351544
164	0xbdd18bcf	-0.102317445
165	0xbd0d83cd	-0.034549523
166	0xbdafc1e9	-0.08581907
167	0xbd1c5793	-0.038169455
168	0x3d209adc	0.039210185
169	0x3dc82277	0.09772199
170	0xbdaf6ca8	-0.085656464
171	0xbbc3317c	-0.0059568267
172	0x3c354abb	0.01106518
173	0xbd5c442f	-0.053775962
174	0xbdf5e4a3	-0.120064996
175	0xbda535af	-0.0806688
176	0x3bcf40a1	0.006324843
177	0xbddf029f	-0.10889172
178	0x3d8003d7	0.062507324
179	0xbe0c0113	-0.13672285
180	0x3df1bc44	0.11803487
181	0x3d0de3a4	0.034640923
182	0x3d27a9fe	0.0409336
183	0xbd0fea4e	-0.03513556
184	0xbd819fdd	-0.063293196
185	0x3d993a97	0.07481878
186	0x3cd409d1	0.025883587
187	0xbd986d80	-0.074427605
188	0xbdc40933	-0.09572067
189	0x3d143125	0.03617968
190	0xbd92538f	-0.07144844
191	0x3d01377a	0.031547047
192	0x3d8053b6	0.062659666
193	0x3dc01ec6	0.093808696
194	0xbd8f01f3	-0.06982794
195	0x3d42d7ce	0.04756909
196	0xbd5085af	-0.05090874
197	0x3d826dd1	0.06368602
198	0xbd452d84	-0.04813911
199	0x3d48db9d	0.049037565
200	0xbde46631	-0.11152304
201	0xbdf556fa	-0.1197948
202	0x3dd7ecc1	0.10543204
203	0xbdb3f3be	-0.087867245
204	0x3dceb553	0.100931786
205	0xbd558b7a	-0.05213497
206	0x3dd55c9f	0.10418057
207	0x3dc43b60	0.095816374
208	0xbdf815f9	-0.12113566
209	0xbdbe1448	-0.09281212
210	0xbd6eafa0	-0.058272958
211	0x3bf348ea	0.0074244635
212	0x3dc99847	0.09843498
213	0xbe054edb	-0.13018362
214	0xbdb7426b	-0.08948215
215	0x3b826302	0.003979088
216	0x3dd7485b	0.105118476
217	0x3c793ce3	0.01521227
218	0x3d53003b	0.05151389
219	0xbd97f40c	-0.07419595
220	0x3de2e2ca	0.11078413
221	0xbd44b96a	-0.048028387
222	0xbd2f003e	-0.04272484
223	0xbd0acea4	-0.033888474
224	0x3d8b39e6	0.067981526
225	0xbd4e99e1	-0.05043972
226	0xbda31ba8	-0.079642594
227	0xbde7cb44	-0.11318067
228	0xbd702e4d	-0.058637906
229	0x3db9e0bc	0.09076068
230	0xbdc83820	-0.0977633
231	0x3daa17f0	0.08305347
232	0x3da4f13a	0.08053823
233	0xbd003975	-0.031304795
234	0x3d2d0ff4	0.042251542
235	0xbdd4e5be	-0.10395382
236	0xbdb645c5	-0.08900026
237	0x3d907082	0.07052709
238	0xbdc6584f	-0.09684812
239	0xbb78dc74	-0.0037973197
240	0x3c6e7342	0.014553847
241	0xbcfb16a6	-0.030650448
242	0xbd70cb3d	-0.058787573
243	0xbc91b0ff	-0.017784594
244	0xbdc79607	-0.09745412
245	0x3dc2fe37	0.09521144
246	0x3d1ad5a2	0.037801392
247	0x3de21e53	0.1104094
248	0xbd3bc8c8	-0.045845777
249	0xbe14a842	-0.1451731
250	0x3daf83df	0.08570074
251	0xbb0df129	-0.0021658635
252	0xbd923f47	-0.071409754
253	0x3db8261b	0.08991643
254	0xbd3f4dc6	-0.04670503
255	0xbd6ee43c	-0.05832313

lstm.weight_hh_l0 f4 [256, 64]
0	0xbe09e552	-0.13466385
1	0xbda481c3	-0.080325626
2	0xbdad21d3	-0.08453717
3	0x3d6c0bcf	0.05762845
4	0xbd9155a2	-0.07096411
5	0xbe19be2a	-0.15013948
6	0x3d892baf	0.06697785
7	0x3db4102b	0.08792146
8	0x3db4a8ef	0.08821284
9	0x3d5d4006	0.054016136
10	0xbd974ab0	-0.073872924
11	0xbdf745e1	-0.12073875
12	0xbd95de4f	-0.073177926
13	0x3de379d2	0.1110722
14	0xbc395ef8	-0.011314146
15	0xbd386f15	-0.04502781
16	0xbde51631	-0.11185873
17	0x3e0ef3a8	0.13960135
18	0xbbb81c24	-0.005618589
19	0x3e0df90e	0.13864538
20	0xbdf0ac23	-0.117515825
21	0xbe3676cb	-0.17818753
22	0x3d89e107	0.06732374
23	0x3ca8ca68	0.020604327
24	0xbd933cd5	-0.07189337
25	0xbca33beb	-0.019926032
26	0x3e206a13	0.15665464
27	0x3da14729	0.07874901
28	0xbe228aee	-0.1587331
29	0x3dff1505	0.12455181
30	0x3e41ed39	0.1893815
31	0x3da6b58d	0.08140097
32	0xbcb8a38b	-0.02253892
33	0xbbba00ef	-0.005676381
34	0xbe29677c	-0.16543382
35	0x3d0aaacc	0.03385429
36	0x3d587b94	0.05285223
37	0x3e3e9197	0.18610226
38	0xbdd39c71	-0.10332573
39	0x3d9da512	0.076975
40	0xbd7230b7	-0.05912849
41	0xbe1c48b4	-0.15262109
42	0x3dc4afca	0.096038416
43	0xbdf4896d	-0.119402744
44	0xbd3dd567	-0.046346094
45	0xbd22c332	-0.039736934
46	0x3dfabcdc	0.12243053
47	0xbd930169	-0.07178003
48	0x3d3f7b21	0.046748284
49	0x3aa6ad64	0.0012716469
50	0x3c890610	0.016726524
51	0xbd821643	-0.06351902
52	0x3cc26d56	0.023733776
53	0x3df788d2	0.12086643
54	0x3db8cf54	0.0902392
55	0x3d160ec6	0.036635183
56	0xbd3c4450	-0.045963585
57	0x3d9dcfd9	0.077056594
58	0x3d563b41	0.052302603
59	0xbc654d20	-0.013995439
60	0x3d864fcf	0.06558191
61	0xbdc8137b	-0.097693406
62	0x3d6fb5eb	0.0585231
63	0xbd8ab1be	-0.06772183
64	0xbda29653	-0.07938828
65	0xbce8cdbe	-0.028418418
66	0xbdae1649	-0.08500344
67	0xbccd3b10	-0.025052577
68	0x3dabc031	0.08386267
69	0xbd014dac	-0.031568214
70	0xbd3ac38b	-0.04559664
71	0x3e0db8a7	0.1383997
72	0xbcef2767	-0.029193593
73	0xbcc429c0	-0.02394569
74	0xbddd1733	-0.107954405
75	0x3ce3fbd3	0.02783004
76	0x3ca32a07	0.019917501
77	0x3d487354	0.04893811
78	0x3c4bb04c	0.012432169
79	0x3dcb8aa8	0.09938556
80	0xbe15e124	-0.14636666
81	0x3cb8e1ad	0.022568548
82	0x3bbaa201	0.005695582
83	0x3d73e789	0.05954698
84	0xbb246fef	-0.0025091132
85	0xbd9732ad	-0.073827125
86	0xbd104569	-0.035222445
87	0xbd540179	-0.051759217
88	0xbcab460e	-0.020907428
89	0xbda47081	-0.08029271
90	0x3d8eac25	0.06966428
91	0x3c929323	0.017892426
92	0x3db18c42	0.0866933
93	0x3dedbae4	0.11607912
94	0xbd97657e	-0.07392405
95	0xbd3be803	-0.04587556
96	0xbdcfb2e4	-0.101415426
97	0x3d7ed62a	0.06221596
98	0xbe11add6	-0.1422647
99	0xbc86da99	-0.016461657
100	0x3d06875c	0.032843933
101	0x3d93d3c5	0.07218126
102	0x3dc8ac4a	0.097984865
103	0x3dc78765	0.09742621
104	0x3dddfa38	0.10838741
105	0xbddc78b3	-0.10765209
106	0x3d955141	0.072908886
107	0xbde72d09	-0.11287887
108	0x3c78fac5	0.015196507
109	0xb7f219f8	-2.886074e-05
110	0xbd54b466	-0.051929854
111	0xbdaf6a87	-0.0856524
112	0x3d31bd78	0.043393582
113	0xbe0489db	-0.12943213
114	0x3d35a286	0.044344448
115	0x3e179060	0.14801168
116	0xbdbc1c80	-0.091851234
117	0xbda0b24e	-0.07846509
118	0xbc85d0e3	-0.016334957
119	0xbcc61859	-0.024181532
120	0x3d5eea4a	0.054422654
121	0xbd87f211	-0.066379674
122	0x3e1eb8d2	0.15500191
123	0xbc4d5637	-0.012532762
124	0x3dae1aa0	0.08501172
125	0x3d1b32bc	0.03789018
126	0xbdc0862c	-0.09400591
127	0x3d065591	0.032796446
128	0x3d180967	0.03711834
129	0xbdacb24c	-0.08432445
130	0x3ceaaac0	0.028645873
131	0x3d69f916	0.057122312
132	0xbda4fec1	-0.08056403
133	0xbc1f3dcb	-0.009719322
134	0xbd05971e	-0.03261482
135	0x3e0e4e3b	0.1389703
136	0x3d5a266d	0.053259302
137	0x3d506bbb	0.05088399
138	0xbe0439bc	-0.12912649
139	0xbe0c3bfa	-0.13694754
140	0xbe0207b3	-0.1269825
141	0xbd851e2c	-0.064998955
142	0xbd1b9a93	-0.03798921
143	0x3daf5308	0.08560759
144	0xbe20cfc2	-0.15704253
145	0x3e061978	0.13095653
146	0xbd90336a	-0.070410565
147	0x3d51f5f1	0.05125994
148	0xbe1d97f6	-0.1539
149	0xbdc16914	-0.0944387
150	0xbd493d49	-0.04913071
151	0xbd47657b	-0.048680764
152	0xbdc71c48	-0.09722191
153	0xbd74e670	-0.059790075
154	0xbc09ef3b	-0.008418853
155	0xbd39b3e2	-0.045337565
156	0xbd7925c6	-0.06082704
157	0x3dcb7eb4	0.09936276
158	0x3d50c738	0.05097124
159	0xbd969f85	-0.07354645
160	0xbdf0570d	-0.117353536
161	0x3b752590	0.0037406422
162	0x3cec6409	0.028856294
163	0xbb51a970	-0.0031991862
164	0x3d50ac84	0.050945774
165	0x3d14c30f	0.036318835
166	0xbe06e6e9	-0.13174023
167	0x3db27c8b	0.08715161
168	0x3d90db26	0.07073049
169	0xbd8b197c	-0.0679197
170	0x3cbd2adb	0.023091724
171	0x3cce8d9d	0.02521401
172	0x3cfcae55	0.030844847
173	0xbda8fb0f	-0.082510106
174	0xbdbe5745	-0.09293989
175	0xbd0d4296	-0.03448733
176	0x3d847ba8	0.06468898
177	0xbda5dd35	-0.080988325
178	0xbcb3129e	-0.021859463
179	0x3c854a42	0.01627076
180	0x3d4b3417	0.049610224
181	0xbbd37961	-0.0064536785
182	0x3d89d7bf	0.067306034
183	0x3da76b2d	0.08174739
184	0x3b5e32d1	0.00339048
185	0x3dd01deb	0.101619564
186	0xbc71e68c	-0.014764439
187	0x3d80dad8	0.06291741
188	0xbda21c94	-0.07915607
189	0x3db7a1e3	0.08966424
190	0xbc9eec7c	-0.019399874
191	0x3cf59079	0.029976116
192	0xbce3f18e	-0.027825143
193	0x3d71800f	0.058960017
194	0x3a93a1f0	0.0011263471
195	0xbe1c5dd9	-0.15270175
196	0x3d86c56d	0.06580625
197	0xbd1a96a2	-0.03774131
198	0x3cb50c24	0.022100516
199	0xbcd09193	-0.02546004
200	0xbde4f691	-0.11179841
201	0x3e0f5162	0.13995889
202	0xbddaed95	-0.106898464
203	0xbd85685f	-0.06514048
204	0xbdc45a5d	-0.09587548
205	0x3d1b25f5	0.037877996
206	0xbd66c50e	-0.05634027
207	0x3deed5f2	0.116619006
208	0x3d3f796a	0.04674665
209	0xbd6f333b	-0.058398467
210	0x3cd790cb	0.02631416
211	0x3e119444	0.14216715
212	0xbde5e673	-0.11225595
213	0x3dd0755e	0.10178636
214	0xbd61c4ff	-0.05511951
215	0xbdeda153	-0.11603036
216	0xbce37fda	-0.027770925
217	0x39cc4eaf	0.00038968536
218	0x3deeb2b4	0.11655179
219	0xbd20e0fe	-0.03927707
220	0x3d3fc1b0	0.046815574
221	0x3daf2513	0.08551993
222	0xbd2ed7b4	-0.04268618
223	0xbddd838a	-0.10816105
224	0xbdba7f7c	-0.09106347
225	0xbe058e2b	-0.13042514
226	0xbdb6f9ca	-0.08934362
227	0x3daed5ec	0.08536896
228	0x3df6682d	0.12031589
229	0xbd0d3d53	-0.03448231
230	0xbdf4d5fd	-0.119548775
231	0xbe040a27	-0.12894498
232	0x3da4ca87	0.080464415
233	0x3d87f9a9	0.06639416
234	0x3e03230f	0.12806343
235	0x3db1ab94	0.08675304
236	0x3db926b4	0.09040585
237	0x3d2130e8	0.03935328
238	0xbd7678b7	-0.060173716
239	0xbd877587	-0.066142134
240	0xbcc0ac76	-0.023519736
241	0x3c32deda	0.01091739
242	0xbd80c6b8	-0.062879026
243	0xbd4efc5f	-0.05053365
244	0xbdc0db0c	-0.0941678
245	0xbdade515	-0.084909596
246	0x3e05a8d4	0.13052684
247	0xbd672c3e	-0.056438677
248	0xbc484a66	-0.012224769
249	0xbd88b94d	-0.06675968
250	0x3dc656f8	0.09684557
251	0xbd187e51	-0.03722984
252	0x3c564446	0.013077801
253	0x3db8da92	0.09026064
254	0xbbee783c	-0.0072775166
255	0xbde06440	-0.10956621

lstm.bias_ih_l0 f4 [256]
0	0x3dd22809	0.10261542
1	0xbd2ec605	-0.042669315
2	0x3da4f761	0.08054996
3	0xbde19cc7	-0.11016231
4	0xbc42c52b	-0.011887829
5	0xbdc18d44	-0.094507724
6	0x3d90fd46	0.07079558
7	0x3db54c99	0.088525005
8	0x3defe4a7	0.11713534
9	0x3c09c285	0.0084081935
10	0xbb6ea3fd	-0.0036413663
11	0xbcfacc2a	-0.030614931
12	0x3d8ccdf8	0.06875223
13	0xbdb467e2	-0.088088766
14	0xbddbab4c	-0.10726032
15	0xbcd51527	-0.026011063
16	0xbbf0a7c4	-0.007344218
17	0x3d3e92d1	0.046526734
18	0xbd88e470	-0.06684196
19	0x3d28f29d	0.041247
20	0x3dad1e10	0.084529996
21	0x3dac151a	0.08402462
22	0x3de5a390	0.11212838
23	0x3b268433	0.0025408387
24	0xbd52b586	-0.051442645
25	0xbd46a704	-0.048499122
26	0x3da298fc	0.07939336
27	0xbdb2848e	-0.08716689
28	0xbce56d9b	-0.028006366
29	0xbd94a7d2	-0.07258572
30	0x3dae315a	0.08505507
31	0xb89bdc92	-7.4320604e-05
32	0x3d8492ac	0.06473288
33	0x3d7db4f7	0.06194016
34	0x3e11f8a6	0.14255008
35	0xbbdf2e99	-0.006810975
36	0x3dedaf0d	0.11605654
37	0xbc215e0f	-0.0098490855
38	0x3e1ae65d	0.15126939
39	0xbc4d749b	-0.012540008
40	0x3deda684	0.11604026
41	0xbb0f6e12	-0.0021885675
42	0xbd92b2cb	-0.07163008
43	0x3d2c583c	0.042076334
44	0x3e3c382c	0.18380803
45	0xbd5b4754	-0.05353482
46	0xbca22e55	-0.019797483
47	0x3cf87767	0.030330373
48	0x3d387a62	0.04503859
49	0x3da36005	0.07977299
50	0xbc0f0938	-0.008730225
51	0x3e202822	0.1564031
52	0xbd8057e3	-0.06266763
53	0x3d2aafea	0.04167167
54	0x3cbeaa65	0.02327461
55	0x3d64597a	0.055749394
56	0x3dcac3c5	0.09900621
57	0xbd1d5397	-0.038409796
58	0x3e03afc4	0.12860018
59	0x3dae9e10	0.08526242
60	0x3d0e0342	0.034671076
61	0xbda1b6ae	-0.078961715
62	0x3c8295aa	0.015940506
63	0x3e07a8b0	0.13247943
64	0xbd78ef77	-0.060775246
65	0xbdad5e44	-0.08465245
66	0x3e1edb07	0.1551324
67	0x3dc78d8c	0.09743795
68	0x3dfceeb4	0.123502165
69	0xbd630c9e	-0.055431955
70	0xbb9855b5	-0.004648889
71	0xbd955cb1	-0.0729307
72	0x3d8146ca	0.0631233
73	0x3db07bae	0.0861734
74	0x3da4bbae	0.080436096
75	0xbdd2b18b	-0.1028777
76	0x3e021d40	0.1270647
77	0x3d8839fb	0.06651684
78	0x3dffbd24	0.124872476
79	0x3bf4f5b8	0.007475581
80	0xbc8b845b	-0.017030885
81	0x3dbb584c	0.09147701
82	0xbdb1d003	-0.08682253
83	0x3d4827f5	0.04886623
84	0x3c65e2f2	0.014031159
85	0xbd3c2a13	-0.045938563
86	0xbb142b42	-0.0022608791
87	0xbd65b362	-0.056079276
88	0x3d491d60	0.04910028
89	0xbd687288	-0.05674985
90	0xbdba2bca	-0.09090383
91	0xbbd2ee25	-0.0064370804
92	0x3dc8b4f5	0.0980014
93	0xbdd3785d	-0.10325692
94	0xbd4bafa9	-0.04972807
95	0x3e091e75	0.13390525
96	0x3dcd583b	0.10026594
97	0x3dfb60a6	0.122742936
98	0x3da707d3	0.08155789
99	0x3cb3b281	0.021935703
100	0x3ca0c6d7	0.019626064
101	0x3d443d03	0.047909748
102	0xbd9a200e	-0.07525645
103	0xbc87cdec	-0.016577683
104	0xbc99a33e	-0.018754598
105	0x3e126304	0.14295584
106	0x3e03f5ac	0.12886685
107	0x3da67f5d	0.08129761
108	0x3dcdbdc7	0.10045963
109	0x3a928e32	0.0011181294
110	0x3e0c2c06	0.13688669
111	0x3dacd0ea	0.08438285
112	0x3d2962c8	0.04135397
113	0x3d9555c8	0.07291752
114	0x3dd8433a	0.105596974
115	0xbd32d47d	-0.043659676
116	0x3a8cd0ac	0.0010743341
117	0x3da1de3b	0.07903715
118	0x3e243ffc	0.16040033
119	0xbd9e159c	-0.077189654
120	0x3cebed89	0.028799789
121	0x3c059575	0.008153309
122	0x3d9c98b0	0.0764631
123	0x3e14502a	0.14483705
124	0xbd70f782	-0.05882979
125	0x3ceb2079	0.028702008
126	0x3d512e50	0.051069558
127	0xbd42e782	-0.047584064
128	0xbd605910	-0.054772437
129	0x3d8a2add	0.06746457
130	0x3d2996fc	0.041403756
131	0x3c16c721	0.0092027495
132	0xbb9bd9ce	-0.004756189
133	0xbddc972a	-0.1077102
134	0xbd20a8d7	-0.03922352
135	0x39d93637	0.00041429859
136	0x3d7b484d	0.06134825
137	0x3d94ed4d	0.07271824
138	0xbd9f96cd	-0.07792435
139	0x3d998476	0.07495968
140	0x3da817b4	0.08207646
141	0x3d292b6b	0.041301172
142	0x3d328413	0.043582987
143	0xbddddb64	-0.10832861
144	0x3c7f8280	0.0155950785
145	0x3ccfdbdf	0.025373397
146	0x3dadf1a0	0.08493352
147	0xbc8f2b9c	-0.01747685
148	0xbc6ebf44	-0.0145719685
149	0x3de22295	0.11041752
150	0xbe13115a	-0.14362088
151	0xbdc76f90	-0.09738076
152	0x3cf5d047	0.030006541
153	0xbdc13f94	-0.09435955
154	0x3c2ff7b1	0.010740207
155	0x3ce8faca	0.028439898
156	0x3ddb2d61	0.10702015
157	0x3d097007	0.033554103
158	0xbcac0870	-0.021000117
159	0x3cedcc9e	0.029028233
160	0xbdcd0bd9	-0.100120254
161	0xbd506880	-0.05088091
162	0xbd8ca11a	-0.06866665
163	0xbdd07d04	-0.10180095
164	0x3c0c936d	0.008580071
165	0xbdb9d406	-0.090736434
166	0x3aa6a1d5	0.0012713025
167	0xbdd6d40e	-0.10489665
168	0x3d9b7ff5	0.07592765
169	0xbdca1229	-0.09866745
170	0x3da3bcc1	0.07994986
171	0x3c01bfcb	0.007919262
172	0x3c0e022d	0.008667511
173	0x3d2f4419	0.042789552
174	0x3da30eb9	0.079617925
175	0x3d56fe5a	0.052488662
176	0xbdd15ae0	-0.10222411
177	0xbbf76416	-0.007549773
178	0xbccc0d49	-0.024908679
179	0x3de4a1e5	0.111636914
180	0xbd5bf1d0	-0.053697407
181	0x3dfe8d71	0.124293216
182	0x3e07ee7a	0.13274565
183	0xbde2dd56	-0.11077373
184	0xbce8f6da	-0.02843802
185	0x3d1ec3fe	0.03876113
186	0xbd9bebef	-0.0761336
187	0x3c8d8be7	0.017278625
188	0x3d0714a1	0.032978658
189	0xbd5266ce	-0.051367573
190	0xbe00ed76	-0.12590584
191	0x3ded1ea2	0.11578108
192	0xbda4220e	-0.08014308
193	0x3b429495	0.0029690613
194	0x3d37b590	0.044850886
195	0xbbc2d7a1	-0.005946115
196	0x3e2c7951	0.16843154
197	0xbd9a6069	-0.0753792
198	0xbd928d1e	-0.07155822
199	0x3c45783f	0.012052595
200	0x3ddf58d2	0.10905613
201	0x3c0fcd51	0.008776979
202	0xbd1804ea	-0.03711406
203	0xbd851cf4	-0.06499663
204	0x3cc2022b	0.023682674
205	0xbd722d86	-0.059125446
206	0x3d9c223b	0.076237164
207	0xbbb6186d	-0.005557111
208	0x3dc6e281	0.09711171
209	0x3b704a61	0.0036665427
210	0x3d8d9185	0.06912521
211	0x3d2ac7bd	0.04169439
212	0x3e1b6228	0.15174162
213	0xbb2dc2ff	-0.0026513932
214	0xbd588365	-0.052859683
215	0x3dac08c4	0.084001094
216	0x3e2cf5b8	0.1689061
217	0x3debf636	0.115215704
218	0x3c722b18	0.014780782
219	0x3e4b59bb	0.19858448
220	0x3dee94e5	0.11649493
221	0x3da06d1f	0.07833313
222	0x3dcfcc24	0.101463586
223	0x3c5171db	0.012783493
224	0x3d569571	0.052388612
225	0x3d09976c	0.033591673
226	0x3e17c9ba	0.14823046
227	0xbd87237a	-0.065985635
228	0x3cd65e7a	0.026168097
229	0xbdb1f488	-0.08689219
230	0x3e3371d8	0.17523897
231	0x3cf4cf9d	0.029884154
232	0x3de99c40	0.114067554
233	0x3da74ba5	0.08168725
234	0xbdc4ddc0	-0.09612608
235	0xbd817237	-0.06320613
236	0x3e178467	0.14796601
237	0xbcf52cea	-0.029928643
238	0x3e1e9db3	0.15489845
239	0x3d8e045f	0.069344275
240	0x3d8a7f1a	0.06762524
241	0x3de07ce1	0.10961319
242	0x3e0fcf33	0.14043884
243	0x3dbc62eb	0.091985546
244	0x3d833e0e	0.0640832
245	0x3d09ea08	0.033670455
246	0xbd95d2db	-0.07315608
247	0xbd7a21c9	-0.061067376
248	0x3cd17338	0.025567636
249	0x3d539d87	0.0516639
250	0xbd1b0df3	-0.0378551
251	0xbd9d3539	-0.07676167
252	0x3cd4f096	0.025993627
253	0x3d82de90	0.06390107
254	0xbb95d5b2	-0.0045725936
255	0x3e097053	0.13421755

lstm.bias_hh_l0 f4 [256]
0	0x3db3f500	0.087869644
1	0x3d8fef9f	0.07028126
2	0xbda0bf25	-0.07848958
3	0x3e090c0e	0.13383505
4	0x3e064807	0.13113414
5	0x3e090116	0.1337932
6	0x3c655b23	0.0139987795
7	0x3de2ed13	0.110803746
8	0xbd0f2718	-0.034949392
9	0x3e11f054	0.14251834
10	0x3d1b559f	0.03792345
11	0x3bd5b799	0.0065221307
12	0xbd8da0b0	-0.06915414
13	0xbc878558	-0.016543075
14	0x3d873220	0.066013575
15	0x3e2bb00a	0.16766372
16	0x3dbbcf66	0.091704175
17	0x3caf07cf	0.021366028
18	0xbcd1cc4e	-0.025610115
19	0x3de07563	0.1095989
20	0x3d8be02c	0.06829867
21	0x3db14c26	0.08657102
22	0x3dd1aa4c	0.1023756
23	0x3d8918cd	0.066941835
24	0x3d6b9090	0.057510912
25	0xbd86e981	-0.06587506
26	0x3db30227	0.08740645
27	0x3e11cdc3	0.14238648
28	0x3da8c5cd	0.082408525
29	0xbdd74294	-0.10510746
30	0xba17c58c	-0.00057896296
31	0x3d98f377	0.07468312
32	0xbdbe827d	-0.093022324
33	0xbd8bdb28	-0.0682891
34	0x3c2d665e	0.010583488
35	0xbd9aab82	-0.07552244
36	0x3da1fe0e	0.07909785
37	0x3c246d34	0.010035802
38	0x3db3b2ad	0.08774314
39	0xbc50b7ae	-0.012739105
40	0x3d8e5c65	0.069512166
41	0x3d8257bf	0.063643925
42	0x3de94f63	0.11392095
43	0x3d4430e0	0.047898173
44	0x3dfe8a75	0.12428752
45	0xbb3b0f85	-0.0028543186
46	0xbd3e152c	-0.04640691
47	0x3de9432d	0.11389766
48	0xbdaab737	-0.08335727
49	0xbd01f0e2	-0.031723864
50	0x3dc28a31	0.09499014
51	0x3d9ba75e	0.07600282
52	0xbba652a9	-0.005075772
53	0xbc7c92b2	-0.015415834
54	0x3e15e7b3	0.14639167
55	0x3d6fe126	0.058564328
56	0xbdc534df	-0.09629225
57	0xbbf3bfc5	-0.007438632
58	0x3de558a2	0.11198546
59	0x3ba2fe37	0.0049741524
60	0x3c99dc91	0.018781932
61	0xbd66dbca	-0.05636195
62	0x3d245be1	0.040126685
63	0x3ce76896	0.028248113
64	0xbd3726c0	-0.04471469
65	0xbda21c28	-0.07915527
66	0xbda62622	-0.08112742
67	0xbaf717e4	-0.0018851724
68	0x3bb37988	0.005477134
69	0x3df53603	0.119731925
70	0x3aabf402	0.0013118985
71	0x3e062b3f	0.13102435
72	0x3c559e6c	0.013038259
73	0x3d9f0fb8	0.0776667
74	0xbd7e0a2f	-0.06202143
75	0x3da17e87	0.07885461
76	0x3aa1dd41	0.0012349264
77	0x3b4d2196	0.0031300536
78	0x3c75368e	0.01496662
79	0x3cc5287f	0.024067162
80	0x3dcbf49d	0.09958766
81	0x3df72426	0.12067442
82	0x3df07149	0.117403574
83	0x3d4b2d51	0.049603764
84	0xbc85cac7	-0.016332043
85	0x3e0069ea	0.12540403
86	0xbd9f5022	-0.07778956
87	0x3c9ac721	0.01889378
88	0x3ccf074b	0.025272032
89	0xbd677e4f	-0.05651694
90	0xbc6d3aa8	-0.014479317
91	0x3dea8b22	0.11452319
92	0x3de7b39b	0.11313554
93	0x3dff8caf	0.12478005
94	0xbd8f4000	-0.06994629
95	0xbc0f52f5	-0.008747806
96	0x3dd828dd	0.10554669
97	0xbc65d7b0	-0.014028475
98	0x3d378e7b	0.044813614
99	0xbd13036d	-0.03589194
100	0x3dbc4d93	0.091944836
101	0x3d9a239a	0.07526322
102	0x3dac1b52	0.084036484
103	0xbba1594c	-0.004923975
104	0xbd234713	-0.039862704
105	0x3dbc299e	0.09187625
106	0x3d981918	0.07426661
107	0x3dcd2219	0.10016269
108	0x3dd619da	0.104541495
109	0x3cc2daeb	0.023786029
110	0xbc4c393c	-0.012464818
111	0x3e0240c5	0.1272002
112	0x3dd42394	0.103583485
113	0xbdab1b61	-0.083548315
114	0x3b0ce192	0.0021496755
115	0xbd844325	-0.06458119
116	0xbda33049	-0.07968194
117	0x3d526957	0.05136999
118	0xbd22a512	-0.039708205
119	0x3dc7907c	0.09744355
120	0x3e038eda	0.12847462
121	0xbcf26c89	-0.02959277
122	0x3dbb5d02	0.09148599
123	0x3d7f117d	0.062272537
124	0x3d4bac13	0.04972465
125	0x3ddf37f9	0.10899348
126	0x3de441aa	0.11145337
127	0x3e0358d5	0.12826855
128	0x3cfc14b7	0.030771596
129	0xbc6d4c44	-0.014483515
130	0xbd5c7db4	-0.053830817
131	0xbd547a89	-0.05187467
132	0xbd183282	-0.037157543
133	0xbc6783b4	-0.014130522
134	0xba0d1d98	-0.0005383133
135	0x3db08883	0.086197875
136	0xbcae2866	-0.021259498
137	0xbd120709	-0.03565124
138	0xbb2badea	-0.002619619
139	0x3d9408e0	0.07228255
140	0xbdcbe4dc	-0.09955761
141	0x3dcd20e0	0.10016036
142	0x3d09854d	0.03357439
143	0xbd7295b1	-0.059224788
144	0xbd8083da	-0.06275149
145	0x3ddc2a1e	0.10750221
146	0xbd357e7b	-0.044310074
147	0x3db17522	0.086649194
148	0xb9f94400	-0.00047543645
149	0xba0467e0	-0.0005050879
150	0xbda485b9	-0.08033318
151	0x3d96ead0	0.07369006
152	0x3da98abd	0.08278415
153	0x3db6e2f4	0.089300066
154	0xbc6e538b	-0.014546285
155	0x3d547a74	0.051874593
156	0xbde08c59	-0.10964269
157	0x3ce260e3	0.02763409
158	0xbde7a407	-0.113105826
159	0x3d6dc290	0.058046877
160	0xbde38753	-0.111097954
161	0xbc3ac194	-0.011398692
162	0x3d550c6f	0.05201381
163	0xbe0fc4e2	-0.14039949
164	0x3d8a11fc	0.067417115
165	0x3de55b58	0.11199063
166	0x3d8888d6	0.066667244
167	0xbd528c02	-0.051403053
168	0x3dc200b1	0.09472788
169	0xbd91aa83	-0.07112601
170	0x3df61c07	0.120170645
171	0x3c8f6872	0.017505858
172	0xbc6be5a5	-0.014398013
173	0x3cc12c8a	0.023580808
174	0xbdcb228b	-0.09918698
175	0xbd7c98a2	-0.061669
176	0xbcc1ca28	-0.023655966
177	0x3cfff642	0.031245355
178	0x3b4dbdd6	0.0031393669
179	0x3da070fe	0.078340515
180	0xbdccbff5	-0.099975504
181	0xbd8ba698	-0.068188846
182	0x3cc74ec9	0.02432956
183	0x3dc89ab2	0.09795131
184	0x3d39635b	0.04526077
185	0x3d535e50	0.051603615
186	0xbddd91ad	-0.10818801
187	0x3cde9e03	0.027174955
188	0x3d16aac4	0.03678395
189	0xbc47f971	-0.012205468
190	0x3d8e3dd2	0.06945385
191	0xbd47d274	-0.048784688
192	0x3dcbbc40	0.09948015
193	0x3d89c409	0.06726844
194	0xbd86f9d6	-0.06590621
195	0xbd962952	-0.073321
196	0xbca1c0d7	-0.019745274
197	0x3e156f0b	0.14593141
198	0x3a3a08b5	0.00070966344
199	0x3e0f3f3b	0.13988964
200	0xbd67f6aa	-0.05663172
201	0x3d977650	0.07395613
202	0x3e11805d	0.14209123
203	0x3dfc3ecc	0.12316665
204	0xbd10fa89	-0.03539518
205	0x3c974129	0.018463688
206	0x3d75cca3	0.06000961
207	0xbd13e6b1	-0.036108676
208	0x3d1075da	0.035268642
209	0xbd0ec398	-0.0348545
210	0xbd29d88c	-0.04146628
211	0x3d0d2304	0.03445722
212	0xbd68ee69	-0.05686799
213	0x3e0b315e	0.13593051
214	0x3d21f994	0.039544657
215	0x3e15845a	0.1460127
216	0x3d462f1e	0.04838478
217	0x3d7de118	0.061982244
218	0x3c523acf	0.012831404
219	0xbb9a5b9b	-0.0047106273
220	0xbd4ae498	-0.04953441
221	0x3defed10	0.11715138
222	0xbd804354	-0.06262842
223	0xbd812eb2	-0.063077345
224	0x3c17344c	0.009228777
225	0x3dc3ccea	0.09560569
226	0x3da17dcb	0.07885321
227	0x3db4798c	0.08812246
228	0xbc51cf77	-0.012805811
229	0xbd73cb86	-0.059520267
230	0x3e0c64a4	0.13710266
231	0x3d4ee4cc	0.050511166
232	0x3e0325fe	0.12807462
233	0x3d3ae0bc	0.04562448
234	0xbcc89590	-0.02448538
235	0x3e0c4e4e	0.13701746
236	0x3e177410	0.14790368
237	0x3d9bc063	0.07605054
238	0x3d8f41db	0.06994983
239	0x3dcede69	0.10101015
240	0xbbe70259	-0.0070498404
241	0x3d77c2d8	0.06048855
242	0xbdae9a71	-0.08525551
243	0x3d29fdab	0.041501682
244	0x3dc9b2c0	0.09848547
245	0x3dbb858f	0.09156334
246	0x3cd3a869	0.02583714
247	0x3cc35757	0.023845358
248	0x3dd5462a	0.10413773
249	0xbc86840d	-0.016420389
250	0x3e13fe96	0.14452586
251	0xbca13611	-0.019679101
252	0x3d56078d	0.052253295
253	0x3e1b0878	0.1513995
254	0x3dff72e8	0.124730885
255	0xbdb58245	-0.088627376

fc1.weight f4 [64, 64]
0	0x3b57d180	0.0032931268
1	0xbe25c88b	-0.16189782
2	0xbe0520b2	-0.13000754
3	0xbdb7de53	-0.08977952
4	0xbc6b8d46	-0.014376944
5	0xbe2cfa7f	-0.16892432
6	0xbdb80171	-0.0898465
7	0x3e0cf5a7	0.13765584
8	0xbe33f9b0	-0.17575717
9	0xbbf87ce5	-0.007583248
10	0xbcf31ec8	-0.029677764
11	0xbdce6f12	-0.10079779
12	0x3a25daaf	0.0006326837
13	0xbd6de147	-0.05807617
14	0x3dbd3981	0.092394836
15	0x3d4ad072	0.049515195
16	0x3c1afea2	0.009460123
17	0x3d5e0904	0.054207817
18	0x3e2fe21b	0.17176096
19	0x3e0d8bbf	0.1382284
20	0xbd67dfbb	-0.05660985
21	0xbdb7dd5b	-0.08977767
22	0xbd40a467	-0.047031786
23	0x3da0c910	0.0785085
24	0xbddb0cb8	-0.10695785
25	0x3d671cc3	0.056423914
26	0x3dd4c263	0.10388639
27	0xbdec1b05	-0.11528591
28	0xbe0c43ec	-0.13697785
29	0x3da6e516	0.081491634
30	0x3ca7c431	0.020479294
31	0x3e0cd4c9	0.13753046
32	0x3d24ba2f	0.04021662
33	0x3cf1a5ac	0.029497944
34	0xbdfbb840	-0.12291002
35	0xbd89cea5	-0.067288674
36	0x3ddaa684	0.106762916
37	0xbd6ef95d	-0.05834328
38	0xbd3adbca	-0.045619763
39	0x3e07e7d0	0.13272023
40	0x3d6a7ad2	0.057246037
41	0x3b308836	0.0026936657
42	0xbd9cc9d8	-0.07655686
43	0x3d94e0d3	0.07269444
44	0x3bc99572	0.0061518485
45	0x3cce6f6c	0.025199614
46	0x3c0a0b32	0.008425521
47	0xbd721154	-0.059098557
48	0xbdb17293	-0.086644314
49	0xbe0f36f0	-0.139858
50	0xbca1953d	-0.019724483
51	0xbd643007	-0.055709865
52	0xbdc4ec75	-0.09615413
53	0x3e2883ce	0.1645653
54	0x3e16a9e9	0.14713253
55	0xbcf78b63	-0.030217832
56	0x3e0ec249	0.13941301
57	0x3dc1e07d	0.09466646
58	0xbd97209d	-0.07379267
59	0xbe260af5	-0.16215117
60	0xbd1a832a	-0.037722744
61	0xbd571b90	-0.05251652
62	0x3dbabf32	0.09118499
63	0xbd93b737	-0.0721268
64	0x3d2aa409	0.041660342
65	0xbcb03397	-0.021508975
66	0x3d874349	0.066046305
67	0xbda57c97	-0.08080404
68	0xbdbcf70d	-0.09226809
69	0xbdb2899e	-0.08717655
70	0xbd9c62b0	-0.07636011
71	0xbd2b9bf1	-0.041896764
72	0xbd891668	-0.06693727
73	0x3db561a1	0.08856512
74	0x3c7886bf	0.015168845
75	0x3da62f8f	0.0811454
76	0x3d046df1	0.03233141
77	0x3c5e5453	0.013569909
78	0xbdc01092	-0.093781605
79	0x3d962c55	0.073326744
80	0xbd8c99db	-0.06865283
81	0xbd582709	-0.0527716
82	0x3d2d14a0	0.042255998
83	0xbdbb26ea	-0.09138282
84	0xbd880d06	-0.06643109
85	0x3dd2a7dc	0.10285923
86	0xbcd1537f	-0.02555251
87	0x3d38c447	0.04510906
88	0x3bb432b4	0.0054992083
89	0x3de5a3c1	0.11212874
90	0xbde98ff0	-0.11404407
91	0xbadb9b2b	-0.0016754618
92	0x3dec71d3	0.11545148
93	0x3dd0d57a	0.101969674
94	0xbc83faf4	-0.016110875
95	0x3d88a32c	0.066717476
96	0x3dfeec46	0.12447409
97	0x3cde05ae	0.027102318
98	0x3dee650c	0.11640367
99	0x3dc31e71	0.095272906
100	0xbdee2d2f	-0.11629712
101	0xbdc5f241	-0.09665347
102	0x3dddf184	0.10837081
103	0x3d365e19	0.044523332
104	0x3de03cbe	0.10949086
105	0xbc7ffb80	-0.015623927
106	0xbc854783	-0.016269451
107	0xbd81f747	-0.063459925
108	0xbd38fbc6	-0.045161985
109	0x3db99610	0.09061825
110	0x3df74d49	0.12075288
111	0x3dde527d	0.10855577
112	0x3d564188	0.05230859
113	0xbd23d14d	-0.039994527
114	0xbd79d1b1	-0.060990993
115	0x3d2bc74f	0.041938122
116	0xbd995d43	-0.074884914
117	0xbd979ed0	-0.07403338
118	0x3d209620	0.03920567
119	0xbd29bd78	-0.041440457
120	0x3d87c05e	0.06628488
121	0x3d75f12d	0.060044456
122	0x3dbec19d	0.093142726
123	0x3d89360d	0.066997625
124	0xbdbbe814	-0.09175125
125	0x3d4002c0	0.046877623
126	0x3ddcb059	0.10775823
127	0xbdcdf33b	-0.10056158
128	0x3dc0c11d	0.094118334
129	0xbc5e06e5	-0.0135514485
130	0xbde57701	-0.11204339
131	0x3d209def	0.039213117
132	0xbcca2a09	-0.024678247
133	0xbdf32b1f	-0.11873459
134	0x3da0e512	0.07856192
135	0xbcf2615e	-0.029587444
136	0xbd9e9210	-0.07742703
137	0xbdbef362	-0.09323765
138	0xbddf76d3	-0.10911336
139	0x3d44d08e	0.048050456
140	0xbdadeaf6	-0.08492081
141	0xbd196130	-0.0374462
142	0xbe00458f	-0.12526534
143	0xbd15bf9a	-0.03655968
144	0xbddb49d9	-0.10707445
145	0xbdb7416f	-0.08948027
146	0xbdecc32c	-0.115606636
147	0xbdcc1fd5	-0.09967009
148	0xbc46d673	-0.01213609
149	0xbdb0dc91	-0.0863582
150	0x3b727a0f	0.0036999022
151	0xbda68bc8	-0.0813213
152	0xbd80f5f9	-0.062969156
153	0x3cdaf650	0.02672878
154	0xbd475f66	-0.048674963
155	0x3d751d5f	0.059842464
156	0xbd8987e7	-0.067153744
157	0xbd2ffbf5	-0.042964894
158	0xbd9d9784	-0.07694915
159	0x3c8bd57b	0.017069569
160	0xbd16787d	-0.036736
161	0x3cb8fb78	0.022580847
162	0x3c90376e	0.017604556
163	0x3dfe1720	0.124067545
164	0xbd506056	-0.050873123
165	0xbd738d5d	-0.059460986
166	0xbda30e1e	-0.07961677
167	0xbb84b749	-0.0040501696
168	0x3d236787	0.039893653
169	0xbdac5715	-0.08415047
170	0xbd1631a2	-0.036668427
171	0x3d3232a6	0.043505333
172	0x3d5c88e7	0.053841498
173	0xbcd24b70	-0.025670737
174	0x3dee3198	0.11630553
175	0xbdde1397	-0.1084358
176	0x3d90f07f	0.07077121
177	0xbc6e1749	-0.014531919
178	0x3c4ce78f	0.01250638
179	0xbdccbd5d	-0.09997056
180	0x3dc7dffc	0.097595185
181	0x3cc0d27e	0.02353787
182	0xbdfd647b	-0.12372681
183	0xbcc0e2b2	-0.023545597
184	0xbde93a76	-0.11388104
185	0xbc0ab23c	-0.008465346
186	0xbd47f9e7	-0.04882231
187	0x3d06b43e	0.032886736
188	0x3d8b48e3	0.068010114
189	0x3d8e1eb2	0.069394484
190	0xbca38b2a	-0.01996382
191	0x3d0c8e17	0.034315195
192	0xbdeb80aa	-0.1149915
193	0xbd871526	-0.065958306
194	0x3d78d528	0.060750157
195	0xbdabfdbc	-0.08398005
196	0xbd7eaa5c	-0.062174186
197	0xbda169fa	-0.078815416
198	0xbb677100	-0.0035315156
199	0xbdddaa2c	-0.10823473
200	0xbd1ae810	-0.03781897
201	0xbdeab972	-0.11461152
202	0x3dfde4ba	0.12397142
203	0x3dbfe364	0.09369543
204	0x3dd604d6	0.10450141
205	0xbb197c80	-0.0023420155
206	0xbdce88ea	-0.10084708
207	0xbdefc5c8	-0.11707646
208	0xbc6c24f0	-0.014413103
209	0xbd6d34b8	-0.057911605
210	0x3cc67200	0.024224281
211	0x3df548f0	0.11976802
212	0xbdef217e	-0.1167631
213	0xbc701700	-0.014653921
214	0x3dce008e	0.100586995
215	0xbde1e22c	-0.11029467
216	0x3d8369d2	0.06416668
217	0x3c01f560	0.007932037
218	0x3d4bcf04	0.049757972
219	0xbcc6ef98	-0.02428417
220	0xbda1d1c4	-0.07901338
221	0xbde2a352	-0.11066307
222	0x3d7478f8	0.059685677
223	0xbddadf02	-0.106870666
224	0xbdeebaf6	-0.11656754
225	0xbd9fb114	-0.07797447
226	0xbc77fde0	-0.015136212
227	0x3c679db0	0.014136717
228	0x3ca2c4d0	0.019869238
229	0xbdb4606a	-0.08807452
230	0xbdd91818	-0.10600299
231	0xbd0deb5c	-0.034648284
232	0xbde64434	-0.112434775
233	0x3d4e9b88	0.050441295
234	0x3d356cdc	0.04429327
235	0x3d9f233e	0.07770394
236	0x3c17a0e0	0.009254664
237	0x3d8d482c	0.06898531
238	0xbd62f62c	-0.05541055
239	0x3d982600	0.07429123
240	0x3ddde1f2	0.10834111
241	0x3d4b1ec0	0.049589872
242	0x3d9d68b0	0.07685983
243	0xbd9aacae	-0.07552467
244	0x3b406b40	0.00293608
245	0xbd09c6b0	-0.03363675
246	0x3ca43c90	0.02004841
247	0x3d6d91c8	0.058000356
248	0xbdd9489e	-0.10609554
249	0xbdb2f412	-0.08737959
250	0xbd9d82ac	-0.07690939
251	0x3d4a6204	0.04940988
252	0x3cdcbeb8	0.02694641
253	0x3dd68030	0.104736686
254	0x3d390f88	0.045180827
255	0x3b324680	0.0027202666

fc1.bias f4 [64]
0	0x3d447c19	0.04796991
1	0x3cf010cc	0.029304884
2	0x3da3a715	0.07990853
3	0xbcb38ab0	-0.021916717
4	0xbd3ff494	-0.046864107
5	0x3dd8e87b	0.10591217
6	0xbccfabbe	-0.025350448
7	0x3dd6f1ba	0.104953244
8	0x3d8b2f13	0.06796088
9	0xbccc2633	-0.024920559
10	0x3ddb9e8b	0.10723599
11	0x3dd3f241	0.10348941
12	0xbb0e5f50	-0.002172429
13	0xbd91d7d6	-0.071212456
14	0x3e0e3743	0.13888268
15	0x3d0f96a9	0.03505579
16	0xbd90a862	-0.070633665
17	0xbcf53d68	-0.029936507
18	0xbd91c8cf	-0.07118379
19	0x3dc874a6	0.09787874
20	0x3e077779	0.13229169
21	0xbdc14690	-0.09437287
22	0xbca25099	-0.019813823
23	0x3d54275f	0.05179536
24	0x3d10aa9b	0.035318952
25	0x3de648ac	0.1124433
26	0x3dc95640	0.09830904
27	0x3d364059	0.04449496
28	0xbdaa5ce0	-0.08318496
29	0xbd03b1f5	-0.032152135
30	0x3d2feb67	0.042949107
31	0xbc3dad0d	-0.011576903
32	0x3da4e119	0.080507465
33	0xbd863c26	-0.06554441
34	0x3de89b64	0.113577634
35	0xbded62dc	-0.115911216
36	0x3caaf2b5	0.020867685
37	0x3c0f20a6	0.008735811
38	0xbba2da82	-0.004969896
39	0xbddf9510	-0.10917103
40	0xbcc473e6	-0.023981046
41	0xbd26dc7e	-0.04073762
42	0x3db5df2f	0.088804595
43	0xbda55c80	-0.080742836
44	0x3e02b86f	0.12765668
45	0x3dd92b49	0.10603959
46	0x3d0d6f88	0.034530193
47	0x3e0122c9	0.12610926
48	0x3d00dfef	0.03146356
49	0x3ddfc87c	0.10926911
50	0x3e07b8a5	0.1325403
51	0x3e055701	0.1302147
52	0x3b9d8460	0.00480704
53	0x3da62e8e	0.08114348
54	0xbd497719	-0.049185846
55	0x3cd5c8cc	0.026096724
56	0x3d536753	0.05161221
57	0xbd81bfd8	-0.063354194
58	0x3dcba3c9	0.09943349
59	0xbccbc7ef	-0.02487561
60	0x3d95d5e2	0.073161855
61	0x3d70eacc	0.05881767
62	0xbd97dd26	-0.074152276
63	0x3d8dd31b	0.06925031

fc3.weight f4 [3, 64]
0	0x3cdbbe7a	0.026824225
1	0x3c9991b4	0.018746234
2	0x3d29c07b	0.04144333
3	0xbc909fb0	-0.01765427
4	0xbe32e486	-0.17469987
5	0x3e19591f	0.14975403
6	0x3e318678	0.17336452
7	0x3c3f0ba9	0.011660495
8	0xbda13ed4	-0.07873312
9	0xbdea4239	-0.11438412
10	0xbd3feee3	-0.04685868
11	0xbcb8078f	-0.022464542
12	0x3e085fb0	0.13317752
13	0xbd32e94a	-0.043679513
14	0x3e33b4ef	0.1754949
15	0x3c371686	0.011174804
16	0xbe3c9433	-0.18415909
17	0xbd7dcf48	-0.061965257
18	0x3da91370	0.082556605
19	0x3e043ea6	0.12914523
20	0x3e05522a	0.13019624
21	0x3e25ab9c	0.16178745
22	0xbdeb235b	-0.11481353
23	0x3df6083a	0.12013288
24	0x3d9710d9	0.0737626
25	0xbd1140ae	-0.035462074
26	0x3dce0d6f	0.10061156
27	0xbded375d	-0.11582825
28	0xbe1d196d	-0.1534173
29	0xbdff314a	-0.12460573
30	0xbe499415	-0.19685395
31	0x3d10ae2f	0.035322364
32	0x3ce553ba	0.027994025
33	0xbdff8295	-0.124760784
34	0xbdb5f04a	-0.08883722
35	0xbd937706	-0.07200436
36	0x3db2a1b4	0.08722249
37	0x3e01c4c5	0.12672718
38	0x3d60693e	0.054787867
39	0x3ac6b280	0.0015159398
40	0xbe1a559b	-0.15071718
41	0xbe409f69	-0.1881081
42	0xbdc1c34e	-0.094610795
43	0xbdb21a84	-0.08696464
44	0x3e31b4fe	0.173542
45	0xbd34a3c0	-0.044101477
46	0xbdbb9728	-0.0915969
47	0xbc302e76	-0.010753265
48	0x3d8a78e4	0.06761339
49	0xbdfe9c61	-0.12432171
50	0xbd7d1c4e	-0.06179457
51	0xbb09d59d	-0.0021031864
52	0x3db4390b	0.087999426
53	0xbd98dc2c	-0.074638695
54	0x3e277359	0.16352595
55	0x3e262e08	0.16228497
56	0x3d93935e	0.072058424
57	0x3d9f25c2	0.077708736
58	0xbd776a29	-0.060403977
59	0x3d3f8080	0.046753407
60	0xbdb82900	-0.08992195
61	0x3d43028d	0.047609854
62	0x3d2cd560	0.042195678
63	0x3dd622a8	0.10455829
64	0xbe2bdad2	-0.16782692
65	0x3d77069d	0.06030904
66	0x3db0016f	0.085940234
67	0xbd555094	-0.0520788
68	0x3e37bad3	0.17942362
69	0xbca2d9b1	-0.019879194
70	0xbdf0d57f	-0.11759471
71	0x3e1168b6	0.142001
72	0xbd25bddc	-0.040464267
73	0x3de10749	0.10987718
74	0x3da93d5b	0.08263656
75	0xbda4937f	-0.08035945
76	0xbe325817	-0.17416416
77	0x3dbc0ceb	0.091821514
78	0xbd27659f	-0.040868398
79	0xbd0b1d66	-0.033963583
80	0x3e03377b	0.12814133
81	0x3b6afdc0	0.0035856813
82	0xbc4facc5	-0.012675469
83	0xbdeee759	-0.1166522
84	0x3cccfd13	0.025023019
85	0x3c3707cc	0.0111712925
86	0x3a7c77c1	0.0009630882
87	0xbe34d04a	-0.17657581
88	0xbe2e6663	-0.17031245
89	0xbe2cf999	-0.16892089
90	0xbda895f2	-0.08231725
91	0xbce3287b	-0.027729264
92	0x3d3bb509	0.045826945
93	0xbd4992aa	-0.049212135
94	0x3e27c7af	0.16384767
95	0xbe020a5a	-0.12699261
96	0xbd28f6a8	-0.041250855
97	0x3d48b7e0	0.049003482
98	0x3bdeb04d	0.006795919
99	0x3dd360f0	0.10321224
100	0xbdc7bbdd	-0.09752629
101	0x3ddce7a2	0.10786368
102	0x3e066060	0.13122702
103	0xbddc378c	-0.10752782
104	0xbcda9614	-0.026682891
105	0x3d8b11af	0.06790482
106	0x3def1e2b	0.11675676
107	0xbd91764e	-0.07102643
108	0xbd8bb18a	-0.06820972
109	0x3ccf396d	0.025295937
110	0x3db69f59	0.08917112
111	0xbe264c50	-0.16240048
112	0x3d212b72	0.039348073
113	0x3e0d7e26	0.13817653
114	0xbcb5c699	-0.022189425
115	0xbd8782f4	-0.06616774
116	0xbcc6eb29	-0.024282055
117	0x3a507183	0.0007951485
118	0xbe1d7322	-0.15375951
119	0xbe24b2fa	-0.16083899
120	0x3d9510be	0.07278584
121	0x3d6db82c	0.058036968
122	0x3bda6990	0.006665416
123	0x3d906310	0.07050145
124	0x3d6dfaa6	0.058100365
125	0xbd400dff	-0.046888348
126	0x3cf833b8	0.030298099
127	0x3d436c3d	0.047710646
128	0xbe136009	-0.14392103
129	0x3ce52380	0.02797103
130	0x3ca578a7	0.020199133
131	0xbdc950d6	-0.09829871
132	0x3bc6bcce	0.0060649877
133	0xbdb2a41e	-0.08722709
134	0xbd45cf7a	-0.04829357
135	0xbd81017d	-0.06299112
136	0xbe2438d2	-0.160373
137	0x3d5af67d	0.053457726
138	0x3de6e8a7	0.11274844
139	0x3d95f832	0.0732273
140	0xbdb011f4	-0.08597174
141	0xbda5447e	-0.080697045
142	0xbcbc520b	-0.02298834
143	0xbe045863	-0.12924342
144	0xbcfa0f50	-0.03052488
145	0xb8ea0800	-0.000111594796
146	0x3cdbea43	0.026845103
147	0xbe0bb231	-0.13642193
148	0xbe1eeb85	-0.15519531
149	0xbdc48089	-0.09594829
150	0xbdb238db	-0.087022506
151	0xbd995dca	-0.07488592
152	0xbdb964d3	-0.09052434
153	0xbc7108c6	-0.014711564
154	0xbda5db77	-0.080985
155	0x3de13954	0.109972626
156	0x3d0daca8	0.034588486
157	0x3c0ea096	0.008705279
158	0x3d50a42a	0.05093781
159	0xbd2666bb	-0.040625315
160	0xbdfe9fbd	-0.124328114
161	0x3d007352	0.031359978
162	0x3db7e12b	0.08978494
163	0x3d997240	0.074924946
164	0xbdc332f0	-0.095312
165	0xbde0c553	-0.109751366
166	0x3cbd2465	0.023088643
167	0xba11b400	-0.0005558133
168	0x3dad7579	0.08469672
169	0x3d0d131b	0.03444205
170	0xbbc4c9a6	-0.0060054837
171	0x3d4e9a7a	0.05044029
172	0xbdd64034	-0.104614645
173	0x3dc23b08	0.094839156
174	0xbab7758a	-0.0013996821
175	0xbd928143	-0.07153561
176	0x3dd7bb38	0.10533756
177	0xbdbaf51c	-0.09128782
178	0xbdde87db	-0.10865756
179	0xbe01a573	-0.1266077
180	0x3dd3c23f	0.10339784
181	0xbdeb10bc	-0.11477801
182	0xbe266ef2	-0.1625326
183	0x3cae882d	0.021305168
184	0x3df5a5ee	0.11994539
185	0xbd2e1105	-0.0424967
186	0x3d66dbcd	0.056361962
187	0x3b88448a	0.004158561
188	0x3db736b7	0.08945983
189	0xbdce7e0b	-0.100826345
190	0xbdaeaa3e	-0.08528565
191	0xbd4d93f3	-0.050189923

fc3.bias f4 [3]
0	0x3d55496a	0.052071966
1	0x3dcb1748	0.0991655
2	0xbcb5abd4	-0.02217666
