model/save/v8.15_2022-08-30_14-09/model.pt (torch, 286107 bytes, 8 tensors)

lstm.weight_ih_l0 f4 [128, 512]
00000000: 25c0 c0bc fed3 8abd fa70 1cbe 037a 1a3e
00000010: 351f 1d3d 54b2 6b3c 34b0 b1bd 9e30 fd3d
00000020: effc b23b 8552 13be 8e82 09be 78ec 223e
00000030: 13a5 e63c a41d f3bd 8e1d c8bd 4889 003e
00000040: 47b5 c83c 53a6 1bbe 7957 19be 5b3b 02be
00000050: 3d6b 013e 2e4a ef3d 7919 243e 858c 1c3e
00000060: 0205 31bd c342 e6bd cd7f c23d ba0d 703b
00000070: 8f7c 90bd a3a0 5c3d efc5 84bd 91e1 fc3d
00000080: 4a91 803c 8676 9abd 6af7 0abd cd47 413d
00000090: 7a69 523d 1d4f 3ebe 6b47 04be 735b d6bd
000000a0: 8765 b1bd 7651 f4bd b12e 6d3e 2643 82bd
000000b0: 82cb 553d 7dd1 123e 763f 5a3d ac38 1fbd
000000c0: b9f1 d43d 36b7 6f3d f3c8 19bd a88f ba3d
000000d0: 70ca 88bd 0ae4 eabd fe40 babd 7128 6c3e
000000e0: 1144 9cbd e9d2 95bd a4c7 8f3e 6530 9d3d
000000f0: a863 9abd 7686 39be 01dc 953d 45e5 9bbe
00000100: 98a5 fc3d 5f04 84bd 099c 7c3e 87fb 07be
00000110: 9825 17bd 7c31 a33d 9a55 7c3e 4fc6 6b3e
00000120: 511f 9b3e e15f c03c 0282 f03d 6f8a 0f3d
00000130: 8b99 95bd 6c96 19bc 1b7a 6abd 1a03 cb3d
00000140: 1621 0d3e 926a 1c3e ecc9 13be 2801 933d
00000150: 258a 2c3d f033 cb3d c9e0 e5bc f35f c13c
00000160: f319 103e abdc 323e 8a15 b4bc da02 cd3d
00000170: 9fd1 a2bb d1d8 9ebc 8f62 a23d afef e0bd
00000180: 505b 92bc 09ee 123e 3a2c 263e 9da7 aebc
00000190: c813 0d3d e86a 8a3d b05e b93d 4287 833d
000001a0: 31c9 19be 95c7 3a3d 2d07 90be d91d aebd
000001b0: 1b62 053d b868 bf3d 3aa3 1fbd a21d 053b
000001c0: bbf2 7dbd cbe1 d7bd 1820 e5bd bb0f c7bb
000001d0: 38dc 673d 89e6 243d 5cf3 2cbd 8935 38be
000001e0: 5496 b3bc a696 f33c 2aaa 35bd 8cbc e1bd
000001f0: 8fe2 123d 64b4 febd 2d7f c33d 7bce 5f3e
00000200: f6b6 6bbd 88e2 afbd b6e1 1fbe f361 aabd
00000210: d8b0 9cbd 85fa 0f3d b24a 3c3e 3bb9 5abc
00000220: 8077 173e 3df4 9dbd 9eb9 93bd 0d84 643e
00000230: 8491 203e 48e8 12bd 1f6b 043b 33a7 8fbd
00000240: 19d3 ddbd 30ce e8bd ce8f 973d 4afe 8dbc
00000250: 7048 01bd 620b 78bd 4b7a 5d3e dc51 aebc
00000260: 1776 b43d 1acf 2ebc 4801 84be 75c4 f03d
00000270: 9d1b 0ebd eedc 68bc 0cd4 483d 6eba a03d
00000280: fa08 26ba 7087 82be 67e3 273e 9c0a 6d3e
00000290: d1f8 efbd 0333 42bd c1fc 06be 8bba f33c
000002a0: 3932 563d ed10 243e 3b87 b5bd 269a 8c3d
000002b0: 6b17 c6bc 0a6b 0fbd f456 7bbe 31b4 75bd
000002c0: b08f 8c3d 2d93 e2bd 9550 d93d d362 37be
000002d0: de08 5d3e 2076 263d 9a57 afba f911 c9bb
000002e0: e01f 4a3c 1cce 073e 86d6 fd3c df07 02be
000002f0: 9876 0fbe 584f fc3d 0238 f6bd 745e 983d
00000300: 73da 1c3e 2c34 763d fb31 c6bd 722a c93d
00000310: 1265 873b eb26 a93d d7b1 cd3b 0a85 023e
00000320: e368 77bd 042c f6bd 1591 493e 475d 0bbe
00000330: df3e bc3d d366 2cbd 356f 3b3e 754e f73d
00000340: cc99 4bbe 34e7 a5bd ff88 21be 8bd9 9f3d
00000350: 4cb9 3a3e 4243 36be 839e 07be 3617 483d
00000360: f966 513e a62e bb3a 2aa6 823d 5eac 1dbe
00000370: 1ae4 553e 3d0b 87bd cafb 71bb 7e73 bcbd
00000380: a935 9a3c 0ef5 9fbd a674 84bd 1766 6bbd
00000390: 97a1 06be 82c8 9b3d e852 01be 8909 1a3e
000003a0: 3235 013e da1d 9abd 1faf 7b3d 4f4c 65be
000003b0: ad20 92bd 1441 623e ef00 2cbd b4dd f93b
000003c0: 9439 523d b421 c7bc b5cc 8cbd 0c3f 49bc
000003d0: 20af 40be ee0c 113e 9340 d13d 4f84 893e
000003e0: fe4d 92bc 0932 2dbe 9548 0d3e 19fa 933d
000003f0: 61e1 b9bd 9228 f33d f350 893c 210e 5cbd
-0.023529122 -0.067787156 -0.15277472 0.15085606 0.03835984 0.014385778 -0.08676186 0.123627886
0.005462281 -0.14386947 -0.13428709 0.15910518 0.028154885 -0.11870888 -0.09771262 0.12552369
0.024500502 -0.15200166 -0.14974774 -0.12717955 0.12638564 0.116840705 0.16025342 0.15287979
-0.043217666 -0.112432025 0.09497032 0.0036629275 -0.07055008 0.053864133 -0.06483065 0.12347711
0.01569428 -0.07542138 -0.03392736 0.047187615 0.05137012 -0.18584867 -0.12917869 -0.10466661
-0.08661943 -0.119296 0.23162343 -0.06360464 0.052196033 0.14337726 0.053283177 -0.038872406
0.103976674 0.058524333 -0.037545156 0.091094315 -0.06679237 -0.11469276 -0.090944275 0.23062302
-0.0763017 -0.073156185 0.28082 0.07675246 -0.07538539 -0.18117699 0.07317353 -0.30448356
0.12336272 -0.06446146 0.24668898 -0.13279544 -0.036901087 0.07968423 0.2464203 0.23024867
0.3029733 0.023483219 0.11743547 0.03504413 -0.073046766 -0.009374242 -0.057245355 0.09912701
0.13782153 0.15275028 -0.14432496 0.07177955 0.042123932 0.09922016 -0.028061287 0.023605322
0.14072399 0.1746699 -0.021982927 0.100103095 -0.0049688364 -0.019390495 0.07928955 -0.10983216
-0.017865807 0.14348616 0.16227809 -0.021320159 0.034442693 0.06758672 0.09051263 0.06422283
-0.15018155 0.045600493 -0.28130475 -0.08501787 0.032564264 0.093461454 -0.038974024 0.0020311852
-0.061999064 -0.105411135 -0.11187762 -0.0060748733 0.0566065 0.040258918 -0.042224273 -0.17989172
-0.021922268 0.02973492 -0.044351734 -0.110222906 0.035860594 -0.124367505 0.09545741 0.2185611
-0.057547532 -0.08588129 -0.15613446 -0.083194636 -0.07650918 0.035151023 0.18387869 -0.013349826
0.1479168 -0.077126004 -0.07213138 0.22315998 0.1568051 -0.035866052 0.002020545 -0.070143126
-0.10831279 -0.11367452 0.074004754 -0.017333169 -0.031563222 -0.06055773 0.21628682 -0.021279268
0.08811586 -0.010669494 -0.25782228 0.11756221 -0.034694303 -0.01421283 0.04903035 0.07848059
-0.0006333735 -0.25493956 0.16395341 0.23148578 -0.1171738 -0.04741193 -0.13182355 0.029752037
0.05229399 0.16022082 -0.08863684 0.06865339 -0.024181088 -0.03501419 -0.24544889 -0.059986297
0.06863344 -0.11063228 0.10611073 -0.17908792 0.21585414 0.040639997 -0.0013377548 -0.0061361757
0.012336701 0.13262218 0.030986082 -0.12698315 -0.14010084 0.12319821 -0.120224014 0.074398905
0.15317707 0.06010835 -0.09677502 0.09822549 0.0041319216 0.08259376 0.0062773037 0.12746063
-0.060402762 -0.12020114 0.1968425 -0.13609801 0.09191679 -0.04209025 0.18304141 0.12075511
-0.19882888 -0.08100739 -0.15774916 0.07805165 0.18234748 -0.17799094 -0.13244061 0.04885026
0.20449437 0.001428087 0.063793495 -0.15397784 0.20887795 -0.065939404 -0.003692376 -0.09201716
0.018824415 -0.07810412 -0.064675614 -0.057470407 -0.13147579 0.07606603 -0.12629282 0.150427
0.12617949 -0.07525225 0.061446305 -0.2239239 -0.07135139 0.22095138 -0.041993078 0.007625306
0.051324442 -0.024308063 -0.06874982 -0.012283098 -0.18816805 0.14165089 0.10217395 0.26858756
-0.017859455 -0.16913618 0.13797219 0.07225437 -0.09076191 0.118729725 0.016762232 -0.053724412

lstm.weight_hh_l0 f4 [128, 32]
00000000: f0f4 d73d 1069 403d 6c2d eb3d 6861 373e
00000010: 3220 72bc e583 5cbd 7dcd 0f3e 9738 9f3d
00000020: 4987 973d 4c5d 60be 93e2 e23d 0afc 05be
00000030: 770f 563d 58ef 3fbe 851f 47be ebb6 6f3d
00000040: 239b 52bd bc70 253e dacb 30bd a95d a43d
00000050: d81d eb3c 93a6 1bbe 8b1e 8abd 9357 c53d
00000060: 164f 1bbe 5246 c93d 1b12 d5bd 7562 643c
00000070: a6de 50bc 71bf 21be 7605 a7bd 56a4 d83d
00000080: 8e28 03be 447b 29bd fa1c bf3d 91c2 b73d
00000090: 1ccf 21be d274 0c3d 776b 07bc cfca 173e
000000a0: 1eb3 4fbc 18bc 3c3d 8452 143e bba7 873d
000000b0: 19a4 2c3d 5061 00be 4405 8ebd ff87 5dbd
000000c0: bc9e 4bbe 0e9e f7bd 4702 033e 6959 9cbc
000000d0: 7f76 8fbd 3c0b 443e 3921 43bc 745d 53bd
000000e0: b0b2 92bd 332d 78bd 2e85 e3bd 8a4c 053d
000000f0: 5b98 353d 3247 eb3d 10f3 13be f4eb 7bbd
00000100: 51e7 b73c c321 d63d ee47 eebd 3e00 f23d
00000110: c1be e4bd afca 4c3e 8fe4 f33d f782 113e
00000120: 8861 4abd 463b d13c 0ba2 37be 9cc8 8ebd
00000130: e738 873d 3ce0 da3d e4df ea3c d5c9 7c3d
00000140: a882 a5bd 73ce 393e 1c41 363d 542a 87bd
00000150: 57cc d03c 782c b1bc 37db 3cbe 12f7 2e3e
00000160: 7557 103e 68a1 9e3c aadc a6bd 99f6 24bd
00000170: 52f4 23be 4242 73bd 0b8e dbbb 796d c13d
00000180: 8f34 a73d f2ff 6c3e 4b71 12be 81c8 9b3c
00000190: 1f3d dcbd 3085 a63d 8978 573e 5fb8 e43d
000001a0: 4bb5 f4bc af20 5e3c b002 76be 76fa df3d
000001b0: 504e aa3b c4a2 b8bd 38f6 85be cf2f b2bd
000001c0: 225f 2dbd 0e6c 95bc ce90 0dbd 3a41 bd3c
000001d0: 44a8 9b39 e698 513e 6776 2cbe 87c9 8b3e
000001e0: ea5d 7f3e 13e9 c3bc 3a48 7abe 75d7 233e
000001f0: 32a2 99be c8c7 acbd 11df 353e b685 37be
00000200: ade2 05be e63e aa3d cea4 2ebe 8143 323e
00000210: 9af1 66be 74ff 6d3e 5dcf babd f188 2d3e
00000220: e390 60bd fa4c cbbd f8ed 493d 0bc4 343e
00000230: f8ef 53be 60fa 5bbd 92b7 23be 661d e13c
00000240: 2077 86bd 2c95 2fbd f6e2 e3bc 5c4c d2bd
00000250: 69b4 11be a175 26bd 1ec6 e7bd 978c d3bb
00000260: e7bf cfbc 413f b4bd c321 fabd e17f ed3d
00000270: 2f28 a13d c979 05be 29fa 7f3d 42df 883d
00000280: f08a 41be 7eb0 dc3d 3f4f 51be 6364 943d
00000290: 2538 34be bc84 ecbd 8de8 793d beb2 383e
000002a0: 4631 f4bd 66e2 93bd 904e c0bd 11f9 913d
000002b0: 2db5 73bd 375c 0dbe 426f d7bd b2e3 d4bb
000002c0: aa5f 3fbc c658 e83d 247c 0b3d 87f4 62bc
000002d0: 82c6 f5bd f455 243d 9018 3cbc 8031 05be
000002e0: b75b c53d 0a6c 7d3e 6140 04be 5406 ba3d
000002f0: 85f4 ff3d b7cc 31be f7dd 8b3e 5472 32be
00000300: 56df 55bd f69f 7b3d 6728 0fbe f00d 3f3e
00000310: 53d2 d0ba 2538 d93d 2eed 8b3d c95e 293e
00000320: 3d64 103e a7d2 543d 6cb5 5d3e e730 c6bd
00000330: d41c 81bd c13e 99bd 078f bd3c 3380 1b3d
00000340: 156b 173e dfb2 febd e34b 4abe 2a70 18be
00000350: fe67 e8bc e5f2 333e 5eca 43bd d3f2 a3bd
00000360: 605d fb3d 6726 64bc 1a6c 64be 10f9 c8bd
00000370: a716 2d3e be31 15be 6592 fd3c f124 5bbe
00000380: 6f37 163d be23 4c3e 668e 91bc 7735 513e
00000390: 8f7c edbd 91c1 07bc 87be 963c 85ec d2bd
000003a0: aaf8 883d 155f 7fbb 7c97 0f3b fa62 833d
000003b0: cd0c 36bd e0ca cc3d 5f63 a1bd a3a8 8d3d
000003c0: 1068 293e d1d6 083d 1f4e 7cbc 1ff9 823d
000003d0: ca39 b8bd e77a bcbb 942e 3cbe 8ceb f8bd
000003e0: a2b5 4c3e 7595 803d 74e3 01be 9afc 2d3e
000003f0: 0ef8 10be 36ba 83bd 32f8 1c3d fcd0 40be
0.10544765 0.046975195 0.11483273 0.17908251 -0.014778184 -0.053836722 0.14043231 0.077744655
0.073988505 -0.2191059 0.11078372 -0.13084427 0.052260842 -0.18743646 -0.19445617 0.058524054
-0.05141748 0.16156286 -0.043163158 0.08025677 0.028700754 -0.15200262 -0.06744107 0.09635844
-0.15166888 0.09827866 -0.10403844 0.01393949 -0.012748396 -0.15795685 -0.081553385 0.105782196
-0.12808439 -0.04137732 0.09331699 0.089726575 -0.15801662 0.034291096 -0.008265368 0.14823459
-0.012676982 0.046077818 0.14484602 0.06623789 0.042148683 -0.12537122 -0.06934598 -0.054084774
-0.19884771 -0.120906934 0.12793837 -0.019085603 -0.07005023 0.1914491 -0.011909776 -0.051602796
-0.07162988 -0.06058998 -0.111093864 0.032543696 0.04433475 0.11488189 -0.1444819 -0.06150432
0.022449167 0.10455658 -0.11634813 0.118164524 -0.11169196 0.19999193 0.119088285 0.14210115
-0.04940942 0.02554096 -0.17932908 -0.06971857 0.0660265 0.106873006 0.028671212 0.06171592
-0.08081561 0.1814516 0.044495687 -0.0659987 0.025488062 -0.02162765 -0.18442999 0.17086437
0.14095862 0.019364074 -0.08147557 -0.040274236 -0.1601117 -0.05938936 -0.0067002825 0.094447084
0.08164322 0.2314451 -0.1430103 0.019016506 -0.107538454 0.08130872 0.21042074 0.111679785
-0.029871603 0.013557597 -0.24024463 0.109364435 0.005197324 -0.0901542 -0.26164412 -0.08700525
-0.042327054 -0.018240001 -0.034561925 0.023102392 0.00029689271 0.20468482 -0.16842042 0.2730219
0.24938169 -0.02391485 -0.24441615 0.16000159 -0.30006558 -0.08436543 0.17760874 -0.179221
-0.13074751 0.08312778 -0.17055055 0.17408563 -0.22553101 0.23241979 -0.09121583 0.1694677
-0.054825675 -0.099267915 0.04929921 0.1765291 -0.2069701 -0.053705573 -0.15987995 0.027479839
-0.0656569 -0.04286687 -0.027818184 -0.10268471 -0.14228977 -0.040639523 -0.11317085 -0.0064559686
-0.02536006 -0.08801127 -0.12213471 0.115966566 0.078689925 -0.13034739 0.06249443 0.06683208
-0.18900657 0.10775851 -0.20440386 0.0724571 -0.17599542 -0.115487546 0.061012793 0.18036935
-0.11923461 -0.072209165 -0.093899846 0.07127584 -0.059498955 -0.13804708 -0.105192676 -0.00649687
-0.011680523 0.11345057 0.034053937 -0.013852245 -0.12000753 0.040121034 -0.0114804655 -0.13007164
0.09636634 0.24748245 -0.12915184 0.09083238 0.1249781 -0.17363249 0.27317783 -0.17426425
-0.052214943 0.061431848 -0.13980256 0.1865766 -0.0015931822 0.10606412 0.06832348 0.16540064
0.14100738 0.051958706 0.21651238 -0.09677296 -0.06304327 -0.074826725 0.02313949 0.037964057
0.14786942 -0.12436461 -0.19755511 -0.14886537 -0.0283699 0.17573126 -0.047800414 -0.080052994
0.12273669 -0.013925171 -0.22306862 -0.0981313 0.16903172 -0.14569756 0.030953595 -0.21400811
0.03667396 0.1993551 -0.017768096 0.20430551 -0.11596023 -0.008285896 0.018401397 -0.10299019
0.06688054 -0.0038966585 0.002191036 0.06415363 -0.0444458 0.09999633 -0.07880282 0.069169305
0.16543603 0.03340799 -0.015399485 0.06395172 -0.089953974 -0.005751956 -0.18377143 -0.12154302
0.19991162 0.06278507 -0.12684423 0.16990891 -0.14157125 -0.06432001 0.038322635 -0.18829721

lstm.bias_ih_l0 f4 [128]
00000000: 5763 a5bd 63d6 183e e25a 343e e3f4 a23d
00000010: 0195 f23d 51c2 6e3d b4ef 463c 5c92 08be
00000020: 6338 debd fa9a 003e bdd4 37ba a378 3cbb
00000030: f910 393d 242e 353e 8899 c33d e6ee 8b3e
00000040: 8b5e 873d bd9c 86bd 9f51 033d 3a83 15be
00000050: 55d0 383e 8191 853e 61c4 ac3d 90ae 4b3e
00000060: c1e3 383e 47e9 a7bc 7451 1abd 9123 0d3e
00000070: e41a 873e e39d 6c3d e756 9a3c 2b52 8d3c
00000080: 4e08 7f3d 219a a93d 3a73 96bd 6e77 803d
00000090: 1a8b 053e fff5 1b3e 4d55 4d3e 7b8e d43d
000000a0: 5923 1fbe a48d 033e 9baa 0ebd b3f1 803d
000000b0: 7997 0f3e eaca 123e 9b0b 1a3e 38a2 373e
000000c0: 4750 123e f6b5 583e 3996 83bd 0002 773e
000000d0: 6308 4abc dcdb cd3d 2c18 593d a458 3b3e
000000e0: 540e ca3b fcde 423e 78cb 803b a2c4 4f3e
000000f0: 9880 2a3d 2c51 8bbc f959 953d 1b90 a5bc
00000100: b8b5 c83d d722 2b3e 2917 28be 37d8 16be
00000110: 229a 3b3d 9052 fe3d d458 9bbd 5315 e03d
00000120: 49d8 17be c5ec 90bd 0c20 263e 15a6 1c3e
00000130: 09db 06bd 2959 0abd 6543 b9bd eda1 11be
00000140: 5453 0cbe 94fa ccbc d497 1d3e 9bfa b33c
00000150: cc78 80bd b713 423e 9ccc 82bd f0d4 223e
00000160: 9197 323e 2be6 df3d 0fce 5cbd 0b4c 3c3e
00000170: 923e 1fbe 586d 3dbd 6733 4f3b 9bc1 b7bd
00000180: 0369 f53c 5c4e 263e 1405 963d 6783 1a3c
00000190: 5aab 593d f512 503e 1cfc 763e 51da 3b3e
000001a0: 1156 633e eee2 84bd 8c9a 05bd 13e9 13bd
000001b0: 06de 9c3d da5f aebd 0959 06bd a564 4b3e
000001c0: 88ac b8bc 6040 2c3e 06b7 b4bc 83fc 143d
000001d0: 0408 403e 0f2b 3c3e c7bd 143e 212a aa3d
000001e0: 3580 97bd c8f3 ecbd 93f4 83bd 3c6f 5d3e
000001f0: d565 8ebb fd72 de3d 0ac1 eaba dd2b be3c
-0.08075588 0.14925532 0.17612794 0.07956865 0.118448265 0.058290783 0.012142111 -0.13337082
-0.10850599 0.12559119 -0.00070125965 -0.0028758429 0.045182202 0.17693383 0.09550768 0.27330703
0.066098295 -0.06572864 0.03206026 -0.1460084 0.18048222 0.26087573 0.08435894 0.19890809
0.18055631 -0.020496977 -0.037675336 0.13783099 0.26387703 0.05776776 0.018840266 0.017251095
0.06226378 0.08281351 -0.073461965 0.062727794 0.13041344 0.15230559 0.20052071 0.103787385
-0.15540828 0.12847 -0.03483067 0.062961005 0.14022626 0.14335218 0.1504349 0.17932975
0.14288436 0.21163163 -0.06425137 0.24121857 -0.012331101 0.100517005 0.053001568 0.18295532
0.006166259 0.19030374 0.0039305054 0.20289853 0.041626543 -0.01700648 0.072925515 -0.020210316
0.09800285 0.16712509 -0.16415085 -0.14730917 0.04580129 0.12418091 -0.07585302 0.10941567
-0.148286 -0.0707641 0.16223162 0.1529773 -0.032923732 -0.033776436 -0.090460576 -0.14221926
-0.13703662 -0.025021829 0.15389949 0.021970084 -0.0627304 0.18952833 -0.063866824 0.15901542
0.1744063 0.10932573 -0.05390745 0.18388383 -0.15551212 -0.046246856 0.0031616332 -0.08972474
0.0299573 0.16240829 0.07325187 0.009430743 0.05314193 0.20319732 0.2411961 0.18345
0.222008 -0.06488596 -0.03261809 -0.03611095 0.07659535 -0.08514376 -0.032799754 0.19862612
-0.022543207 0.16821432 -0.022059929 0.036373626 0.18753058 0.183758 0.1452552 0.08308817
-0.073975004 -0.11569935 -0.06443133 0.21624464 -0.0043456354 0.10861776 -0.0017910313 0.023214275

lstm.bias_hh_l0 f4 [128]
00000000: 75ee a13d ff67 953d 3436 96bb bb87 793d
00000010: c20a e8bd 90e2 873d d838 2ebd d1a6 3c3e
00000020: 23e9 b83c db35 febc fd41 b53d db41 863c
00000030: af01 363d c3e3 5ebc a54f 3d3e b49e 2f3c
00000040: 6f94 02be 60c1 133e f4ac e73c 88f8 ebbd
00000050: ad42 f5bc 899c 0f3e 2633 8a3d 54d8 673e
00000060: 1ba0 ca3c 452f d2bd 4b88 eb3d 7917 143e
00000070: b4c2 d53d ab96 f33d 9487 0f3e 0e92 05bd
00000080: 4c3d bd3d 9bfd 0f3e 27b3 ddbd c5f8 183d
00000090: 6cf3 d4bd 4056 223e 6aec 463e 6ac1 f53c
000000a0: 2933 cbbd 0c46 8c3d 4436 803d b2bc 86bc
000000b0: 4dc2 0fbe 4d7b 033e 4495 a23d e34c 6ebd
000000c0: 1ce4 523c 4ed8 78bd 270e 333e 7d33 553e
000000d0: 5a16 b73d e97e 603e 6099 56bd 2364 263e
000000e0: 0d92 6b3e 0c52 77bd 4e01 92bd a492 443e
000000f0: c26f eabd c93d 1d3e 1685 f2bc 397a 943d
00000100: 1a0d f4bd a737 d2bd bc57 66bd d8bd 253e
00000110: 5b99 6d3c 0015 f7bc 8c68 2c3e 9563 8bbd
00000120: e352 07bd 40f9 b9bd 9739 b93d 7e2c 89bd
00000130: c3f7 143c 1b5f a3bd d030 29be 061f 583d
00000140: 509d 1b3e 81ce 063e d0df 16be 7d63 d33c
00000150: 5013 3b3e 2150 bb3c 7ccb ff3a c40a fb3b
00000160: 653a 23be 7b7d 06be 507b 81bd ef80 4c3d
00000170: 90cf 293e c3dd 39bd 7411 87bd fa6d dfbc
00000180: 3263 bebd 4e33 00be 7939 b13d 80a5 83bd
00000190: 1cf0 ddbd d633 723e 1ae2 2c3e a4c0 09be
000001a0: 8eef 4abd a9cb 213d 8714 1ebd 8c68 ccbc
000001b0: 19ee cabd 0c15 cabc 436e 123e d299 f73d
000001c0: 5f29 c73d be3e 073c fca6 bd3d 7810 a8bc
000001d0: ff5f c43c 21dc 19bd 45bd d73d 6803 2b3e
000001e0: 38ec 2b3c f3c7 73bc fe6f 81bd 2e49 a5bd
000001f0: 9552 60bd fedd cf3c b4dd a7bc 35fa 093e
0.0790681 0.07295226 -0.0045840982 0.06092046 -0.11330177 0.0663501 -0.04253468 0.1842301
0.022572106 -0.03103154 0.08850477 0.016388824 0.0444352 -0.013604107 0.18487413 0.01071899
-0.12751935 0.14429235 0.028280713 -0.11522013 -0.02993902 0.14024557 0.06748037 0.22641116
0.024734547 -0.10262922 0.11500605 0.14462079 0.10437527 0.11893972 0.14016563 -0.03260999
0.09240207 0.14061587 -0.10825186 0.03734662 -0.103979915 0.15853214 0.19426122 0.029999454
-0.099218674 0.06849298 0.0626035 -0.016447399 -0.14038964 0.12840004 0.079386264 -0.058178794
0.012871768 -0.06075316 0.17485867 0.20820422 0.0893981 0.21923412 -0.052392364 0.16249137
0.23004933 -0.06038098 -0.07129155 0.19196564 -0.11447097 0.153556 -0.029604476 0.072498746
-0.119165614 -0.10264521 -0.056236014 0.16185701 0.014501895 -0.03016138 0.16836756 -0.06806103
-0.03303803 -0.09080744 0.090441875 -0.06697939 0.009092274 -0.07977124 -0.16522527 0.05276396
0.15196729 0.13164712 -0.14733815 0.025804276 0.18269086 0.022865357 0.0019515599 0.0076611955
-0.15940244 -0.13133805 -0.06322348 0.04992765 0.16583085 -0.045377504 -0.06595126 -0.02727412
-0.09296264 -0.12519571 0.0865354 -0.06428051 -0.10836813 0.23652586 0.16883126 -0.13452393
-0.049544863 0.039500866 -0.038593795 -0.024952196 -0.09908695 -0.024668239 0.14299874 0.12089886
0.09724688 0.008254705 0.09260365 -0.020515665 0.023971556 -0.037563447 0.10534147 0.16700518
0.010493331 -0.014879215 -0.06320189 -0.080705985 -0.054766256 0.025374409 -0.020491458 0.13474353

fc1.weight f4 [32, 32]
00000000: 40a4 f7bd 4525 5d3b d078 17bd 1900 96bd
00000010: 10c5 203e dec6 d3bd e012 1c3e a0f7 20be
00000020: 7cad d1bd 630b 2a3d 5bde af3c 07b2 05be
00000030: b504 88bd 7792 0d3e 3623 8e3d 82a2 753d
00000040: 3e14 39be 3e2e 07be 7333 cabd 5531 413d
00000050: 3233 d73d c8d5 3abd 168a d1bd f7ad 89bd
00000060: 7c62 bd3d 6cc5 e1bc 8b84 203e d770 90bd
00000070: e215 f13d 53e5 d33d 3e47 36be 972c a73d
00000080: 9aaf 76bd 04c1 07bd 2d40 0d3e 1c5f 9bbd
00000090: 9254 793d 6891 a73d a0d5 ffbd b5ed 28be
000000a0: 7455 13be 82ec b23d 40d4 03be ae3a cf3d
000000b0: f2f6 37bd cabe 7a3d 5fbb 6f3d aeea e3bb
000000c0: 6891 123e 122f b5bd dbe7 ad3d 13fc 943d
000000d0: 4f34 1dbe eae2 05be ad27 1c3e 8a0f a23d
000000e0: c86b 97bd cc1d 0abe 57bc 0ebd 7f44 d8bd
000000f0: ee03 293d 56a4 16be 2973 133d 3d03 47bd
00000100: 695e 97bd cb50 7fbd 1f37 a63d af4d 843d
00000110: 7250 353e 772f 883d 0f0e 2ebe 52cc e0bc
00000120: 042d fabd 6e5f 9a3d eb7f 0fbe e45c e43d
00000130: 4470 82bd a60f 143e 0d69 bf3c 6173 a6bb
00000140: c9f8 37be 0bdc 13be ce4f 92bd 18ad 053e
00000150: aba6 763d 1b6e ebbd af03 84bd 3746 89bd
00000160: b9be df3d 1214 b2bc 6f40 7bbc cd93 28bc
00000170: d934 ce3c 68d0 ff3d e17c 153e 2bcc 72bc
00000180: a9b3 2b3d 47b7 093e 693b 6abe 37b4 2d3e
00000190: f1b4 18be 26f4 523e 3882 9ebd 4bb4 53bd
000001a0: 6424 633d cede 023c e1db e4bd 5cd3 c93e
000001b0: e663 53bd e0a2 50be 2d81 4ebe 6174 84be
000001c0: 34aa 6e3e 14c8 f13c b011 bbbe d0fe 18be
000001d0: 9e6b 8fbe ab8b f4bd 21de bf3c fef2 eb3d
000001e0: 12c5 093e ec6c 933d e9a6 2d3d c0f9 153e
000001f0: 9290 4cbe 0e20 42be a04a 083e 1cd0 0cbd
00000200: 0016 b8bd b5df 07bc 9167 3ebd 425d 283e
00000210: 7b1e 63bc 826c 7a3d b994 85bd d1dc 353e
00000220: 7edf 8a3d 3e1c 663e c4cf 25bd f07b 893e
00000230: e116 5cbe 9394 96be e205 05be 39dc 39be
00000240: 38db 483e fac2 0e3d 4f9d 6bbe 533a 3abb
00000250: 1ee7 89be 5e7f 023e 597b d13b 77a6 fe3c
00000260: 4805 0b3e d44f 843e e57e ba3d d55e 0c3e
00000270: 4a3c 2cbe 1b83 bbbd 25d0 373d afac b9be
00000280: 3613 6ebd 73ed 1a3e 831f 1f3d 43fd 97bd
00000290: c094 543c 3a07 28be 96e2 7e3d 6a4c 2dbe
000002a0: 6efb 92bd 846c 9ebd 77f7 c1bc a4a6 943d
000002b0: d4bb a6bd 9d97 923d 71ed a0bd a50b 1ebd
000002c0: 0f6d e43d b356 10be 9631 933d 2658 8e3d
000002d0: 644a 39bc 2a6d fabd 5597 17be 2119 f3bd
000002e0: 6ae7 9cbd c449 d53d 2b72 883d b9a3 b4bd
000002f0: 04c1 523c dc8b 893d 30e3 11be 910a 0ebe
00000300: 0c6e 33be 95c3 7f3d 3f53 abbd 31f6 033e
00000310: 7187 bdbd ce25 683e 6d0a 513e c749 503e
00000320: c4f1 7d3e f423 3e3e 04d3 b7be dbb4 923e
00000330: f0b9 2ebe 50ff 04be ad94 0fbe 49f6 7cbe
00000340: 459f 2b3e d100 863d 7842 76be 5142 6abe
00000350: d204 98be de2a d93d a28e 133d a485 383c
00000360: c5ef 413e 263b 0c3c 5ad0 61be aeb5 9b3d
00000370: 14c2 c7bd 0566 99bd 6cca 043e 7a0b 03be
00000380: 47c2 523e eed5 533d daf1 7a3d 54a7 61be
00000390: 7f8a 93bd 09f8 7abd f429 45be 5abe 9b3d
000003a0: 2f8a 653d 5d54 1abe d478 1dbd 6d62 663c
000003b0: 54c8 59bd bb29 303e d5bd f9bd a36c f03c
000003c0: c186 ec3d d759 17bc 9045 52bd 8bda dd3d
000003d0: 9605 12be 630d f4bc 4f72 533e 9fc7 b0bd
000003e0: b549 bbbd a270 683d 78b5 da3b cb6f cd3d
000003f0: bf97 bb3d ccbc af3c 2e68 b63d 48d6 b63d
-0.12091875 0.0033744138 -0.03698045 -0.073242374 0.15700173 -0.10340665 0.15241575 -0.15719461
-0.10238168 0.041514765 0.021468332 -0.13056193 -0.06641523 0.13825403 0.0694031 0.059969433
-0.18074128 -0.13201234 -0.098730944 0.047166187 0.105078116 -0.045614034 -0.10231416 -0.06722634
0.092473 -0.027559958 0.15675561 -0.070527725 0.11771752 0.103464745 -0.17800614 0.08162802
-0.06022606 -0.03314306 0.13794012 -0.075865 0.06087167 0.08182031 -0.124919176 -0.16496928
-0.14388067 0.087365165 -0.12873936 0.10118614 -0.04491324 0.061217107 0.0585283 -0.0069554662
0.1431328 -0.088468686 0.084914885 0.07274642 -0.15351985 -0.13074842 0.1524951 0.0791312
-0.073936045 -0.13487929 -0.034847584 -0.105599396 0.041263513 -0.14711127 0.035998497 -0.048587073
-0.07391054 -0.06233291 0.08115982 0.064601295 0.17706469 0.06649678 -0.1699755 -0.027441178
-0.12215617 0.07537733 -0.1401364 0.1115053 -0.06369069 0.14459094 0.023365522 -0.005079672
-0.17965998 -0.14439408 -0.07144128 0.13054311 0.06021754 -0.1149561 -0.06446015 -0.067028455
0.10925049 -0.021738086 -0.015335186 -0.010289145 0.025171684 0.12490922 0.14598419 -0.014819185
0.041919384 0.13448821 -0.22874226 0.16963278 -0.14912774 0.20600948 -0.07739681 -0.051685613
0.055454627 0.007987691 -0.11174751 0.39419067 -0.051608942 -0.20374632 -0.20166464 -0.2587004
0.23307115 0.02951435 -0.36536932 -0.14940953 -0.28011793 -0.11940702 0.023421349 0.115209565
0.13454083 0.071985096 0.042395506 0.14646053 -0.19977024 -0.1895754 0.13309717 -0.034378156
-0.08988571 -0.008293082 -0.046485487 0.16441825 -0.013862248 0.061138637 -0.06522507 0.17760016
0.06780909 0.22471711 -0.040481344 0.2685237 -0.21493103 -0.29410228 -0.12990525 -0.18150415
0.19614875 0.034853913 -0.23009227 -0.0028416112 -0.2693414 0.12743899 0.006392878 0.031085236
0.13576233 0.25842154 0.091062345 0.1370805 -0.16819873 -0.09155866 0.044876236 -0.3626456
-0.05812379 0.15129642 0.03884841 -0.07421353 0.012974918 -0.16409007 0.062227808 -0.16923681
-0.07176863 -0.077355415 -0.02367757 0.07258347 -0.08141294 0.07157824 -0.07857788 -0.038585324
0.11153614 -0.14095573 0.07187192 0.06950407 -0.01130924 -0.12227853 -0.14803822 -0.11870027
-0.07661326 0.1041446 0.06662401 -0.0882029 0.012863401 0.06716129 -0.14246821 -0.13871218
-0.17522448 0.06244238 -0.08365487 0.12886883 -0.09254349 0.22670671 0.20414133 0.20340644
0.24799258 0.18568403 -0.3590318 0.28653607 -0.17063117 -0.12988019 -0.14021559 -0.24703325
0.16759975 0.065431245 -0.24048793 -0.2287686 -0.29691178 0.106038794 0.036024697 0.011262331
0.18939121 0.008559024 -0.22052136 0.07603012 -0.09753814 -0.07490162 0.12967843 -0.12797347
0.20581923 0.05171769 0.061265804 -0.22036487 -0.072041504 -0.0612717 -0.19254285 0.07604666
0.056039985 -0.15071245 -0.03844531 0.0140615525 -0.053169563 0.17203419 -0.12194411 0.029348677
0.1154914 -0.009237728 -0.05133587 0.108326994 -0.14259943 -0.02979154 0.20649074 -0.08631825
-0.09144918 0.05674804 0.006674465 0.100310884 0.09159803 0.02145233 0.089065894 0.0892759

fc1.bias f4 [32]
00000000: 5d0d 1fbe f13c cd3d a8a5 dd3d d4ae ebbd
00000010: 3d20 413e d591 1bbe ea2f 263e 1f3c 64bc
00000020: e08e d23d a6a0 363c 7182 133e b066 d83d
00000030: 930a d73d 736b 17be f143 62bd 3e45 4fbd
00000040: 8a5f b7bd 8fc7 c33d 11b5 f2bd 43f2 ff3d
00000050: 6573 febd 4508 f23d 156d 073e 2b5c 403d
00000060: b8c1 93bc 1a49 ea3d c532 5d3e 83b2 b93c
00000070: ba41 adbd f4bc 193e e055 09be c826 283e
-0.15532441 0.10021389 0.10822612 -0.11507955 0.18859954 -0.1519235 0.16229215 -0.01393035
0.102811575 0.0111467 0.14405228 0.10566461 0.10500064 -0.14787082 -0.055240575 -0.050603144
-0.089537695 0.09559547 -0.11850942 0.1249738 -0.124243535 0.118179835 0.13225205 0.0469629
-0.018036708 0.11439724 0.21601398 0.022668129 -0.08459802 0.15013486 -0.13411665 0.16421044

fc3.weight f4 [3, 32]
00000000: ac48 55bc 733d 123e dfad 0cbe 6d5c c83e
00000010: 3e89 133e e20f b13d 1f34 613e 17a4 eb3d
00000020: e584 08be 4b94 f3bd 9f50 a33e 61d9 043b
00000030: 12a1 e23d 031e 553d 1c56 a63e c089 923d
00000040: 5a66 6dbe 85f7 09bd 8623 f73d 9f0f 9abe
00000050: 31c4 983d 158c e2bb 24ae 523b 502c bcbd
00000060: 0215 863e e837 8fbe 5756 a53e d9d2 9ebe
00000070: b9cf 973e af5a ee3d 6c24 6ebd 455b 2a3d
00000080: ad94 0b3e 3366 0b3e bd0d 503d fa77 5dbe
00000090: c354 f2bb d834 e8bd a670 48be 9b5b 113e
000000a0: 7eb2 f33d ba2f 9bbd 5fc7 c03a e207 17be
000000b0: 2f0c bfbe 045b 86be 99d7 57be 4f7b 77bd
000000c0: 84b4 123e 52ba 33be 21ef 8b3d ecdd 133e
000000d0: e427 50be 691b b4bd 666d 44bc 39f6 1d3d
000000e0: 0bc7 c2bc e5a0 0cbe a23a 48bc 152a d33d
000000f0: d2e8 85be ad12 2dbe c8f1 c03d 3973 25be
00000100: 2df5 c03d 2eec 2bbd cfff 17be 1e7f ebbd
00000110: 29b9 9ebe 3a32 42bd 897c 89be 3557 043e
00000120: 7dc2 7a3d ce0d 353d 7272 74be 360e 0cbb
00000130: 36ad 75be 6bd1 d73d f274 a9be 6e02 c0bd
00000140: d073 a63d 43fb 413d d302 263e e29c 21bc
00000150: 3de9 8cbd bc7c 50be c728 c73d 8c02 043b
00000160: 1c7c 61be 7354 763e 2eee 96be 67a7 563e
00000170: a255 8bbe b617 58be aefb 9f3e f8cd 2dbe
-0.013017815 0.14281254 -0.13738202 0.39133015 0.14407822 0.086456075 0.21992539 0.11505907
-0.13331945 -0.11893519 0.31897447 0.002027117 0.11065878 0.052030575 0.3248757 0.0715518
-0.23183575 -0.03368332 0.120673224 -0.30090043 0.074592955 -0.0069136717 0.0032147253 -0.091881394
0.26187903 -0.2797234 0.32292435 -0.3102024 0.29650667 0.1163839 -0.058140203 0.041590948
0.13630934 0.13613205 0.05079435 -0.21627799 -0.0073953583 -0.11338204 -0.19574222 0.14195101
0.11899279 -0.075774625 0.0014707855 -0.14749101 -0.37313983 -0.26241314 -0.21078338 -0.06042033
0.14326674 -0.17551544 0.068327196 0.14440125 -0.20327717 -0.087942906 -0.011988973 0.038564894
-0.023776552 -0.13733251 -0.01222101 0.10310761 -0.2615419 -0.16901655 0.09421116 -0.16157235
0.094217636 -0.041973285 -0.14843677 -0.11498855 -0.3100064 -0.04741118 -0.26852825 0.12923892
0.061220635 0.04420262 -0.23871782 -0.0021370775 -0.23991856 0.1053799 -0.33097035 -0.093754634
0.08127558 0.047358762 0.16212015 -0.009864064 -0.06880424 -0.20360082 0.097245745 0.002014312
-0.2202 0.24055652 -0.29478592 0.20962296 -0.2721377 -0.21102795 0.31246704 -0.16973102

fc3.bias f4 [3]
00000000: 62e3 243d bc59 02be 927f b0bd
0.04025591 -0.12729543 -0.08618082
