model/save/v8.1_2022-08-30_13-56/model.pt (torch, 286107 bytes, 8 tensors)

lstm.weight_ih_l0 f4 [128, 512]
0.054664623 -0.06572906 -0.015999876 0.17078978 0.048798427 0.06551161 -0.061957497 0.15596226
0.017312732 -0.09749606 -0.10426201 0.12118894 0.05323388 -0.16452138 -0.14202999 0.21810815
0.09128786 -0.10662813 -0.107822485 -0.091875054 0.09400013 0.14599517 0.14577954 0.08897989
-0.03793231 -0.07610814 0.17509627 0.08318694 -0.054702498 0.0774693 -0.01951266 0.17761436
0.015579442 -0.05075385 -0.036329728 0.03162339 -0.013344289 -0.06875626 -0.12530147 -0.043244343
0.00014282027 0.00041579347 0.18013589 -0.0662714 0.02267899 0.14905958 0.082240276 -0.011125145
0.073053464 0.11477838 0.033575553 0.22089854 -0.08413073 -0.05627769 -0.06369644 0.23631698
-0.03642948 -0.03387468 0.1780409 0.09603469 -0.12367143 -0.11899118 0.11518685 -0.11287274
0.13165078 -0.080211945 0.25427216 -0.02230761 -0.09508031 0.1472699 0.25216174 0.25008672
0.24517123 0.05730705 0.073188685 0.037975933 -0.012763891 0.09405462 -0.019576032 0.13260926
0.07641682 0.15686947 -0.13956843 0.17070942 0.08792976 0.11399001 0.08559635 0.04029351
0.16882043 0.11237904 -0.02319244 0.148584 -0.036789894 -0.034970295 0.097578704 -0.12760773
-0.034617122 0.14190808 0.23666318 -0.087596916 0.024672652 0.09702855 0.09790992 0.1314842
-0.10092266 0.037651278 -0.13088545 -0.08077059 -0.026314145 0.165742 0.006943814 0.031103915
-0.05789902 -0.06319272 -0.051647123 0.07031506 0.109587714 0.01845212 -0.071304515 -0.06223419
0.05338292 0.06375162 -0.073557615 -0.14300837 0.09983425 -0.13930632 0.072773755 0.108396955
0.0057693534 -0.040724933 -0.055940997 -0.061585806 0.047150612 0.096244186 0.24875091 -0.002286878
0.16406052 -0.10500228 -0.010378953 0.18497203 0.1647914 -0.09497599 0.059372906 -0.07957832
-0.16263178 -0.02726371 0.13076608 -0.059409592 0.006177989 -0.07969215 0.2254152 -0.08529297
0.07476354 0.08465591 -0.19684793 0.21968776 0.0039486606 0.017781816 0.048318792 0.1463782
-0.033351533 -0.19170378 0.23885843 0.12703831 -0.13445283 -0.07314146 -0.13937153 -0.035523184
0.057490423 0.21983947 -0.074647985 0.032511387 0.02176216 -0.06676187 -0.20612998 -0.07144852
-0.0031595866 -0.13819413 0.14112076 -0.20131028 0.20456259 0.05299632 0.030866561 -0.023999406
-0.022738606 0.14014508 0.0120620215 -0.051735647 -0.16188782 0.08686673 -0.03183254 0.0890197
0.17684649 0.21126235 -0.05988072 0.01515489 -0.055874795 0.12743309 0.03469026 0.14519833
-0.10279209 -0.1101196 0.19554241 -0.10892181 0.17390996 -0.027394189 0.18320808 0.12235181
-0.14128537 -0.09995886 -0.035032276 0.06104134 0.19670705 -0.16896631 -0.089787096 0.11206186
0.20150399 0.04190613 0.03707684 -0.09587415 0.15874334 -0.06168609 0.01951525 -0.0074274866
0.13296057 -0.009377093 0.008171862 -0.097736046 -0.030624285 0.15667482 -0.081162475 0.14455347
0.11820364 -0.039972275 0.039553694 -0.1543838 -0.0646083 0.1242307 -0.09862955 0.031353
0.06958868 -0.026343688 -0.033701815 -0.0036543135 -0.116381705 0.13423702 0.067020625 0.13949019
-0.07384341 -0.15868275 0.17665103 -0.00022434066 -0.063378505 0.19856305 -0.0028978658 -0.05931001
00000000: 03e8 5f3d f59c 86bd 2c12 83bc 84e3 2e3e
00000010: dce0 473d f32a 863d 25c7 7dbd 92b4 1f3e
00000020: 6ed3 8d3c 04ac c7bd 5287 d5bd e831 f83d
00000030: c50b 5a3d 4b78 28be 4f70 11be be57 5f3e
00000040: 21f5 ba3d d95f dabd 09d2 dcbd fd28 bcbd
00000050: 2483 c03d c27f 153e 3b47 153e 173b b63d
00000060: e95e 1bbd 96de 9bbd 704c 333e ea5d aa3d
00000070: ba0f 60bd 39a8 9e3d 04d9 9fbc 8ae0 353e
00000080: ea40 7f3c 45e3 4fbd 7bce 14bd 8787 013d
00000090: 01a2 5abc 15d0 8cbd 074f 00be fb20 31bd
000000a0: 06c2 1539 dbfe d939 8b75 383e 4db9 87bd
000000b0: 4ac9 b93c 13a3 183e 976d a83d 3d46 36bc
000000c0: 0e9d 953d ed10 eb3d 8586 093d 3a33 623e
000000d0: bb4c acbd 6f83 66bd 4773 82bd 14fd 713e
000000e0: 1437 15bd 2dc0 0abd 5b50 363e d6ad c43d
000000f0: 7247 fdbd a6b1 f3bd 15e7 eb3d d329 e7bd
00000100: 76cf 063e 2946 a4bd f62f 823e 73be b6bc
00000110: 77b9 c2bd eccd 163e 581b 813e 5e0b 803e
00000120: 2b0e 7b3e ccba 6a3d f3e3 953d a78c 1b3d
00000130: a41f 51bc b59f c03d ea5d a0bc b9ca 073e
00000140: 6c80 9c3d 64a2 203e 07eb 0ebe 73ce 2e3e
00000150: 8514 b43d 9873 e93d 244d af3d cf0a 253d
00000160: 43df 2c3e fb26 e63d 12fe bdbc 6726 183e
00000170: 00b1 16bd 033d 0fbd 58d7 c73d 9aab 02be
00000180: afca 0dbd 5a50 113e d557 723e 0366 b3bd
00000190: 4d1e ca3c e8b6 c63d ff84 c83d cba3 063e
000001a0: 8ab0 cebd 3a38 1a3d d606 06be 0d6b a5bd
000001b0: c390 d7bc 45b8 293e ef88 e33b a3cd fe3c
000001c0: 8627 6dbd 2f6b 81bd ef8b 53bd 5801 903d
000001d0: 866f e03d e628 973c 1a08 92bd 47e9 7ebd
000001e0: 0ca8 5a3d 3690 823d 60a5 96bd c970 12be
000001f0: e675 cc3d 51a6 0ebe 680a 953d 39ff dd3d
00000200: d80c bd3b 30cf 26bd 6322 65bd 6641 7cbd
00000210: 0021 413d ac1b c53d 8fb8 7e3e 72df 15bb
00000220: 7bff 273e 6f0b d7bd 7c0c 2abc 4f69 3d3e
00000230: 14bf 283e c682 c2bd 0131 733d f5f9 a2bd
00000240: f288 26be 2558 dfbc 8be7 053e 7957 73bd
00000250: ba70 ca3b a335 a3bd 3ed3 663e 15ae aebd
00000260: a01d 993d 1460 ad3d 8192 49be d4f5 603e
00000270: c463 813b 2cab 913c ede9 453d 2be4 153e
00000280: 9e9b 08bd ff4d 44be 4e97 743e 5516 023e
00000290: 01ae 09be 31cb 95bd 69b7 0ebe c280 11bd
000002a0: 147b 6b3d 991d 613e 0be1 98bd a92a 053d
000002b0: 8f46 b23c 73ba 88bd bd13 53be 9a53 92bd
000002c0: 1111 4fbb c382 0dbe f681 103e 4824 4ebe
000002d0: db78 513e ab12 593d dfdb fc3c 679a c4bc
000002e0: 5046 babc 3182 0f3e c99f 453c c2e8 53bd
000002f0: ecc5 25be 2fe7 b13d d662 02bd f64f b63d
00000300: 3f17 353e 2855 583e 7c45 75bd 374c 783c
00000310: f8dc 64bd d27d 023e 6017 0e3d dfae 143e
00000320: a984 d2bd 6386 e1bd 453c 483e 6612 dfbd
00000330: 7415 323e c769 e0bc e69a 3b3e 9693 fa3d
00000340: 1dad 10be 3bb7 ccbd 017e 0fbd 7c06 7a3d
00000350: 936d 493e 8105 2dbe 4ce2 b7bd b080 e53d
00000360: 1057 4e3e c3a5 2b3d e2dd 173d ab59 c4bd
00000370: 9d8d 223e 8eaa 7cbd 72de 9f3c 4662 f3bb
00000380: d126 083e 61a2 19bc 46e3 053c d629 c8bd
00000390: c8df fabc 5d6f 203e 8338 a6bd d305 143e
000003a0: c014 f23d f8b9 23bd 0e03 223d c916 1ebe
000003b0: 5b51 84bd aa6c fe3d 4afe c9bd 016c 003d
000003c0: 8384 8e3d b8ce d7bc ea0a 0abd 357d 6fbb
000003d0: 8859 eebd 6e75 093e 1c42 893d 84d6 0e3e
000003e0: 373b 97bd bb7d 22be 02e4 343e fd3c 6bb9
000003f0: 97cc 81bd 1d54 4b3e 1fea 3dbb 0eef 72bd

lstm.weight_hh_l0 f4 [128, 32]
0.04049542 0.10366211 0.06885242 0.24211091 -0.07265329 -0.028320255 0.22077876 0.14495948
0.046912454 -0.2894619 0.18452452 -0.10285402 -0.0021874015 -0.21826312 -0.2562772 0.041507404
-0.010479908 0.22118933 -0.08516761 0.019546682 0.09024341 -0.07955109 -0.14169231 0.10090911
-0.076356955 0.17064813 -0.17704585 0.081910595 0.026517922 -0.20774011 0.0030041595 0.05964887
-0.13138208 -0.040846188 0.09433423 0.09572505 -0.16006355 0.0328317 -0.001244545 0.1522581
-0.016105508 0.02058839 0.15527846 0.070467986 0.036156066 -0.12740771 -0.07022046 -0.05568946
-0.18555444 -0.12195618 0.12725413 -0.023414578 -0.030976167 0.19385503 -0.020592988 -0.054708075
-0.06871804 -0.055093758 -0.11528207 0.033928167 0.05874577 0.11009805 -0.13825046 -0.06563571
0.021178573 0.111853436 -0.12016075 0.13731562 -0.11320122 0.20429683 0.11813256 0.1451287
-0.037140872 0.023272187 -0.1893309 -0.0650228 0.060154423 0.091950215 0.024617717 0.057711378
-0.06118334 0.18698591 0.037098445 -0.05279364 0.025407536 -0.022735097 -0.17921995 0.18669403
0.13163567 0.021974944 -0.08587167 -0.035834804 -0.17285821 -0.06270909 -0.009748282 0.092167675
0.09009528 0.2051982 -0.128057 -0.017489612 -0.09128128 0.053760465 0.18191482 0.083126344
-0.068951644 -0.003631141 -0.21378633 0.07229488 0.03125277 -0.050096784 -0.22751483 -0.059857383
-0.07009948 -0.041432194 -0.017438268 0.053244125 -0.054107677 0.15922952 -0.14155258 0.21474966
0.21261258 -0.047329966 -0.20920122 0.11923687 -0.3008674 -0.05943415 0.15974437 -0.15228035
-0.1412097 0.08093671 -0.17170084 0.17181726 -0.22583376 0.22913392 -0.09463469 0.16358203
-0.05237031 -0.1129964 0.03684117 0.16452353 -0.20713997 -0.055013396 -0.1561064 0.038766764
-0.06801407 -0.036716294 -0.02830348 -0.09424289 -0.12507546 -0.04277877 -0.10405312 -0.016312817
-0.029761177 -0.088199854 -0.1283219 0.11567216 0.084569216 -0.12731592 0.059032235 0.07143972
-0.16734128 0.08340029 -0.18692921 0.07363223 -0.15494704 -0.13876228 0.041928414 0.16074422
-0.11679751 -0.104831256 -0.09343074 0.07952709 -0.036865566 -0.14789666 -0.08541416 -0.013415252
-0.03583894 0.1004892 0.060235027 0.015509362 -0.14856224 0.012621042 0.013490357 -0.13431004
0.07792522 0.22725563 -0.10667 0.06908917 0.11215387 -0.1503517 0.25460717 -0.18003806
-0.05972933 0.05847974 -0.12616068 0.1680483 0.00907489 0.08857231 0.051359024 0.15011345
0.12625104 0.0797082 0.17998247 -0.11802247 -0.102314204 -0.07392817 0.024609454 0.054622445
0.16667032 -0.102406524 -0.18496308 -0.13707642 -0.054496635 0.1586224 -0.018748432 -0.10308868
0.11070678 -0.024591668 -0.21242735 -0.107363515 0.15110257 -0.13494173 0.021217955 -0.204287
-0.00020113178 0.20627598 -0.017623033 0.20281714 -0.12927736 -0.002985041 0.02253722 -0.10311093
0.10206993 0.011750598 -0.03986319 0.064321816 -0.091888994 0.08315323 -0.07812201 0.06697061
0.21992077 0.075825505 -0.033438716 0.021394989 -0.060366493 -0.028302308 -0.17583519 -0.13553078
0.19872707 0.10563022 -0.12538517 0.1681833 -0.15721829 -0.06417641 0.059769094 -0.19663678
00000000: 87de 253d cd4c d43d 7f02 8d3d eceb 773e
00000010: 40cb 94bd e1ff e7bc d413 623e 4270 143e
00000020: 4627 403d 5a34 94be fff3 3c3e 21a5 d2bd
00000030: 825a 0fbb 5e80 5fbe c436 83be ab03 2a3d
00000040: ecb3 2bbc 757f 623e 5b6c aebd 5d20 a03c
00000050: 89d1 b83d afeb a2bd ca17 11be 6fa9 ce3d
00000060: 0961 9cbd 62be 2e3e 824b 35be bec0 a73d
00000070: 1d3c d93c d3b9 54be 6fe1 443b 6052 743d
00000080: 0689 06be 554e 27bd 4e32 c13d 7f0b c43d
00000090: b3e7 23be 887a 063d 0020 a3ba 8ce9 1b3e
000000a0: b3ef 83bc fca8 a83c 5101 1f3e 8551 903d
000000b0: 6218 143d 2b77 02be bfcf 8fbd a21a 64bd
000000c0: fc01 3ebe 29c4 f9bd e84e 023e eecf bfbc
000000d0: bbc1 fdbc ef81 463e a0b2 a8bc 9315 60bd
000000e0: 0bbc 8cbd fea9 61bd 0219 ecbd 43f8 0a3d
000000f0: 689f 703d 167b e13d 8791 0dbe 046c 86bd
00000100: b07e ad3c 6a13 e53d d716 f6bd 779c 0c3e
00000110: 0bd6 e7bd 3033 513e 7cef f13d 9e9c 143e
00000120: 0721 18bd 50a5 be3c f6df 41be ac2a 85bd
00000130: 7c64 763d 6550 bc3d 18ab c93c c462 6c3d
00000140: 629b 7abd 3c79 3f3e 8af4 173d 253e 58bd
00000150: 7723 d03c f43e babc 6f85 37be b82c 3f3e
00000160: 80cb 063e cc04 b43c 7cdd afbd 84c7 12bd
00000170: be01 31be a06d 80bd 42b7 1fbc 68c2 bc3d
00000180: e083 b83d 7a1f 523e 6021 03be 6046 8fbc
00000190: aef1 babd ef33 5c3d e147 3a3e 253e aa3d
000001a0: 8536 8dbd 70f8 6dbb ceea 5abe 570f 943d
000001b0: e802 003d 4932 4dbd a6f9 68be 042d 75bd
000001c0: 5190 8fbd ceb4 29bd b3da 8ebc 8316 5a3d
000001d0: 03a0 5dbd 100d 233e 29f3 10be 56e7 5b3e
000001e0: 1db7 593e 11dd 41bd d838 56be 7632 f43d
000001f0: 4b0b 9abe 3971 73bd 0794 233e 61ef 1bbe
00000200: 4799 10be 25c2 a53d 58d2 2fbe ddf0 2f3e
00000210: f740 67be 15a2 6a3e d5cf c1bd 0c82 273e
00000220: 4082 56bd a86a e7bd c4e6 163d db78 283e
00000230: 801c 54be ba55 61bd 5bda 1fbe e6c9 1e3d
00000240: f64a 8bbd d363 16bd b3dc e7bc 6b02 c1bd
00000250: c813 00be cb38 2fbd cd19 d5bd 75a2 85bc
00000260: b6cd f3bc 20a2 b4bd d166 03be 87e5 ec3d
00000270: a032 ad3d 1b5f 02be c9cb 713d fd4e 923d
00000280: 835b 2bbe c5cd aa3d 5f6a 3fbe 7fcc 963d
00000290: 70aa 1ebe b317 0ebe 21bd 2b3d 229a 243e
000002a0: 8833 efbd c5b1 d6bd 9e58 bfbd 19df a23d
000002b0: 5900 17bd 3972 17be 9eed aebd a5cb 5bbc
000002c0: dacb 12bd 48cd cd3d 01b9 763d fb1a 7e3c
000002d0: b320 18be 7dc8 4e3c a906 5d3c 9288 09be
000002e0: 4297 9f3d b3b5 683e cd75 dabd 9f7e 8d3d
000002f0: eeb0 e53d ccf5 19be df5b 823e e65b 38be
00000300: bea6 74bd 7488 6f3d 4430 01be db14 2c3e
00000310: d9ae 143c 6665 b53d d75d 523d 57b7 193e
00000320: f447 013e 0e3e a33d 534d 383e c4b5 f1bd
00000330: 1c8a d1bd a767 97bd c499 c93c c9bb 5f3d
00000340: a0ab 2a3e 83ba d1bd f666 3dbe c35d 0cbe
00000350: dd37 5fbd e96d 223e 5096 99bc 2820 d3bd
00000360: 3cba e23d 7774 c9bc 8e86 59be 67e1 dbbd
00000370: a2ba 1a3e 2a2e 0abe 47d1 ad3c 9c30 51be
00000380: e7e6 52b9 033a 533e 2e5e 90bc 4caf 4f3e
00000390: 4961 04be ada0 43bb fa9f b83c d32b d3bd
000003a0: 0a0a d13d 9585 403c 9647 23bd 28bb 833d
000003b0: 4c30 bcbd 3e4c aa3d 6ffe 9fbd e327 893d
000003c0: e932 613e 674a 9b3d 09f7 08bd 8b44 af3c
000003d0: db42 77bd 3eda e7bc 240e 34be 95c8 0abe
000003e0: 1c7f 4b3e a854 d83d f864 00be 3e38 2c3e
000003f0: d5fd 20be ec6e 83bd 70d0 743d 275b 49be

lstm.bias_ih_l0 f4 [128]
-0.0017054182 0.14844245 0.18064949 0.07964368 0.11927748 0.05526623 0.023851631 -0.13532689
-0.09712676 0.1236356 0.017496614 -0.00029535333 0.05118734 0.19166344 0.054174777 0.29921824
0.07168702 -0.049252547 0.044918668 -0.15559915 0.16016911 0.24139449 0.097652964 0.19073719
0.19753878 -0.013189475 -0.03361435 0.13879009 0.25473025 0.060524948 0.032794215 0.040465906
0.11499856 0.07693485 -0.073975876 0.057090446 0.12777784 0.16852574 0.19935513 0.10722147
-0.15456302 0.13338295 -0.05337604 0.056690183 0.14070655 0.14714105 0.12496202 0.1804755
0.13043316 0.20775756 -0.06044048 0.24354103 -0.0316039 0.0705026 0.049752098 0.18194355
-0.008990754 0.195052 0.0035482016 0.21596947 0.03371013 -0.015888143 0.09100588 -0.015849931
0.09067403 0.14155468 -0.1606293 -0.14953995 0.04488933 0.12011346 -0.063573584 0.11116867
-0.15017667 -0.06919313 0.1509294 0.15359727 -0.031279378 -0.02761818 -0.05567902 -0.14159934
-0.13407983 -0.028161243 0.15127943 0.024197785 -0.06489191 0.20881943 -0.08685129 0.14830217
0.18967469 0.1133237 -0.05975924 0.17261218 -0.16326796 -0.05696583 0.00804253 -0.08051529
0.054897282 0.164042 0.09930635 0.011611339 0.05488837 0.19983082 0.23643789 0.17733505
0.22231096 -0.06473317 -0.034913693 -0.041316453 0.07298004 -0.07891468 -0.033787057 0.19842798
-0.02487695 0.17295788 -0.016981622 0.02827368 0.18777037 0.165783 0.16163962 0.085192315
-0.07751712 -0.11100246 -0.074891455 0.21600728 -0.012977906 0.10334618 -0.0035199123 0.040284943
00000000: 5788 dfba 4c01 183e 2efc 383e 3a1c a33d
00000010: c047 f43d d85e 623d 7f64 c33c 2293 0abe
00000020: 65ea c6bd a934 fd3d 0f55 8f3c a7d9 9ab9
00000030: d1a9 513d 6c43 443e 5fe6 5d3d 2233 993e
00000040: a5d0 923d 0abd 49bd a3fc 373d 6255 1fbe
00000050: 5f03 243e 1e30 773e 47fe c73d 9c50 433e
00000060: 9b47 4a3e ab18 58bc 33af 09bd fd1e 0e3e
00000070: 016c 823e 02e9 773d 3a53 063d 94bf 253d
00000080: 5d84 eb3d 0590 9d3d aa80 97bd acd7 693d
00000090: 32d8 023e 0392 2c3e c023 4c3e ee96 db3d
000000a0: c545 1ebe 8a95 083e d6a0 5abd f733 683d
000000b0: 6115 103e 25ac 163e 16ec ff3d 92ce 383e
000000c0: 4590 053e 66be 543e 7090 77bd d262 793e
000000d0: 1773 01bd ab63 903d dbc8 4b3d 694f 3a3e
000000e0: f54d 13bc b6bb 473e f288 683b 1a27 5d3e
000000f0: a213 0a3d da27 82bc 4a61 ba3d b7d7 81bc
00000100: 4eb3 b93d b6f3 103e 027c 24be 0021 19be
00000110: e0dd 373d 0cfe f53d de32 82bd 66ac e33d
00000120: eac7 19be 21b5 8dbd 3d8d 1a3e 9a48 1d3e
00000130: ce1e 00bd 853f e2bc af0f 64bd 6bff 10be
00000140: 394c 09be 68b2 e6bc ffe8 1a3e 6f3a c63c
00000150: 0de6 84bd c3d4 553e 17df b1bd 86dc 173e
00000160: 153a 423e 4216 e83d 1bc6 74bd 3fc1 303e
00000170: b72f 27be 0155 69bd d1c4 033c 33e5 a4bd
00000180: f9db 603d a0fa 273e 2161 cb3d 7c3d 3e3c
00000190: a1d2 603d 73a0 4c3e c61c 723e 5297 353e
000001a0: 7ca5 633e d392 84bd a901 0fbd 713b 29bd
000001b0: 8f76 953d 059e a1bd 4c64 0abd b430 4b3e
000001c0: bfca cbbc df1b 313e 0b1d 8bbc 349e e73c
000001d0: e046 403e 05c3 293e db84 253e 4f79 ae3d
000001e0: 4cc1 9ebd 4255 e3bd b160 99bd 0331 5d3e
000001f0: 48a1 54bc 29a7 d33d 54ae 66bb d301 253d

lstm.bias_hh_l0 f4 [128]
0.15811872 0.07213897 -6.243444e-05 0.060995627 -0.11247264 0.06332554 -0.030825246 0.18227403
0.033951122 -0.032986585 0.106702805 0.018969368 0.05044034 0.0011255135 0.14354153 0.036629103
-0.121930666 0.160769 0.041139062 -0.12481049 -0.05025141 0.12076539 0.080774404 0.21824035
0.04171691 -0.0953218 0.11906699 0.14557981 0.095228314 0.12169719 0.15411885 -0.0093951095
0.14513683 0.13473748 -0.10876576 0.03170902 -0.10661572 0.1747523 0.19309564 0.033433173
-0.09837303 0.0734066 0.044058163 -0.022718133 -0.13990936 0.132189 0.05391325 -0.057033006
0.0004204314 -0.06462723 0.17866963 0.21052669 0.07012504 0.18922006 -0.05564163 0.1614796
0.21489263 -0.05563282 -0.071674265 0.20503658 -0.12238772 0.15467468 -0.011524101 0.07685901
-0.12649383 -0.12821549 -0.052714333 0.15962623 0.013589869 -0.034228098 0.18064712 -0.06630804
-0.034929235 -0.089236654 0.07913941 -0.06635821 0.010736734 -0.07361315 -0.13044341 0.053383574
0.15492405 0.1285082 -0.14995821 0.028031949 0.18052897 0.042156223 -0.021032758 -0.003052739
-0.14413406 -0.12734018 -0.06907529 0.038656086 0.15807502 -0.056096528 -0.061070647 -0.018065207
-0.06802258 -0.12356199 0.112589814 -0.062099624 -0.106621474 0.23315936 0.16407306 -0.14063886
-0.049242217 0.039654106 -0.04088928 -0.030157855 -0.10270289 -0.018438833 0.14201243 0.12070189
0.094913185 0.012997653 0.09768226 -0.028615803 0.024210501 -0.055539064 0.12172631 0.1691096
0.006951548 -0.010181671 -0.07366201 -0.08094346 -0.06339864 0.020102631 -0.022220157 0.15181375
00000000: e0e9 213e 99bd 933d 3cef 82b8 8dd6 793d
00000010: 0e58 e6bd d2b0 813d 3a85 fcbc 0ba6 3a3e
00000020: 5510 0b3d f11c 07bd 0087 da3d a665 9b3c
00000030: 889a 4e3d f785 933a 8dfc 123e 6608 163d
00000040: c9b6 f9bd a1a0 243e 6f81 283d a49c ffbd
00000050: 6cd4 4dbd d853 f73d 0d6d a53d 667a 5f3e
00000060: 5adf 2a3d 1338 c3bd 65d9 f33d e012 153e
00000070: 1007 c33d 603c f93d 55d1 1d3e f2ed 19bc
00000080: c09e 143e 9ff8 093e 95c0 debd 51e1 013d
00000090: 5859 dabd 44f2 323e ddba 453e 39f1 083d
000000a0: cd77 c9bd 3356 963d 5576 343d 611b babc
000000b0: 6644 0fbe 8e5c 073e 24d4 5c3d 719b 69bd
000000c0: 596d dc39 485b 84bd 2cf5 363e 4f94 573e
000000d0: b89d 8f3d e7c2 413e 7ae8 63bd e95a 253e
000000e0: d00c 5c3e 3ddf 63bd f5c9 92bd 1cf5 513e
000000f0: 6aa6 fabd 0a63 1e3e 95cf 3cbc 4268 9d3d
00000100: 9987 01be ec4a 03be fcea 57bd 0f75 233e
00000110: 0ba8 5e3c c332 0cbd 8ffb 383e 82cc 87bd
00000120: f511 0fbd b5c1 b6bd d813 a23d d0e6 87bd
00000130: 20e9 2f3c 7ec2 96bd f592 05be bca8 5a3d
00000140: 69a4 1e3e a797 033e a58e 19be 42a3 e53c
00000150: 96dc 383e 01ac 2c3d e44c acbc 7610 48bb
00000160: e197 13be 7765 02be 5877 8dbd d855 1e3d
00000170: 6bde 213e 79c5 65bd 3725 7abd 7cfd 93bc
00000180: 6c4f 8bbd 120e fdbd 7d95 e63d 2d5c 7ebd
00000190: 5c5c dabd 54c1 6e3e c502 283e a203 10be
000001a0: 35b2 49bd 586c 223d 857b 27bd 9b0d f7bc
000001b0: e555 d2bd 090d 97bc b56b 113e 8d32 f73d
000001c0: d861 c23d 1cf4 543c a30d c83d b06b eabc
000001d0: 1a55 c63c ee7c 63bd a54b f93d 112b 2d3e
000001e0: d0c9 e33b 06d1 26bc 1cdc 96bd afc5 a5bd
000001f0: 25d7 81bd 46ae a43c 0c07 b6bc 1075 1b3e

fc1.weight f4 [32, 32]
-0.12359409 0.0062231068 -0.040453058 -0.068724714 0.15402192 -0.10678367 0.15546115 -0.15461309
-0.105839685 0.038472507 0.02445868 -0.1338826 -0.0692122 0.14108483 0.067077965 0.062762156
-0.17778991 -0.12909544 -0.096058756 0.044188257 0.108116336 -0.042725783 -0.105231315 -0.07009721
0.09539547 -0.024492882 0.15394804 -0.06795184 0.12061777 0.100387305 -0.17502384 0.07771251
-0.06029788 -0.03366463 0.13779064 -0.07650016 0.060870096 0.08174137 -0.12486261 -0.16502668
-0.14499985 0.086154185 -0.12750232 0.10166422 -0.044786807 0.06123321 0.059842955 -0.006689111
0.14258818 -0.089495674 0.08516092 0.07415592 -0.1526916 -0.13066095 0.1528217 0.07909507
-0.0745386 -0.13503891 -0.034855884 -0.105231486 0.04138839 -0.14689879 0.035965912 -0.048875034
-0.07443122 -0.06277307 0.08082929 0.06490514 0.17657469 0.06698901 -0.16984607 -0.028795423
-0.12228866 0.07382041 -0.13980162 0.11169285 -0.06438992 0.1439255 0.023802776 -0.0055915704
-0.17905928 -0.1436949 -0.07191185 0.13035238 0.061207104 -0.114381455 -0.06499462 -0.06741822
0.1098626 -0.021217 -0.015996927 -0.00994647 0.026016032 0.12444608 0.14657176 -0.015127051
0.13089393 0.062433288 -0.14664142 0.12640442 -0.06022567 0.021922518 -0.1216056 -0.11727316
-0.17642953 -0.16775271 0.07300799 0.13794169 0.023996178 0.034240253 -0.14450493 -0.07531527
0.15281671 -0.012987856 -0.14752865 -0.07746238 -0.106239244 -0.18441479 0.0888995 -0.046290543
0.06456902 0.008163297 0.103927255 0.088773295 -0.018864408 -0.13048497 0.077822514 0.14749178
-0.0602565 -0.012811983 -0.025592322 0.15887818 0.011360851 0.04546578 -0.07800283 0.15931056
0.03414616 0.1934209 -0.003972357 0.24505354 -0.19057487 -0.22020605 -0.11546442 -0.18267965
0.1698456 0.022627058 -0.194252 0.015299269 -0.26257095 0.109041534 0.022326827 0.024249515
0.12450191 0.2384324 0.10567171 0.11858244 -0.16976461 -0.07362973 0.030659238 -0.31471673
-0.058047317 0.15201353 0.038214374 -0.074295074 0.012440266 -0.16358528 0.062940195 -0.1687293
-0.068177916 -0.07508594 -0.024397958 0.06991378 -0.08209546 0.07074372 -0.079096906 -0.042807516
0.112128995 -0.1404162 0.07424101 0.068946645 -0.011345861 -0.12179159 -0.14892082 -0.11938345
-0.0760482 0.10469523 0.06604671 -0.08773669 0.013547586 0.066363536 -0.14174902 -0.13905756
-0.17923075 0.0792175 -0.09355172 0.1539015 -0.10401711 0.20171009 0.22082148 0.21173191
0.21433963 0.14718728 -0.325958 0.24547625 -0.18376084 -0.085547164 -0.15488818 -0.25501
0.17916244 0.08421899 -0.21262565 -0.24259193 -0.2647961 0.11858358 0.022058427 -0.0039380314
0.21144298 0.018001087 -0.23660399 0.08733358 -0.07284141 -0.08678601 0.14328244 -0.114102624
0.20754035 0.025454814 0.067305736 -0.20983171 -0.071537666 -0.060181294 -0.19918899 0.0722638
0.06944274 -0.1096347 -0.067513265 0.00996293 -0.04616115 0.15084857 -0.112697326 0.040099066
0.111947544 -0.016349979 -0.052333426 0.11319148 -0.15703331 -0.033807162 0.21162261 -0.079845324
-0.10055732 0.050750412 0.0071420204 0.095387846 0.08699583 0.028848717 0.0806108 0.099141106
00000000: e61e fdbd 34eb cb3b 1bb2 25bd 8bbf 8cbd
00000010: ecb7 1d3e 66b1 dabd 3531 1f3e e552 1ebe
00000020: 7ac2 d8bd 5995 1d3d 925d c83c 8518 09be
00000030: 20bf 8dbd 8b78 103e 2c60 893d 7289 803d
00000040: 8f0e 36be 9831 04be 74ba c4bd bffe 343d
00000050: 196c dd3d 3b01 2fbd 8483 d7bd 208f 8fbd
00000060: b35e c33d 4ca5 c8bc 8ea4 1d3e 562a 8bbd
00000070: 7306 f73d dc97 cd3d 7339 33be bd27 9f3d
00000080: e9fa 76bd ece3 09bd fd18 0d3e 1eac 9cbd
00000090: ec52 793d 0568 a73d f8b7 ffbd c1fc 28be
000000a0: d77a 14be 9b71 b03d f88f 02be 5535 d03d
000000b0: 5f72 37bd adcf 7a3d e31d 753d 5430 dbbb
000000c0: a302 123e 8249 b7bd d968 ae3d 0fdf 973d
000000d0: 305b 1cbe fccb 05be 4b7d 1c3e 99fc a13d
000000e0: b2a7 98bd a447 0abe 0bc5 0ebd 9b83 d7bd
000000f0: df86 293d a36c 16be fe50 133d 3031 48bd
00000100: 656f 98bd 2b8f 80bd d489 a53d fcec 843d
00000110: ffcf 343e 8931 893d 21ec 2dbe 61e4 ebbc
00000120: 7a72 fabd 282f 973d 2828 0fbe 39bf e43d
00000130: ddde 83bd 3561 133e 0afe c23c 7e39 b7bb
00000140: 515b 37be c224 13be 8546 93bd 187b 053e
00000150: 4db4 7a3d d340 eabd e61b 85bd 9012 8abd
00000160: a5ff e03d 46cf adbc fd0b 83bc 85f6 22bc
00000170: 931f d53c 96dd fe3d e816 163e 73d7 77bc
00000180: 0f09 063e 0cba 7f3d 2b29 16be 2970 013e
00000190: 31af 76bd da96 b33c 5b0c f9bd e92c f0bd
000001a0: f1a9 34be 5ec7 2bbe 3785 953d 9640 0d3e
000001b0: a293 c43c 823f 0c3d 1af9 13be e43e 9abd
000001c0: fc7b 1c3e 04cb 54bc c011 17be 99a4 9ebd
000001d0: f693 d9bd 3bd7 3cbe f110 b63d 279b 3dbd
000001e0: c33c 843d 59bf 053c d0d7 d43d c6ce b53d
000001f0: 8889 9abc da9d 05be 6961 9f3d 1608 173e
00000200: 85cf 76bd 5ae9 51bc fda6 d1bc f6b0 223e
00000210: dd22 3a3c 533a 3a3d f3bf 9fbd 4f22 233e
00000220: d8dc 0b3d 2110 463e 8c2a 82bb 51ef 7a3e
00000230: 0f26 43be b27d 61be 9c78 ecbd 6010 3bbe
00000240: 01ec 2d3e 615c b93c ffe9 46be c9a9 7a3c
00000250: b36f 86be 2b51 df3d c0e6 b63c eba6 c63c
00000260: dbfa fe3d a027 743e 696a d83d 5adb f23d
00000270: c6d6 2dbe 2fcb 96bd 1529 fb3c 8d22 a1be
00000280: 06c3 6dbd 6fa9 1b3e ad86 1c3d 0428 98bd
00000290: 42d2 4b3c e682 27be cae6 803d 60c7 2cbe
000002a0: dda0 8bbd a8c6 99bd 3ade c7bc f52e 8f3d
000002b0: aa21 a8bd 15e2 903d 8ffd a1bd ef56 2fbd
000002c0: e3a3 e53d 44c9 0fbe ac0b 983d e633 8d3d
000002d0: fde3 39bc de6d f9bd b37e 18be 4f7f f4bd
000002e0: 29bf 9bbd 746a d63d 7f43 873d 4baf b3bd
000002f0: b2f6 5d3c 9be9 873d a826 11be 1b65 0ebe
00000300: 4488 37be c93c a23d 0b98 bfbd 5b98 1d3e
00000310: ec06 d5bd 178d 4e3e 071f 623e 40d0 583e
00000320: d97b 5b3e 43b8 163e f8e3 a6be 205e 7b3e
00000330: cd2b 3cbe 5a33 afbd 029b 1ebe ac90 82be
00000340: 5c76 373e 017b ac3d 8aba 59be 056a 78be
00000350: 5b93 87be f3db f23d e0b3 b43c 9a0a 81bb
00000360: 8284 583e 0477 933c 5148 72be f3db b23d
00000370: e12d 95bd ddbc b1bd a2b8 123e a3ae e9bd
00000380: 7585 543e 9d86 d03c 97d7 893d 20de 56be
00000390: 5782 92bd a980 76bd 33f8 4bbe 0bff 933d
000003a0: ff37 8e3d 2888 e0bd 6544 8abd 8f3b 233c
000003b0: 7913 3dbd 0c78 1a3e dbcd e6bd eb3e 243d
000003c0: c144 e53d 64f0 85bc 935b 56bd efd0 e73d
000003d0: 57cd 20be 6179 0abd 99b3 583e f285 a3bd
000003e0: fff0 cdbd aadf 4f3d 9c07 ea3b b45a c33d
000003f0: df2a b23d 2554 ec3c 4617 a53d 7e0a cb3d

fc1.bias f4 [32]
-0.15233693 0.10024317 0.10896786 -0.1401705 0.17751384 -0.15124054 0.17284086 -0.018203735
0.10335529 0.011513044 0.13844347 0.110515475 0.10649631 -0.16427119 -0.053762957 -0.046208877
-0.02860987 0.09383278 -0.09094326 0.10240008 -0.110684425 0.12435216 0.13770044 0.04769068
-0.025849128 0.09962665 0.21521838 0.010490947 -0.07216988 0.15843531 -0.13678819 0.17115337
00000000: 36fe 1bbe 4b4c cd3d 8b2a df3d db88 0fbe
00000010: 30c6 353e cdde 1abe 32fd 303e 0020 95bc
00000020: f0ab d33d 35a1 3c3c 20c4 0d3e f055 e23d
00000030: bd1a da3d b536 28be 8c36 5cbd 8545 3dbd
00000040: 3f5f eabc 672b c03d 7640 babd 22b7 d13d
00000050: 84ae e2bd 58ac fe3d 5801 0d3e 4d57 433d
00000060: 8dc1 d3bc 0f09 cc3d 3562 5c3e 39e2 2b3c
00000070: cdcd 93bd de3c 223e 3412 0cbe d442 2f3e

fc3.weight f4 [3, 32]
-0.011038495 0.14225432 -0.13811336 0.12694187 0.11827162 0.08632089 0.21794146 0.13455735
-0.1338852 -0.11907419 0.2992328 0.028307367 0.08701849 0.13641784 0.29088035 0.071825996
-0.22408865 -0.003859535 0.00086987065 -0.25553757 0.06198564 0.0009060473 -0.035625335 -0.092454426
0.23737268 -0.23141003 0.31472048 -0.27341062 0.27607918 0.110534266 -0.026205268 0.047845434
0.14316317 0.13665503 0.051460415 0.01833625 -0.02497483 -0.1103562 -0.20973945 0.11108026
0.11953208 -0.07618094 -0.021906648 -0.15413098 -0.29426643 -0.12170367 -0.18839361 -0.06258581
0.16397846 -0.17632975 0.12720278 0.14047974 -0.21572202 -0.104594864 -0.0007270454 0.03915259
-0.03575345 -0.13122423 -0.023604956 0.09982602 -0.22760597 -0.19475104 0.17242076 -0.1873471
0.0880649 -0.041435733 -0.14775728 0.15862882 -0.26163772 -0.053160794 -0.24179572 0.105308704
0.061763126 0.043930687 -0.1955254 0.002414667 -0.20924091 0.018789684 -0.2803697 -0.09559738
0.01927799 0.038154818 0.22836974 -0.030721407 -0.027898785 -0.17878905 0.09706865 0.002590341
-0.16493933 0.21029244 -0.26431808 0.19080293 -0.22317085 -0.18072712 0.20115294 -0.1463855
00000000: ceda 34bc 1eab 113e 976d 0dbe 0dfd 013e
00000010: 6438 f23d 02c9 b03d 0c2c 5f3e 67c9 093e
00000020: 3419 09be 2bdd f3bd 0b35 993e dae4 e73c
00000030: c036 b23d 1eb1 0b3e 45ee 943e 8219 933d
00000040: 7f77 65be 41f0 7cbb 0808 643a d2d5 82be
00000050: a8e4 7d3d ce83 6d3a dfeb 11bd bf58 bdbd
00000060: d311 733e c0f6 6cbe 0b23 a13e 7afc 8bbe
00000070: 405a 8d3e ca5f e23d 6eac d6bc 93f9 433d
00000080: 5e99 123e 4cef 0b3e 28c8 523d e735 963c
00000090: 0498 ccbc 6e02 e2bd f0c5 56be 0c7e e33d
000000a0: 3ccd f43d c104 9cbd 9275 b3bc 83d4 1dbe
000000b0: 17aa 96be c63f f9bd 41ea 40be fd2c 80bd
000000c0: f8e9 273e c98f 34be 7241 023e ecd9 0f3e
000000d0: 3ce6 5cbe d535 d6bd 3197 3eba 775e 203d
000000e0: 3672 12bd a55f 06be 2e5f c1bc 9671 cc3d
000000f0: 8a11 69be d16c 47be 118f 303e ebd7 3fbe
00000100: 5f5b b43d 84b8 29bd af4d 17be 986f 223e
00000110: 61f5 85be 22bf 59bd 4c99 77be 17ac d73d
00000120: 55fb 7c3d aaf0 333d cf37 48be 643f 1e3b
00000130: 4043 56be d3ec 993c 9e8c 8fbe 8fc8 c3bd
00000140: e0ec 9d3c 3a48 1c3d c2d9 693e 76ab fbbc
00000150: fe8b e4bc 7a14 37be eecb c63d b6c2 293b
00000160: dbe5 28be e756 573e b354 87be d861 433e
00000170: e686 64be 8810 39be 09fb 4d3e 15e6 15be

fc3.bias f4 [3]
0.057920665 -0.1282644 -0.09088063
00000000: 383e 6d3d be57 03be a01f babd
