model/save/v8.2_2022-09-02_09-54/model.pt (torch, 286107 bytes, 8 tensors)

lstm.weight_ih_l0 f4 [128, 512]
-0.023630008 -0.054682203 -0.069906816 0.077029556 0.08304292 0.066994265 -0.078826346 0.12661998
0.010491376 -0.05734459 -0.13635382 0.14403228 0.08792386 -0.07372907 -0.08215068 0.16735403
0.09906313 -0.16269697 -0.15587236 -0.16710272 0.095137894 0.07366146 0.14327534 0.16100816
-0.15581764 -0.12464138 0.16343218 0.013085859 -0.08881088 0.121999905 -0.01712679 0.098903984
-0.0072626304 -0.037871648 -0.09890102 0.09138143 0.054153092 -0.13240634 -0.13159116 -0.11277064
-0.06016606 -0.1016284 0.24490084 -0.03206409 0.062149365 0.19129188 0.079556994 -0.036012452
0.13106415 0.08263156 -0.014212802 0.116159596 0.0024416333 -0.11831296 0.02706831 0.20498721
0.02975635 -0.063136585 0.21588987 0.22403055 -0.11040893 -0.18687825 0.0015421965 -0.2915781
0.21068522 -0.08575771 0.27340385 -0.09910361 -0.10003304 0.14076893 0.31420204 0.18789695
0.25600624 0.027444566 0.16230811 0.021778258 -0.1425266 0.037322495 0.0085278 0.047180455
0.08546771 0.1442947 -0.134823 0.14479032 0.08781463 0.02598586 0.032844644 -0.037398003
0.19090432 0.12842554 -0.05689339 0.1424572 0.05337483 -0.072694056 0.039929077 -0.1253643
0.07356844 0.146647 0.19053099 0.01515527 0.14179926 0.028278869 0.10208296 0.08178524
-0.1415151 0.11304352 -0.2891348 -0.08078143 -0.031320393 0.054970037 -0.0059896773 -0.0030056818
-0.022300987 -0.019178025 -0.16297157 -0.034700584 0.071158886 0.022958487 -0.040473767 -0.087156385
0.044842567 0.03356227 -0.11462885 -0.1844179 0.07663455 -0.09301735 0.06630264 0.17756343
-0.0822606 -0.068167 -0.15911268 0.041320696 0.02999396 0.027975759 0.17344327 0.07577432
0.067507 -0.05888417 -0.106885426 0.14367703 0.23798965 0.015181536 0.03800747 -0.06506342
-0.06700952 -0.024283532 0.11832529 -0.061151862 -0.06119793 -0.01345854 0.16927102 -0.021915454
0.17957407 -0.0019305281 -0.22662678 0.17824832 -0.029716482 -0.019710839 -0.022005383 0.041589428
0.024787378 -0.2465869 0.18822968 0.2032926 -0.11530487 0.009702917 -0.08122882 0.060116924
-0.0065734056 0.21859278 -0.06512799 0.100480564 -0.0067215306 0.023026507 -0.13210954 -0.13201685
0.017883727 -0.09226306 0.08813831 -0.15909003 0.19934016 0.09310495 -0.01876134 -0.01424735
-0.041630898 0.06741728 0.041404866 -0.16243416 -0.12937213 0.09419618 -0.10057028 0.06559795
0.1227089 0.115693025 -0.11245946 0.084590495 -0.10949791 0.16843662 0.021489287 0.19569573
-0.08330326 -0.062400013 0.24019417 -0.045599025 0.16000545 0.04783295 0.19977444 0.21044888
-0.18468925 -0.12125723 -0.12418367 0.022286704 0.19461459 -0.1935297 -0.0783707 0.042469356
0.20741914 -0.09348385 0.0102864625 -0.14868706 0.18758535 -0.04225295 0.022799818 -0.1324222
0.033137146 -0.09006081 -0.031761333 -0.13308187 -0.11057568 0.10246945 -0.10625504 0.18408819
0.11028845 -0.06076236 0.019324265 -0.15446733 -0.09507106 0.14816064 -0.10822416 -0.017460108
0.04365266 -0.0769762 -0.042591445 0.050511844 -0.063425116 0.18383056 0.058444522 0.2693161
-0.070335165 -0.1676844 0.17941275 0.014126069 -0.11440223 0.09547342 0.056442633 -0.060073175
00000000: b893 c1bc 72fa 5fbd 4e2b 8fbd acc1 9d3d
00000010: 6812 aa3d 4a34 893d b56f a1bd aba8 013e
00000020: 05e4 2b3c 29e2 6abd 56a0 0bbe 337d 133e
00000030: 6d11 b43d 44ff 96bd 9e3e a8bd db5e 2b3e
00000040: 9ce1 ca3d 099a 26be 019d 1fbe fa1c 2bbe
00000050: a8d7 c23d d2db 963d c5b6 123e 53df 243e
00000060: a98e 1fbe fb43 ffbd c45a 273e 1266 563c
00000070: 7be2 b5bd 16db f93d 7b4d 8cbc 2c8e ca3d
00000080: 5cfb edbb 4d1f 1bbd 9e8c cabd 3026 bb3d
00000090: a2cf 5d3d 8795 07be d5bf 06be 4bf4 e6bd
000000a0: b070 76bd 8d22 d0bd 49c7 7a3e a355 03bd
000000b0: 5590 7e3d 05e2 433e c7ee a23d cb81 13bd
000000c0: ae35 063e bc3a a93d d0dc 68bc 15e5 ed3d
000000d0: cf03 203b 114e f2bd 5cbe dd3c 2be8 513e
000000e0: 97c3 f33c c14d 81bd 3c12 5d3e 4468 653e
000000f0: 141e e2bd 035d 3fbe 8723 ca3a ba49 95be
00000100: debd 573e bda1 afbd 97fb 8b3e d5f6 cabd
00000110: 1fde ccbd bb25 103e 17df a03e 0f68 403e
00000120: 4013 833e 6dd3 e03c 1934 263e 5168 b23c
00000130: 7ef2 11be 79df 183d 30b8 0b3c 4b40 413d
00000140: b209 af3d fdc1 133e 0a0f 0abe ea43 143e
00000150: 28d8 b33d 4ce0 d43c 1b88 063d a62e 19bd
00000160: 6c7c 433e fc81 033e 0b09 69bd 4de0 113e
00000170: 919f 5a3d 9fe0 94bd ac8c 233d 805f 00be
00000180: 0dab 963d a22a 163e 8e1a 433e cf4d 783c
00000190: d333 113e 16a9 e73c df10 d13d 057f a73d
000001a0: 56e9 10be 5c83 e73d 7a09 94be bc70 a5bd
000001b0: d049 00bd 4328 613d 0e45 c4bb f9fa 44bb
000001c0: 8fb0 b6bc 3c1b 9dbc 05e2 26be 3322 0ebd
000001d0: c0bb 913d 7013 bc3c d2c7 25bd 0c7f b2bd
000001e0: d7ac 373d 9778 093d 88c2 eabd 0cd8 3cbe
000001f0: 93f2 9c3d e17f bebd aec9 873d 30d3 353e
00000200: 3f78 a8bd 249b 8bbd 6fee 22be e43f 293d
00000210: e5b5 f53c 6b2d e53c 1d9b 313e 912f 9b3d
00000220: 1c41 8a3d 8730 71bd bfe6 dabd 1220 133e
00000230: 8fb3 733e fabb 783c b9ad 1b3d f83f 85bd
00000240: 4a3c 89bd 42ee c6bc 8854 f23d 607a 7abd
00000250: aeaa 7abd 3581 5cbc 6255 2d3e 0a88 b3bc
00000260: 44e2 373e c609 fdba da10 68be ba86 363e
00000270: fb6f f3bc a078 a1bc a244 b4bc ad59 2a3d
00000280: e60e cb3c 4781 7cbe 48bf 403e ef2b 503e
00000290: f624 ecbd fcf8 1e3c 4c5b a6bd 2a3d 763d
000002a0: b965 d7bb c9d6 5f3e d361 85bd c1c8 cd3d
000002b0: 4940 dcbb 16a2 bc3c b947 07be 6d2f 07be
000002c0: e580 923c 6af4 bcbd dc81 b43d 7fe8 22be
000002d0: d41f 4c3e cfad be3d 62b1 99bc b86d 69bc
000002e0: 2985 2abd 1212 8a3d 2698 293d 2455 26be
000002f0: 217a 04be ede9 c03d caf7 cdbd 3858 863d
00000300: ce4e fb3d 77f0 ec3d 2551 e6bd c83d ad3d
00000310: 7140 e0bd a67a 2c3e 4d0a b03c 7664 483e
00000320: e69a aabd 2897 7fbd 76f5 753e 0bc6 3abd
00000330: 78d8 233e 7cec 433d ac91 4c3e e97f 573e
00000340: 2e1f 3dbe b655 f8bd 0254 febd 9b92 b63c
00000350: 0c49 473e a62c 46be d180 a0bd 59f4 2d3d
00000360: af65 543e 7674 bfbd 8d88 283c 6c41 18be
00000370: 6016 403e 6e11 2dbd afc6 ba3c af99 07be
00000380: d1ba 073d cd71 b8bd 2c18 02bd 9d46 08be
00000390: 8175 e2bd 81db d13d 3e9c d9bd 9d81 3c3e
000003a0: e9de e13d f4e1 78bd ec4d 9e3c af2c 1ebe
000003b0: 9eb4 c2bd 6cb7 173e a1a4 ddbd 8008 8fbc
000003c0: 22cd 323d b3a5 9dbd 5e74 2ebd 82e5 4e3d
000003d0: 07e5 81bd 143e 3c3e 8663 6f3d cde3 893e
000003e0: e20b 90bd 76b5 2bbe fab7 373e 0771 673c
000003f0: b74b eabd 9287 c33d 6430 673d 4a0f 76bd

lstm.weight_hh_l0 f4 [128, 32]
0.07496673 0.06605338 0.10218043 0.198602 -0.003989044 -0.015415199 0.16426645 0.094641045
0.07475158 -0.2697464 0.10365185 -0.11087289 0.045214638 -0.1919006 -0.20182742 0.03230679
-0.012101172 0.17776963 -0.052459374 0.07638676 0.014142643 -0.13312203 -0.09172861 0.11244588
-0.12308548 0.13077967 -0.11159551 0.028489226 -0.01837033 -0.16160958 -0.07265139 0.09748058
-0.1846956 -0.0352978 0.074060224 0.08892429 -0.06678433 -0.0072988532 0.04791571 0.1993523
-0.024617398 0.089708135 0.1346293 0.084952176 -0.032902144 -0.18912981 -0.08709133 -0.043987118
-0.10188278 -0.06656183 0.08467494 -0.030493036 -0.031513996 0.21526805 -0.07229782 -0.06074718
-0.019636018 0.010715684 -0.16991983 0.0881427 0.06125144 0.059452176 -0.09293543 -0.11315302
-0.027172092 0.14921106 -0.21457054 0.15856013 -0.01656515 0.21960862 0.136796 0.1650764
-0.043103077 -0.08430389 -0.1942928 -0.043635607 0.08239506 0.0976113 -0.020935684 0.008797301
-0.10299076 0.18484782 0.024392815 0.1293717 -0.042097535 0.018180346 -0.19520047 0.22474694
0.18915467 0.012179834 -0.09716115 -0.004309642 -0.24782482 -0.07466853 -0.01498601 0.06722036
0.10842117 0.2033007 -0.093162276 -0.006729143 0.05687704 -0.0062534166 0.17873713 0.07356576
-0.104719676 -0.053168066 -0.15636137 0.022748249 0.039518896 -0.061685868 -0.21452619 -0.0032661671
-0.083232686 -0.05284251 0.014487896 0.14868107 0.001342969 0.1673877 -0.12463809 0.20808621
0.2086721 -0.05605367 -0.20179683 0.11487213 -0.2339249 -0.04548706 0.14395414 -0.1257167
-0.12874676 0.05628807 -0.1655625 0.14703034 -0.09952038 0.18662825 -0.124097906 0.11998064
-0.12280712 -0.119648226 0.09448739 0.1311899 -0.17374106 -0.023594292 -0.12791398 0.05285139
-0.009428157 -0.067888096 -0.005199349 0.015636483 -0.17536056 -0.063612185 -0.071289174 -0.039887656
-0.04654059 -0.110452004 -0.10055029 0.10985328 0.13642253 -0.09662774 0.02120931 0.10715206
-0.1855677 0.046584137 -0.012235893 0.0666991 0.051807623 -0.121494316 0.04246927 0.1732896
-0.14757055 -0.04257281 -0.11775883 0.15886366 -0.060635667 -0.24264866 -0.05123671 -0.027753428
-0.015907828 0.12475627 0.008532142 0.0013363808 -0.162279 -0.05542952 -0.0026631283 -0.08661355
0.055539206 0.23072672 -0.11014509 0.06896809 0.15167728 -0.1511826 0.26926267 -0.23202689
-0.020878037 0.055139795 -0.11612698 0.17573458 0.122626916 0.108110026 0.062039267 0.15258381
0.101834744 0.042586103 0.15718947 -0.09236183 -0.086403154 -0.101581216 0.02367957 0.042196263
0.11279192 -0.13224521 -0.16236824 -0.03452603 -0.13492407 0.17788944 -0.03372884 -0.07086644
0.09352142 -0.036155384 -0.18841204 -0.0877747 0.12969059 -0.14850482 0.019693082 -0.21594298
0.01558818 0.18209091 0.0068873717 0.19262895 -0.051611982 0.004928893 0.016831342 -0.10560205
0.08699472 0.020936469 -0.07850632 0.0552529 -0.092485055 0.07512815 -0.06341299 0.055901196
0.24869284 0.075353116 -0.043812282 0.06619228 -0.0914967 -0.043074634 -0.17960693 -0.14598922
0.18529539 0.11515693 -0.12909858 0.1530148 -0.12867221 -0.06789934 0.08170229 -0.20362058
00000000: 2888 993d ff46 873d f943 d13d 535e 4b3e
00000010: 87b6 82bb 0890 7cbc 7735 283e 2ad3 c13d
00000020: 5b17 993d 331c 8abe 6c47 d43d 5311 e3bd
00000030: fc32 393d 9781 44be d9ab 4ebe 2054 043d
00000040: fe43 46bc 3e09 363e a4df 56bd a970 9c3d
00000050: 8bb6 673c 2451 08be 36dc bbbd 074a e63d
00000060: 3d14 fcbd 1beb 053e 308c e4bd 3d62 e93c
00000070: 607d 96bc fb7c 25be 41ca 94bd e6a3 c73d
00000080: d820 3dbe 6d94 10bd e3ac 973d f01d b63d
00000090: 39c6 88bd 382b efbb 4343 443d 0223 4c3e
000000a0: 6daa c9bc e6b8 b73d 43dc 093e 68fb ad3d
000000b0: 66c4 06bd 3fab 41be f05c b2bd d62b 34bd
000000c0: eba7 d0bd 9251 88bd 0e6a ad3d 88cc f9bc
000000d0: d214 01bd 3a6f 5c3e e110 94bd 09d2 78bd
000000e0: b7db a0bc d690 2f3c 77ff 2dbe 2984 b43d
000000f0: cae2 7a3d 2084 733d ee54 bebd c5bc e7bd
00000100: 0298 debc c9ca 183e 61b8 5bbe 965d 223e
00000110: a3b3 87bc 15e1 603e 4014 0c3e ca09 293e
00000120: da8c 30bd 85a7 acbd b1f4 46be 40bb 32bd
00000130: bebe a83d 6fe8 c73d 5081 abbc 8e22 103c
00000140: d2ec d2bd bf48 3d3e 71d3 c73c 047a 043e
00000150: 776e 2cbd f3ee 943c a2e2 47be 1024 663e
00000160: c3b1 413e ed8d 473c 6dfc c6bd e637 8dbb
00000170: cac5 7dbe d0eb 98bd e287 75bc d4aa 893d
00000180: eb0b de3d 0f2e 503e ddcb bebd 2580 dcbb
00000190: e6f7 683d 76e9 ccbb de06 373e a5a9 963d
000001a0: 4577 d6bd c2c6 59bd 321d 20be 895a ba3c
000001b0: 91de 213d 52aa 7cbd c1ac 5bbe 310d 56bb
000001c0: e675 aabd 6371 58bd a45e 6d3c da3f 183e
000001d0: 9006 b03a ae67 2b3e 4142 ffbd 8d14 553e
000001e0: 24ae 553e 8898 65bd d4a3 4ebe 1442 eb3d
000001f0: 028a 6fbe a450 3abd b768 133e e1bb 00be
00000200: 31d6 03be 528e 663d 3789 29be 1f8f 163e
00000210: 57d1 cbbd 7a1b 3f3e 0b27 febd 69b8 f53d
00000220: 4d82 fbbd 210a f5bd 9b82 c13d a556 063e
00000230: 2de9 31be d148 c1bc e2fb 02be b37a 583d
00000240: 8e78 1abc ea08 8bbd 4d5f aabb 1518 803c
00000250: b891 33be 1b47 82bd 0f00 92bd 3d61 23bd
00000260: 58a1 3ebd a934 e2bd 4fed cdbd c2fa e03d
00000270: 59b2 0b3e c4e4 c5bd 26bf ad3c 8a72 db3d
00000280: 7605 3ebe 02cf 3e3d 0e79 48bc 8a99 883d
00000290: 3b34 543d 03d2 f8bd 42f4 2d3d d472 313e
000002a0: bc1c 17be d460 2ebd 8b2b f1bd 28ad 223e
000002b0: 1b5d 78bd e478 78be 96dd 51bd 285b e3bc
000002c0: 2251 82bc 3780 ff3d 66ca 0b3c 8029 af3a
000002d0: 772c 26be 100a 63bd e187 2ebb 7262 b1bd
000002e0: 147d 633d a043 6c3e c093 e1bd 243f 8d3d
000002f0: 4a51 1b3e 9dcf 1abe ccdc 893e 7598 6dbe
00000300: 6b08 abbc 44da 613d fbd3 edbd c4f3 333e
00000310: d223 fb3d ca68 dd3d e31c 7e3d ee3e 1c3e
00000320: bc8e d03d c46e 2e3d 47f6 203e 3328 bdbd
00000330: 23f4 b0bd d009 d0bd a8fb c13c fdd5 2c3d
00000340: 73ff e63d 4a6b 07be dc43 26be 2b6b 0dbd
00000350: 8929 0abe a628 363e 4127 0abd 6d22 91bd
00000360: 2988 bf3d ab17 14bd 16ef 40be 39c3 b3bd
00000370: 9ccd 043e a611 18be 6353 a13c 2820 5dbe
00000380: 9165 7f3c 0a76 3a3e 76af e13b 8640 453e
00000390: 1667 53bd 8d82 a13b e2e1 893c e345 d8bd
000003a0: 4a2a b23d f582 ab3c ecc7 a0bd dd50 623d
000003b0: ce68 bdbd cadc 993d abde 81bd a7f8 643d
000003c0: 56a9 7e3e bc52 9a3d 8274 33bd d18f 873d
000003d0: 9f62 bbbd 076f 30bd e1ea 37be 337e 15be
000003e0: 13be 3d3e 66d7 eb3d 6b32 04be e9af 1c3e
000003f0: a6c2 03be cf0e 8bbd 8853 a73d ea81 50be

lstm.bias_ih_l0 f4 [128]
-0.06417435 0.20283264 0.21763961 0.070655465 0.11840229 0.04601066 0.05343544 -0.13339213
-0.10319826 0.13328767 -0.010775907 -0.06825122 0.06797667 0.19775032 0.0440003 0.22944242
0.057743706 -0.051194366 0.0035995825 -0.016634356 0.18492973 0.33098987 0.09075931 0.17132963
0.2034884 0.01087808 -0.031471513 0.14550757 0.25739902 0.06390534 0.013409381 0.017648326
0.07893747 0.08076947 -0.05134007 0.057950534 0.18478975 0.18818803 0.22513577 0.10596468
-0.14493571 0.116195 -0.036221433 0.062439095 0.14607923 0.20416364 0.101563804 0.16578129
0.14331132 0.21508259 -0.042540386 0.26298088 -0.04549444 0.032498363 0.0489839 0.1613537
-0.018836804 0.20648222 0.004997026 0.24860422 0.064190306 -0.0019011092 0.069205806 0.0014621108
0.12598254 0.13323586 -0.17299452 -0.15344194 0.08682548 0.11744 -0.05677731 0.1069125
-0.13850933 -0.05351304 0.1729849 0.14037825 -0.027892062 -0.07827497 -0.025785489 -0.13946724
-0.13909866 -0.021697087 0.13462429 0.013830926 -0.08477053 0.17503642 -0.07716533 0.15759073
0.1787404 0.11870216 -0.046915945 0.14738223 -0.16499034 -0.042499833 -0.008511467 -0.09985397
0.040663913 0.18980354 0.108657576 0.003460036 0.072404176 0.22413138 0.22309814 0.2002973
0.23011746 -0.088689126 -0.044193696 -0.07086326 0.07326919 -0.048779957 -0.050592452 0.2008879
-0.029123262 0.16986954 -0.008388789 0.10567977 0.16293341 0.20487651 0.18000054 0.0777834
-0.06769044 -0.09146964 -0.05963345 0.23576494 0.008706863 0.10013297 0.0005764584 0.04531835
00000000: d76d 83bd 5cb3 4f3e ebdc 5e3e d0b3 903d
00000010: e67c f23d ac75 3c3d 1fdf 5a3d f297 08be
00000020: 9c59 d3bd 907c 083e 6e8d 30bc 4cc7 8bbd
00000030: 5a37 8b3d 0f7f 4a3e a939 343d f4f2 6a3e
00000040: aa84 6c3d 2fb1 51bd f9e6 6b3b c644 88bc
00000050: 385e 3d3e 8177 a93e 04e0 b93d 0971 2f3e
00000060: 435f 503e f939 323c 46e8 00bd f0ff 143e
00000070: cec9 833e cee0 823d 05b3 5b3c 3993 903c
00000080: f8a9 a13d 776a a53d f749 52bd 8a5d 6d3d
00000090: 8639 3d3e 5db4 403e fe89 663e 0304 d93d
000000a0: 076a 14be a5f7 ed3d ed5c 14bd 23c0 7f3d
000000b0: cb95 153e 4610 513e af00 d03d 92c2 293e
000000c0: 34c0 123e 9c3e 5c3e d43e 2ebd 6ea5 863e
000000d0: 6158 3abd 011d 053d 58a3 483d e839 253e
000000e0: a44f 9abc 1370 533e 18be a33b 1b92 7e3e
000000f0: 3576 833d a42e f9ba c6bb 8d3d 4ca4 bf3a
00000100: 9101 013e fb6e 083e 7a25 31be e21f 1dbe
00000110: 8fd1 b13d 6284 f03d 538f 68bd f1f4 da3d
00000120: 64d5 0dbe 7d30 5bbd f422 313e 51bf 0f3e
00000130: e57d e4bc a14e a0bd 173c d3bc 80d0 0ebe
00000140: e16f 0ebe 17be b1bc f3da 093e 1c9b 623c
00000150: 2c9c adbd bf3c 333e db08 9ebd 775f 213e
00000160: b907 373e 1e1a f33d ef2a 40bd 5eeb 163e
00000170: 3af3 28be 4e14 2ebd ae73 0bbc 3d80 ccbd
00000180: 348f 263d dc5b 423e dd87 de3d c5c1 623b
00000190: a448 943d b282 653e d773 643e bc1a 4d3e
000001a0: e9a3 6b3e a5a2 b5bd 7304 35bd c220 91bd
000001b0: 280e 963d 7ecd 47bd 083a 4fbd 8fb5 4d3e
000001c0: e893 eebc 48f2 2d3e 2271 09bc a36e d83d
000001d0: 04d8 263e 26cb 513e 1052 383e e74c 9f3d
000001e0: 49a1 8abd 6f54 bbbd 3442 74bd 5d6c 713e
000001f0: 3ba7 0e3c 8412 cd3d 781d 173a bc9f 393d

lstm.bias_hh_l0 f4 [128]
0.0956497 0.12652904 0.036926903 0.052007463 -0.11334797 0.05406995 -0.0012412084 0.1842088
0.027879843 -0.023334252 0.07843037 -0.04898637 0.06722968 0.007212594 0.13336714 -0.033145707
-0.13587426 0.15882693 -0.0001800501 0.014154167 -0.025491133 0.2103609 0.07388092 0.19883272
0.04766669 -0.07125452 0.12120949 0.1522974 0.09789544 0.12507735 0.13473436 -0.03221272
0.10907554 0.13857245 -0.086130016 0.032569226 -0.049604096 0.19441459 0.21887629 0.03217672
-0.088745974 0.05621857 0.061212808 -0.016969293 -0.1345366 0.18921146 0.030514942 -0.07172718
0.013298415 -0.0573025 0.19656938 0.22996633 0.056234684 0.15121493 -0.05641003 0.14088972
0.20504636 -0.044202525 -0.07022514 0.23767133 -0.091907404 0.168662 -0.033324193 0.09417116
-0.091185674 -0.13653429 -0.065079875 0.15572424 0.055526048 -0.036901847 0.1874434 -0.07056422
-0.023262026 -0.073556304 0.10119491 -0.07957742 0.014124138 -0.12427007 -0.10055034 0.055515066
0.14990512 0.13497226 -0.16661336 0.017665133 0.16065075 0.008373743 -0.011346737 0.0062367423
-0.15506835 -0.12196171 -0.056232058 0.013426655 0.15635264 -0.041630518 -0.07762446 -0.03740393
-0.08225629 -0.097800285 0.12194088 -0.07025111 -0.08910577 0.25746006 0.15073323 -0.117676884
-0.04143484 0.01569824 -0.050169364 -0.059704553 -0.10241328 0.011695532 0.12520686 0.123161644
0.090666674 0.009909553 0.10627443 0.048790287 -0.00062551285 -0.01644475 0.1400868 0.16170055
0.01677796 0.009350636 -0.058403987 -0.06118589 -0.041713975 0.016889663 -0.018123923 0.1568476
00000000: fde3 c33d d490 013e aa40 173d c705 553d
00000010: fb22 e8bd 7478 5d3d 0bb0 a2ba 3ba1 3c3e
00000020: 4564 e43c 7927 bfbc 1aa0 a03d efa5 48bd
00000030: b7af 893d a057 ec3b 6591 083e cbc3 07bd
00000040: 9f22 0bbe 87a3 223e d5cb 3cb9 e1e6 673c
00000050: c8d2 d0bc d968 573e e14e 973d ce9a 4b3e
00000060: 263e 433d e4ed 91bd ae3c f83d daf3 1b3e
00000070: 687d c83d 4714 003e cef7 093e 7cf1 03bd
00000080: ff62 df3d f0e5 0d3e ef64 b0bd 4f67 053d
00000090: aa2d 4bbd 9e14 473e 1b21 603e bdcb 033d
000000a0: 73c0 b5bd 7145 663d 48ba 7a3d 3003 8bbc
000000b0: f6c3 09be a6c0 413e 79fa f93c b3e5 92bd
000000c0: 98e1 593c 07b6 6abd 7c49 493e 4b7c 6b3e
000000d0: 5756 663d 16d8 1a3e 340e 67bd 6545 103e
000000e0: acf7 513e b50d 35bd 33d2 8fbd 1d60 733e
000000f0: f339 bcbd bbb5 2c3e f37e 08bd cfdc c03d
00000100: 8ebf babd a5cf 0bbe 9948 85bd 2d76 1f3e
00000110: 486f 633d 6426 17bd 2af1 3f3e f983 90bd
00000120: 0190 bebc b0a4 96bd 473f cf3d 7df9 a2bd
00000130: ee68 673c 4e81 febd 56ed cdbd c463 633d
00000140: ba80 193e 2b36 0a3e b19c 2abe 78b6 903c
00000150: a181 243e 0632 093c aae7 39bc 965d cc3b
00000160: 3dca 1ebe 10c7 f9bd 9653 66bd 79fb 5b3c
00000170: e81a 203e c384 2abd 93f9 9ebd dd34 19bd
00000180: fc75 a8bd 844b c8bd 24bc f93d d0df 8fbd
00000190: 167d b6bd ced1 833e d059 1a3e 9400 f1bd
000001a0: 94b7 29bd 9899 803c 647e 4dbd c38c 74bd
000001b0: 0ebe d1bd 9e9e 3f3c 3a36 003e 2c3c fc3d
000001c0: 73af b93d ae5b 223c 69a6 d93d 53d8 473d
000001d0: 75f9 23ba 24b7 86bc ea72 0f3e d494 253e
000001e0: ef71 893c 6933 193c 0539 6fbd 0e9e 7abd
000001f0: 46dc 2abd 315c 8a3c 9f78 94bc a89c 203e

fc1.weight f4 [32, 32]
-0.11964917 0.0358292 -0.039464176 -0.092559785 0.1250738 -0.10768059 0.15183309 -0.15848823
-0.10161259 0.011378547 0.020256443 -0.12975067 -0.06572674 0.17230773 0.0635575 0.0767301
-0.18118778 -0.13252144 -0.06674206 0.047692873 0.103984475 -0.013200887 -0.1024745 -0.066502064
0.09451031 -0.028070768 0.15758002 -0.07170038 0.117146224 0.104194306 -0.17861986 0.10583816
-0.1514067 0.11207822 -0.04660269 0.026451211 0.13835186 0.22070412 -0.034537233 -0.09198473
0.029497351 0.20315297 -0.30014205 0.2714307 -0.12283943 -0.02591749 -0.059508536 -0.13754836
0.2639644 -0.004379345 -0.003117718 0.20659627 -0.3232266 0.055393733 0.0752326 0.2525838
0.056250803 -0.05436751 -0.13158685 -0.012865162 -0.107504986 -0.24578974 0.1400429 -0.13814029
-0.17365833 -0.064115345 -0.016897658 0.14434591 0.27040002 0.087069 -0.06642847 0.05763813
-0.07692116 0.12901221 -0.07088849 0.09121965 -0.17024063 0.028688874 -0.029441478 -0.052679457
-0.118580066 -0.049860906 -0.17677072 0.08655855 0.17389889 -0.14740063 -0.16747102 -0.11976977
0.16884133 0.08503156 -0.12759618 0.08996719 0.050973926 0.029454498 0.2291725 -0.12258095
0.09992133 0.078370176 -0.14711481 0.13916229 -0.08990758 0.0078195855 -0.10045661 -0.07811176
-0.198595 -0.14928728 0.06293942 0.15108736 0.005219382 -0.0023143461 -0.15731409 -0.074559815
0.16964296 0.0113621615 -0.16946664 -0.1347928 -0.14261076 -0.17326497 0.06636063 -0.05276922
0.09275082 0.033289284 0.069972694 0.11436711 -0.00760572 -0.1517059 0.09764219 0.11680533
-0.072000094 -0.050751302 -0.05840975 0.16198938 0.17863089 -0.03444057 -0.050833795 0.17457162
-0.005653425 0.13811812 0.171977 0.12735203 -0.20098983 -0.17266555 -0.11518039 -0.11810379
0.16393256 0.057521787 -0.13107377 0.18649791 -0.08672078 0.06326191 0.021254921 -0.08940614
0.12754087 0.25746047 0.06398505 0.13592526 -0.10557399 -0.09130162 0.041494623 -0.25423446
-0.08859458 0.24067874 -0.014911483 -0.08583142 0.009311529 -0.14806937 0.09284792 -0.14121583
-0.057206452 -0.062439214 -0.12889403 0.12455959 -0.110225715 0.053669922 -0.16908778 -0.055433616
0.14791869 -0.111217305 0.05280873 0.05090803 -0.15410556 -0.023055626 -0.17475794 -0.113353126
-0.027730301 0.13127285 0.034818776 -0.059428938 0.016599432 0.032971233 -0.105455436 -0.16509762
-0.1773541 0.0850306 -0.12183223 0.16840437 0.04646601 0.17408684 0.22959761 0.20683055
0.2057088 0.09360705 -0.29979718 0.20305125 -0.17372006 -0.021126557 -0.17185518 -0.22572967
0.18467085 0.099119134 -0.14376767 -0.011772197 -0.24594188 0.1676838 0.032862242 -0.01729327
0.22910312 0.015467359 -0.25057393 0.08930039 -0.069201484 -0.09532876 0.1512159 -0.06248635
0.15497679 0.0899887 0.061078954 -0.1808434 -0.11570151 -0.07599378 -0.14095289 0.14159288
0.037951842 -0.11412381 -0.097997434 0.0010935486 -0.09713219 0.12027783 -0.16175193 0.047129765
0.17086965 0.0367464 -0.08269717 0.01809105 -0.21029863 0.021355096 0.15946959 -0.11763363
-0.045152474 0.10005495 -0.051479366 0.1426544 0.1354627 -0.02339201 0.12970954 0.056558628
00000000: a00a f5bd a4c1 123d 30a5 21bd fc8f bdbd
00000010: 5913 003e a487 dcbd 227a 1b3e bd4a 22be
00000020: 431a d0bd 166d 3a3c d7f0 a53c 5cdd 04be
00000030: be9b 86bd 7071 303e 6f2a 823d ac24 9d3d
00000040: 4a89 39be b3b3 07be 10b0 88bd 9a59 433d
00000050: d0f5 d43d 8848 58bc 27de d1bd 3c32 88bd
00000060: 9f8e c13d abf4 e5bc a85c 213e a6d7 92bd
00000070: 5cea ef3d d363 d53d 20e8 36be adc1 d83d
00000080: 5c0a 1bbe 4489 e53d 76e2 3ebd 36b0 d83c
00000090: 1cac 0d3e 4300 623e ea76 0dbd 7d62 bcbd
000000a0: 6ea4 f13c 5507 503e 38ac 99be f7f8 8a3e
000000b0: 3d93 fbbd ea50 d4bc 39bf 73bd 7ad9 0cbe
000000c0: 5826 873e 9c80 8fbb a152 4cbb f98d 533e
000000d0: f57d a5be 8ae4 623d 8d13 9a3d aa52 813e
000000e0: 3e67 663d 77b0 5ebd b4be 06be 67c8 52bc
000000f0: 932b dcbd 4eb0 7bbe 6867 0f3e a674 0dbe
00000100: 7dd3 31be e84e 83bd f56c 8abc 6acf 133e
00000110: df71 8a3e 3b51 b23d a60b 88bd f615 6c3d
00000120: d788 9dbd c71b 043e fc2d 91bd 5ed1 ba3d
00000130: 8f53 2ebe ee04 eb3c 412f f1bc 6ac6 57bd
00000140: 1bda f2bd f33a 4cbd 6203 35be 9c45 b13d
00000150: 8d12 323e 31f0 16be 867d 2bbe da49 f5bd
00000160: bee4 2c3e 0725 ae3d 93a8 02be b840 b83d
00000170: 09ca 503d 8f4a f13c 32ac 6a3e b90b fbbd
00000180: 8ea3 cc3d 8b80 a03d 44a5 16be 8f80 0e3e
00000190: 7721 b8bd b81d 003c 32bc cdbd 0ff9 9fbd
000001a0: 7d5c 4bbe c4de 18be 62e6 803d a5b6 1a3e
000001b0: 5907 ab3b 49ac 17bb f216 21be d1b2 98bd
000001c0: e2b6 2d3e 5c28 3a3c aa88 2dbe 2007 0abe
000001d0: 8e08 12be 5f6c 31be 15e8 873d 8a24 58bd
000001e0: 24f4 bd3d 585a 083d d84d 8f3d 4e39 ea3d
000001f0: 6739 f9bb cb58 1bbe a1f8 c73d a237 ef3d
00000200: c974 93bd 99e0 4fbd 103f 6fbd 8be0 253e
00000210: 04eb 363e 8e11 0dbd 1937 50bd e7c2 323e
00000220: 5e40 b9bb d66e 0d3e bd1a 303e 9268 023e
00000230: 47d0 4dbe 3dcf 30be b2e3 ebbd 66e0 f1bd
00000240: f0dd 273e f79b 6b3d 3438 06be 4ff9 3e3e
00000250: aa9a b1bd 768f 813d cd1e ae3c 911a b7bd
00000260: 139a 023e dcd1 833e 980a 833d fe2f 0b3e
00000270: 2d37 d8bd 58fc babd 44f6 293d 052b 82be
00000280: 1371 b5bd 7d74 763e 4b4f 74bc 62c8 afbd
00000290: 628f 183c 7f9f 17be 0d27 be3d e29a 10be
000002a0: 5051 6abd 43c0 7fbd ccfc 03be 1919 ff3d
000002b0: 05be e1bd fed4 5b3d 5925 2dbe 5c0e 63bd
000002c0: ff77 173e e6c5 e3bd f84d 583d f084 503d
000002d0: d9cd 1dbe 27df bcbc bff3 32be af25 e8bd
000002e0: a82a e3bc 646c 063e 229e 0e3d c26b 73bd
000002f0: 88fb 873c d80c 073d 05f9 d7bd 5a0f 29be
00000300: 509c 35be 8624 ae3d 2d83 f9bd 3272 2c3e
00000310: 2553 3e3d d243 323e a31b 6b3e 63cb 533e
00000320: 54a5 523e 0eb5 bf3d 047f 99be abec 4f3e
00000330: ace3 31be 9a11 adbc cefa 2fbe ae25 67be
00000340: 5b1a 3d3e f9fe ca3d d537 13be 2ce0 40bc
00000350: 30d8 7bbe 4db5 2b3e 8f9a 063d 9eaa 8dbc
00000360: 029a 6a3e ce6a 7d3c 3a4b 80be 1fe3 b63d
00000370: 82b9 8dbd ba3b c3bd 57d8 1a3e b0f1 7fbd
00000380: 3cb2 1e3e ff4b b83d ed2d 7a3d 032f 39be
00000390: eaf4 ecbd a0a2 9bbd f455 10be b9fd 103e
000003a0: 6473 1b3d beb9 e9bd e1b2 c8bd 6755 8f3a
000003b0: 3eed c6bd 3954 f63d 4ca2 25be 240b 413d
000003c0: 74f8 2e3e 6583 163d 225d a9bd af33 943c
000003d0: 8658 57be e2f0 ae3c ff4b 233e e7e9 f0bd
000003e0: cdf1 38bd 9ce9 cc3d 07dc 52bd ff13 123e
000003f0: bcb6 0a3e 9aa0 bfbc 94d2 043e 05aa 673d

fc1.bias f4 [32]
-0.15598008 0.15725492 0.2008449 -0.12474878 0.19533178 -0.12850098 0.17694806 0.0071252994
0.102768645 0.06616555 0.12116405 0.06604647 0.12082104 -0.084910706 -0.0679699 -0.046897434
-0.024961222 0.049118623 -0.10583163 0.11528994 -0.15451086 0.14032574 0.12898453 0.043713145
-0.034797676 0.04531211 0.19699402 0.00016048759 -0.076643616 0.1613159 -0.11307103 0.17427425
00000000: 3eb9 1fbe 6f07 213e 49aa 4d3e 4a7c ffbd
00000010: 0e05 483e c395 03be df31 353e 587b e93b
00000020: 5e78 d23d ce81 873d dc24 f83d 5f43 873d
00000030: 0571 f73d aae5 adbd ce33 8bbd 8617 40bd
00000040: 7a7b ccbc 9c30 493d 41be d8bd 221d ec3d
00000050: 1838 1ebe 8db1 0f3e 8514 043e 8e0c 333d
00000060: 0288 0ebd 3199 393d cdb8 493e 8f48 2839
00000070: 54f7 9cbd ff2f 253e c991 e7bd f374 323e

fc3.weight f4 [3, 32]
-0.010650016 0.34713948 -0.0965405 0.124931864 0.036047224 0.19160916 0.18228082 0.16232178
-0.13336873 -0.23104896 0.28789273 -0.06690312 0.055922035 0.3395031 0.26986048 0.07684561
-0.27379733 -0.071115956 0.090683885 -0.26731518 0.055940233 -0.051092073 0.003222511 -0.09090803
0.17043012 -0.11432634 0.305561 -0.29376918 0.2548775 0.07633174 -0.112157136 -0.001135686
0.14933352 -0.08716688 -0.027062073 0.007212998 -0.025465177 -0.23669566 -0.22481768 0.04145405
0.11908341 -0.016295854 -0.08057509 -0.093937695 -0.32450482 -0.3240272 -0.22854911 -0.07615742
0.3106262 -0.10327551 0.12095592 0.22218023 -0.28472167 -0.10067784 0.0005583642 0.037265897
-0.050026424 -0.1457845 -0.06124793 0.1805009 -0.27260214 -0.21871062 0.26445884 -0.18936758
0.08682771 -0.037169673 -0.23326191 0.20136538 -0.22038683 0.13614075 -0.20454347 0.21170022
0.061241195 -0.112197004 -0.11502084 0.01617314 -0.11899458 -0.09548981 -0.19858932 -0.09572071
-0.22942264 0.08929071 0.3299199 -0.20358779 0.04625408 -0.16382867 0.089524515 0.0009114344
-0.09317814 0.1482425 -0.2123144 0.020740299 -0.14284402 -0.14173609 -0.11712064 -0.14048018
00000000: 687d 2ebc 44bc b13e 07b7 c5bd 47dc ff3d
00000010: 41a6 133d 3135 443e d3a7 3a3e ae37 263e
00000020: d091 08be 1998 6cbe ad66 933e 8104 89bd
00000030: 810e 653d 5ad3 ad3e 272b 8a3e 3b61 9d3d
00000040: 2a2f 8cbe 3ea5 91bd 79b8 b93d 89dd 88be
00000050: 9621 653d ec45 51bd c330 533b fd2d babd
00000060: 3c85 2e3e ee23 eabd 7e72 9c3e ea68 96be
00000070: 4e7f 823e d153 9c3d a4b2 e5bd 4cdb 94ba
00000080: e3ea 183e 8d84 b2bd 48b1 ddbc 035b ec3b
00000090: 599c d0bc 5960 72be 9b36 66be b9cb 293d
000000a0: 01e2 f33d e27e 85bc 8e04 a5bd 6862 c0bd
000000b0: 7f25 a6be e5e6 a5be c708 6abe 6cf8 9bbd
000000c0: 660a 9f3e 1c82 d3bd bdb7 f73d 3783 633e
000000d0: 0ac7 91be 2f30 cebd 305f 123a 20a4 183d
000000e0: 82e8 4cbd 8848 15be 1cdf 7abd 3ad5 383e
000000f0: 8292 8bbe adf5 5fbe 2667 873e 93e9 41be
00000100: bad2 b13d 3a3f 18bd 36dc 6ebe ba32 4e3e
00000110: 16ad 61be 7b68 0b3e d873 51be f1c7 583e
00000120: 0cd8 7a3d 8bc7 e5bd 0c90 ebbd 887d 843c
00000130: 6eb3 f3bd 2990 c3bd 005b 4bbe 3809 c4bd
00000140: c5ed 6abe 0cde b63d 43eb a83e 5179 50be
00000150: eb74 3d3d b4c2 27be a158 b73d 54ed 6e3a
00000160: 2ed4 bebd e2cc 173e f268 59be 8fe7 a93c
00000170: b445 12be 4423 11be f2dc efbd 09da 0fbe

fc3.bias f4 [3]
0.05414625 -0.11683546 -0.10858641
00000000: 75c8 5d3d 6e47 efbd 8d62 debd
